notebooks/fcModel_202105171156.tflite (tflite, 140324 bytes, 7 tensors)

sequential_2/dense_11/BiasAdd/ReadVariableOp/resource f4 [3]
00000000: 0000 0000 0000 0000 0000 0000
0.0 0.0 0.0

sequential_2/dense_8/BiasAdd/ReadVariableOp/resource f4 [256]
00000000: 0000 0000 0000 0000 0000 0000 0000 0000
00000010: 0000 0000 0000 0000 0000 0000 0000 0000
00000020: 0000 0000 0000 0000 0000 0000 0000 0000
00000030: 0000 0000 0000 0000 0000 0000 0000 0000
00000040: 0000 0000 0000 0000 0000 0000 0000 0000
00000050: 0000 0000 0000 0000 0000 0000 0000 0000
00000060: 0000 0000 0000 0000 0000 0000 0000 0000
00000070: 0000 0000 0000 0000 0000 0000 0000 0000
00000080: 0000 0000 0000 0000 0000 0000 0000 0000
00000090: 0000 0000 0000 0000 0000 0000 0000 0000
000000a0: 0000 0000 0000 0000 0000 0000 0000 0000
000000b0: 0000 0000 0000 0000 0000 0000 0000 0000
000000c0: 0000 0000 0000 0000 0000 0000 0000 0000
000000d0: 0000 0000 0000 0000 0000 0000 0000 0000
000000e0: 0000 0000 0000 0000 0000 0000 0000 0000
000000f0: 0000 0000 0000 0000 0000 0000 0000 0000
00000100: 0000 0000 0000 0000 0000 0000 0000 0000
00000110: 0000 0000 0000 0000 0000 0000 0000 0000
00000120: 0000 0000 0000 0000 0000 0000 0000 0000
00000130: 0000 0000 0000 0000 0000 0000 0000 0000
00000140: 0000 0000 0000 0000 0000 0000 0000 0000
00000150: 0000 0000 0000 0000 0000 0000 0000 0000
00000160: 0000 0000 0000 0000 0000 0000 0000 0000
00000170: 0000 0000 0000 0000 0000 0000 0000 0000
00000180: 0000 0000 0000 0000 0000 0000 0000 0000
00000190: 0000 0000 0000 0000 0000 0000 0000 0000
000001a0: 0000 0000 0000 0000 0000 0000 0000 0000
000001b0: 0000 0000 0000 0000 0000 0000 0000 0000
000001c0: 0000 0000 0000 0000 0000 0000 0000 0000
000001d0: 0000 0000 0000 0000 0000 0000 0000 0000
000001e0: 0000 0000 0000 0000 0000 0000 0000 0000
000001f0: 0000 0000 0000 0000 0000 0000 0000 0000
00000200: 0000 0000 0000 0000 0000 0000 0000 0000
00000210: 0000 0000 0000 0000 0000 0000 0000 0000
00000220: 0000 0000 0000 0000 0000 0000 0000 0000
00000230: 0000 0000 0000 0000 0000 0000 0000 0000
00000240: 0000 0000 0000 0000 0000 0000 0000 0000
00000250: 0000 0000 0000 0000 0000 0000 0000 0000
00000260: 0000 0000 0000 0000 0000 0000 0000 0000
00000270: 0000 0000 0000 0000 0000 0000 0000 0000
00000280: 0000 0000 0000 0000 0000 0000 0000 0000
00000290: 0000 0000 0000 0000 0000 0000 0000 0000
000002a0: 0000 0000 0000 0000 0000 0000 0000 0000
000002b0: 0000 0000 0000 0000 0000 0000 0000 0000
000002c0: 0000 0000 0000 0000 0000 0000 0000 0000
000002d0: 0000 0000 0000 0000 0000 0000 0000 0000
000002e0: 0000 0000 0000 0000 0000 0000 0000 0000
000002f0: 0000 0000 0000 0000 0000 0000 0000 0000
00000300: 0000 0000 0000 0000 0000 0000 0000 0000
00000310: 0000 0000 0000 0000 0000 0000 0000 0000
00000320: 0000 0000 0000 0000 0000 0000 0000 0000
00000330: 0000 0000 0000 0000 0000 0000 0000 0000
00000340: 0000 0000 0000 0000 0000 0000 0000 0000
00000350: 0000 0000 0000 0000 0000 0000 0000 0000
00000360: 0000 0000 0000 0000 0000 0000 0000 0000
00000370: 0000 0000 0000 0000 0000 0000 0000 0000
00000380: 0000 0000 0000 0000 0000 0000 0000 0000
00000390: 0000 0000 0000 0000 0000 0000 0000 0000
000003a0: 0000 0000 0000 0000 0000 0000 0000 0000
000003b0: 0000 0000 0000 0000 0000 0000 0000 0000
000003c0: 0000 0000 0000 0000 0000 0000 0000 0000
000003d0: 0000 0000 0000 0000 0000 0000 0000 0000
000003e0: 0000 0000 0000 0000 0000 0000 0000 0000
000003f0: 0000 0000 0000 0000 0000 0000 0000 0000
0.0 0.0 0.0 0.0 0.0 0.0 0.0 0.0
0.0 0.0 0.0 0.0 0.0 0.0 0.0 0.0
0.0 0.0 0.0 0.0 0.0 0.0 0.0 0.0
0.0 0.0 0.0 0.0 0.0 0.0 0.0 0.0
0.0 0.0 0.0 0.0 0.0 0.0 0.0 0.0
0.0 0.0 0.0 0.0 0.0 0.0 0.0 0.0
0.0 0.0 0.0 0.0 0.0 0.0 0.0 0.0
0.0 0.0 0.0 0.0 0.0 0.0 0.0 0.0
0.0 0.0 0.0 0.0 0.0 0.0 0.0 0.0
0.0 0.0 0.0 0.0 0.0 0.0 0.0 0.0
0.0 0.0 0.0 0.0 0.0 0.0 0.0 0.0
0.0 0.0 0.0 0.0 0.0 0.0 0.0 0.0
0.0 0.0 0.0 0.0 0.0 0.0 0.0 0.0
0.0 0.0 0.0 0.0 0.0 0.0 0.0 0.0
0.0 0.0 0.0 0.0 0.0 0.0 0.0 0.0
0.0 0.0 0.0 0.0 0.0 0.0 0.0 0.0
0.0 0.0 0.0 0.0 0.0 0.0 0.0 0.0
0.0 0.0 0.0 0.0 0.0 0.0 0.0 0.0
0.0 0.0 0.0 0.0 0.0 0.0 0.0 0.0
0.0 0.0 0.0 0.0 0.0 0.0 0.0 0.0
0.0 0.0 0.0 0.0 0.0 0.0 0.0 0.0
0.0 0.0 0.0 0.0 0.0 0.0 0.0 0.0
0.0 0.0 0.0 0.0 0.0 0.0 0.0 0.0
0.0 0.0 0.0 0.0 0.0 0.0 0.0 0.0
0.0 0.0 0.0 0.0 0.0 0.0 0.0 0.0
0.0 0.0 0.0 0.0 0.0 0.0 0.0 0.0
0.0 0.0 0.0 0.0 0.0 0.0 0.0 0.0
0.0 0.0 0.0 0.0 0.0 0.0 0.0 0.0
0.0 0.0 0.0 0.0 0.0 0.0 0.0 0.0
0.0 0.0 0.0 0.0 0.0 0.0 0.0 0.0
0.0 0.0 0.0 0.0 0.0 0.0 0.0 0.0
0.0 0.0 0.0 0.0 0.0 0.0 0.0 0.0

sequential_2/dense_9/BiasAdd/ReadVariableOp/resource f4 [64]
00000000: 0000 0000 0000 0000 0000 0000 0000 0000
00000010: 0000 0000 0000 0000 0000 0000 0000 0000
00000020: 0000 0000 0000 0000 0000 0000 0000 0000
00000030: 0000 0000 0000 0000 0000 0000 0000 0000
00000040: 0000 0000 0000 0000 0000 0000 0000 0000
00000050: 0000 0000 0000 0000 0000 0000 0000 0000
00000060: 0000 0000 0000 0000 0000 0000 0000 0000
00000070: 0000 0000 0000 0000 0000 0000 0000 0000
00000080: 0000 0000 0000 0000 0000 0000 0000 0000
00000090: 0000 0000 0000 0000 0000 0000 0000 0000
000000a0: 0000 0000 0000 0000 0000 0000 0000 0000
000000b0: 0000 0000 0000 0000 0000 0000 0000 0000
000000c0: 0000 0000 0000 0000 0000 0000 0000 0000
000000d0: 0000 0000 0000 0000 0000 0000 0000 0000
000000e0: 0000 0000 0000 0000 0000 0000 0000 0000
000000f0: 0000 0000 0000 0000 0000 0000 0000 0000
0.0 0.0 0.0 0.0 0.0 0.0 0.0 0.0
0.0 0.0 0.0 0.0 0.0 0.0 0.0 0.0
0.0 0.0 0.0 0.0 0.0 0.0 0.0 0.0
0.0 0.0 0.0 0.0 0.0 0.0 0.0 0.0
0.0 0.0 0.0 0.0 0.0 0.0 0.0 0.0
0.0 0.0 0.0 0.0 0.0 0.0 0.0 0.0
0.0 0.0 0.0 0.0 0.0 0.0 0.0 0.0
0.0 0.0 0.0 0.0 0.0 0.0 0.0 0.0

sequential_2/dense_10/MatMul f4 [256, 64]
00000000: 2d29 87bd 0026 50bc f826 df3d 0028 213d
00000010: 203c 3b3d 7c9c 0abd 6e14 cabd 7819 0fbd
00000020: e6cf 73bd f89e 893d 76a1 f5bd a214 81bd
00000030: c237 70bd 3621 bcbd 785e cbbd 08af 5fbc
00000040: b442 6c3d 58ad 64bd 7826 b9bc 00cf acbc
00000050: 7c8f 163d 02df 3fbd 8089 a5ba 6479 bd3d
00000060: 8c40 febc f85e 983d ec4f 923d 30a7 fe3d
00000070: 80b9 0f3d 9013 22bd 569d 38bd 0088 deb9
00000080: 7a7a 4fbd d43f f93d 48c5 d6bc 90c3 053e
00000090: 8838 c4bc cfce 85bd 8f16 e7bd 7661 c7bd
000000a0: fcce 723d 68d0 af3c 740d f93d 0008 1739
000000b0: de7c 013e a8cf 133d b784 f2bd 7806 1bbd
000000c0: a4a6 ddbd b2f4 d83d de75 7fbd 902a c8bd
000000d0: 36eb d83d 4cfe a4bd c08c 343b 6186 a8bd
000000e0: ca2d b83d 1257 c13d 8ccb cabc eaa0 8ebd
000000f0: 0876 3e3d 02e5 35bd d86e 6c3d b258 c53d
00000100: ae15 02be e881 823c 2e7c 823d b024 be3d
00000110: 78ac b83d 10e7 d3bd da4f 0abe c887 0d3d
00000120: 00ad d43b bc34 f13d 7e0d 9dbd c872 9bbd
00000130: e862 bc3d ab6b bebd 2087 bbbc 70d1 803d
00000140: 30a1 f93c 5481 683d d400 a13d 2250 05be
00000150: 704b 703d 470d ddbd fa27 053e 243f 02be
00000160: 1caf 87bd 4bfb 83bd bf7d d9bd 848d e33d
00000170: 46ac ebbd fcd1 23bd 0880 efbd c645 a9bd
00000180: a07f e43b 5005 0d3d 50e1 903c 5c9c c7bd
00000190: 8882 743d 8091 5b3b b894 afbc f602 aa3d
000001a0: 26c0 3dbd 7eda 843d 7eb6 b93d 2b86 01be
000001b0: 6e4c 21bd 21a9 86bd 0e0a 36bd 7c2d bebc
000001c0: 1250 f1bd b06a 5cbd 00c9 b0bd 7ea9 013e
000001d0: 629b 6bbd fce2 153d 980a b7bd eb3e d2bd
000001e0: 0a89 0abd c698 f6bd 50c5 143d e06c 9b3d
000001f0: 287c f13d 8036 0d3c 66d9 063e 0804 a03c
00000200: 7709 bfbd 5250 7abd 3c75 fd3d 805b f43a
00000210: 5446 b5bd 64fd 97bd 9c47 0c3d 58a4 ab3c
00000220: a0a5 503d 5bab 0bbe a086 323d 80ce 903d
00000230: 0835 fdbd 380f 9f3d 0210 8a3d 02af 40bd
00000240: 3718 f4bd 54bd 323d e1a0 b0bd faa9 48bd
00000250: c494 5c3d dfef cbbd c00e 273c 4cc8 56bd
00000260: a838 e83c b8d3 f53d e64e 3abd fee1 d73d
00000270: d094 403d 4cc9 a33d 9402 fb3d 6c7a be3d
00000280: 009c e63c c027 063b 0cc2 b6bc 2806 afbd
00000290: c213 8e3d 5029 31bd ae1c ce3d 0033 7d3d
000002a0: 627d 023e b866 863d 403a 7bbb 2620 b2bd
000002b0: a84e 853d d058 373d 40b1 a13c 3acd aabd
000002c0: d8ed ff3d aaed e0bd 9829 943c a074 f43d
000002d0: 3e31 aebd 3a44 0abd 78aa c03d e0ef ecbb
000002e0: 54fa 883d 80be 81bb dc88 f43d 303d fa3d
000002f0: 0a4c 27bd 20a7 743c ec05 41bd a63d 983d
00000300: d635 2dbd c016 86bd dc71 fcbc e205 d73d
00000310: a0fb b53c 9837 4abc 3665 19bd 6adb 973d
00000320: 5187 f4bd ded7 41bd f04d ad3c 85ca bfbd
00000330: b3bd bdbd 9eab 61bd d60a bb3d 7011 e83d
00000340: e804 f73c b01a dc3c f0c2 a23d 2067 8cbc
00000350: 120f b13d 59a9 8fbd 0854 853d a4ae 4bbd
00000360: 801e b73b 4a53 ae3d 4023 8f3c b4be 783d
00000370: 8242 963d c112 0bbe 6013 423c 004a 2dbd
00000380: 28dc f83d d09f 0bbc 0854 d3bd 7a71 09be
00000390: a811 c8bd 428b a8bd 966e bf3d 5368 84bd
000003a0: f2a7 9dbd 2e64 d8bd 142b f1bc a88c c43c
000003b0: fef4 073e f865 a33c c442 933d 9474 643d
000003c0: 30f7 e13d 6e72 a9bd 90d2 033c ce04 08be
000003d0: 9009 ec3c 7e7d 0b3e 10be 0fbc 146c c4bc
000003e0: 5691 86bd c5fd 86bd 388a 7a3d c42c d3bc
000003f0: ea8f 34bd 544e 063e c8f9 463d 2c34 17bd
-0.065996505 -0.012704372 0.108961046 0.039344788 0.045711637 -0.03384064 -0.09867178 -0.0349364
-0.05952444 0.06719774 -0.11993687 -0.063027635 -0.058646925 -0.09186022 -0.09930128 -0.013652571
0.0576808 -0.055829376 -0.022601351 -0.021094799 0.03675793 -0.046843536 -0.0012629479 0.09251669
-0.031036638 0.07439989 0.0714415 0.12434232 0.035089016 -0.039569438 -0.045071922 -0.00042444468
-0.050653912 0.121703774 -0.026217118 0.13062882 -0.023952737 -0.06533586 -0.112835996 -0.09735386
0.059279427 0.02146168 0.12160769 0.00014403462 0.1264529 0.03608671 -0.118417196 -0.037847966
-0.108228 0.10593547 -0.062368266 -0.09773743 0.10591738 -0.08056316 0.0027549714 -0.08228756
0.089931086 0.094404355 -0.024755262 -0.06964286 0.046499282 -0.044407852 0.057722896 0.09636058
-0.12703583 0.015931085 0.06371342 0.09284341 0.09017271 -0.10346806 -0.13507023 0.03455332
0.00649035 0.117776364 -0.07668589 -0.07590252 0.09198552 -0.0929788 -0.022891581 0.06289947
0.030472368 0.056763962 0.07861486 -0.1301885 0.058665693 -0.10793548 0.13003531 -0.12719399
-0.06625196 -0.06444415 -0.10619687 0.11110976 -0.11507468 -0.03999518 -0.11694342 -0.08265261
0.006973222 0.034428895 0.017685562 -0.0974662 0.059694797 0.0033503473 -0.02143322 0.08301346
-0.046325825 0.064869866 0.09068011 -0.12648837 -0.03937953 -0.065752275 -0.044443183 -0.023215048
-0.1178285 -0.053812683 -0.08632088 0.12662312 -0.05752123 0.036593422 -0.089375675 -0.10265907
-0.033822097 -0.12040858 0.036320984 0.07589126 0.11791259 0.008618951 0.13168868 0.019533172
-0.09327977 -0.061111756 0.12375876 0.0018642992 -0.08851305 -0.07421377 0.03424798 0.020952389
0.050939202 -0.13639586 0.04358542 0.07070637 -0.123636305 0.077665746 0.067413345 -0.0470419
-0.11918681 0.04363759 -0.08624435 -0.048990227 0.05385281 -0.09957861 0.010196388 -0.05243711
0.028347328 0.12003273 -0.0454854 0.105411515 0.04701692 0.07997379 0.12256351 0.09300694
0.028150558 0.002047047 -0.022309326 -0.08546096 0.06937362 -0.04325229 0.10064064 0.061816216
0.12743142 0.06562561 -0.003833428 -0.08697538 0.06509143 0.044762433 0.01973784 -0.08339925
0.12496537 -0.10982831 0.01808624 0.11936307 -0.08505486 -0.033756472 0.09407514 -0.0072307438
0.06688371 -0.003959477 0.11940166 0.12218702 -0.040844 0.014932424 -0.04712479 0.074336335
-0.04228767 -0.06547308 -0.030816011 0.10499169 0.02221471 -0.012342356 -0.037450038 0.07414897
-0.11939872 -0.047325008 0.021155328 -0.093647994 -0.09264698 -0.055095308 0.09132926 0.11331451
0.030153707 0.026868194 0.079473376 -0.017139018 0.086454526 -0.070147224 0.06510168 -0.049727097
0.0055883527 0.0851198 0.017472863 0.060728744 0.07336904 -0.13581373 0.01184544 -0.0423069
0.121513665 -0.008521989 -0.10318762 -0.13422194 -0.09768993 -0.08229686 0.093472645 -0.06465211
-0.07698049 -0.10565983 -0.029439487 0.023992851 0.13277051 0.019946083 0.07190469 0.05577524
0.110334754 -0.08273779 0.0080458075 -0.13283083 0.028813154 0.1362209 -0.008773342 -0.023977317
-0.065706894 -0.065913714 0.061166972 -0.025778182 -0.04408256 0.13115817 0.048578054 -0.03691499

sequential_2/dense_11/MatMul f4 [3, 256]
00000000: 046d 91bd 7c9b c13d a83b ea3d 3c08 ed3d
00000010: 822d cbbd 30ef e63d a08e c53b 27ba c1bd
00000020: b98c 01be 2491 f6bd 104f 143e b440 e63d
00000030: 086e 11be 8324 b8bd d8a8 c93d 0086 a2bc
00000040: cc45 963d a1a4 84bd b47e e0bd c0d0 84bc
00000050: 7894 e53d e82a fabd ce17 33bd 3021 0b3d
00000060: 924f 183e 64e1 893d 8811 f73d b3c2 04be
00000070: d8bc e03c 9ac4 133e c866 e33c 009b cebc
00000080: d227 05be b6c4 19be 2a9b 0dbd c4aa 053e
00000090: 1051 58bd dfcc 03be c5c9 1abe a0eb 213d
000000a0: 194f a0bd 9841 adbc 3049 c4bc 1660 3cbd
000000b0: ae05 bc3d ca7f 1b3e 4ecb 9c3d 50f2 0f3d
000000c0: 1c3e e2bd 10df 873d 7ad4 56bd ca42 8b3d
000000d0: 8ea5 dbbd fd1e 07be 47f9 b6bd 889e c83c
000000e0: 2ab1 9f3d 9004 4abd 70d3 23bd d807 7dbd
000000f0: 287b 59bd 50a8 c53d 0fb8 0abe f6c3 05be
00000100: 0022 1abb a0a4 ca3d 9cce 993d 6064 bdbd
00000110: a0ba 20bc 9836 fa3d 34d8 dc3d 4e54 0f3e
00000120: 00fb 5cba f472 1bbe 8aef 183e c527 02be
00000130: 86ae b0bd 14fd 9f3d d88d 243d 1c3c f33d
00000140: 24bb eabd c203 853d 8020 3fbc 4699 8a3d
00000150: 846f 1e3d 7801 eabc 0a33 a9bd 508e 71bc
00000160: 3813 5b3d e032 30bd c0b4 cb3b 6d08 afbd
00000170: dfb4 a1bd 9012 2e3c 5b25 9bbd 70f9 ae3c
00000180: 3019 99bd 3041 b93d a008 eebb 087e 4c3d
00000190: 3cfb c63d 976f 95bd 7f8c 16be 2440 a0bd
000001a0: 2e2b 013e aab2 ba3d 5c2d 0cbe f8bd 7e3d
000001b0: c8e0 e3bc b0a3 233c d613 ebbd c871 953d
000001c0: 2853 d73c 80a7 e3bb d03a 12bd 14d2 56bd
000001d0: 9270 183e 1107 8abd dd5f cabd a026 a53b
000001e0: 76b7 aa3d ad25 07be c2c2 1a3e e0ff f23c
000001f0: 30bd 14bd e5bd ecbd 00c2 15ba 1f2e 1abe
00000200: eca5 fd3d 305f da3d 74d8 3e3d 9c75 f83d
00000210: 40ea e33d cd19 1bbe d8f8 5fbd a4de dc3d
00000220: 200c d73d d02a 633c 7692 953d 5a2d d0bd
00000230: e8e4 f63d 2bd2 b1bd e03f f33d 285e c9bc
00000240: 0887 2e3d f43a 213d 5a9d 09be 70d0 683c
00000250: 9c4d 8fbd d816 de3d d885 f9bc d0bc 783d
00000260: 1a84 d7bd 3490 02bd 587d afbc a440 7bbd
00000270: 4251 bd3d f9f1 0abe 2aef 163e b6ac 1a3e
00000280: 4cbf ef3d f86e a13d 7fc7 00be 7b74 fdbd
00000290: 40c1 0fbc 9bb8 c0bd c806 8a3d dffb c7bd
000002a0: ba07 2abd f647 26bd 5499 593d 3017 193e
000002b0: a22d 57bd 951c 95bd 2099 e03d c084 e3bb
000002c0: 08f5 3dbd 9ad6 5bbd 8148 b2bd 6c36 723d
000002d0: fc38 38bd 10e7 ea3c c8c3 7ebd 08a0 d1bc
000002e0: fe23 f1bd 24cc 60bd 38bf eebc 2824 a7bc
000002f0: 203a aa3b 8c78 3f3d 5098 6abc ccec d23d
00000300: 7451 693d a063 c03b 08b2 f5bc e25b 853d
00000310: daa0 00bd dc5c b23d bab8 08bd 1845 0f3e
00000320: c82c c5bd f8f6 0c3d 808c 93bc 4662 c1bd
00000330: e232 31bd f085 2e3c 9adf af3d 7422 c23d
00000340: 60ee 033e fdb4 aabd 0ce9 e1bd f9d7 8bbd
00000350: 5521 10be 1680 0ebe 76dc 76bd 504e 4fbc
00000360: 6e57 e2bd 2131 b0bd 4054 7e3c e057 613c
00000370: 902c b43c ec83 0d3e 08ef 0e3e a81a 813d
00000380: 2682 63bd c0cd 343b 6c8c 6e3d e87a e83c
00000390: 1bde a5bd a05a 833c 945e 0cbe 5f2e f5bd
000003a0: 00e4 a33c 0018 96b9 dc55 3dbd f69f a63d
000003b0: d4f7 f7bc f03d b0bc a257 033e 182b f23d
000003c0: a4c7 f5bc 3e97 ccbd ac90 673d 30a9 ed3d
000003d0: a064 d23d 2edc 013e cca2 483d 6a9b 0abe
000003e0: 9dff 87bd 083b 2b3d 3489 fabc 7367 09be
000003f0: 4206 a43d 80b9 923b 923e 53bd c09a 2e3c
-0.07100871 0.094534844 0.1143716 0.11573836 -0.09920789 0.1127609 0.006028965 -0.09459334
-0.12651338 -0.12039402 0.14483285 0.1124281 -0.1420213 -0.08991339 0.098466575 -0.019839287
0.073375314 -0.06476713 -0.10961667 -0.016212821 0.11209959 -0.12215215 -0.043723874 0.033967197
0.14874104 0.06732443 0.12063891 -0.12964897 0.027433798 0.14430466 0.02775897 -0.025220394
-0.13003471 -0.15016446 -0.034571804 0.13053423 -0.052811682 -0.12871121 -0.15116031 0.03953135
-0.07827587 -0.021149442 -0.02396068 -0.045990072 0.09180771 0.15185466 0.07655965 0.035143197
-0.11047003 0.06634343 -0.052448727 0.067998484 -0.107249364 -0.13195415 -0.08934265 0.024489656
0.07797463 -0.049320757 -0.039996564 -0.06177506 -0.053095967 0.09651244 -0.13546775 -0.13063034
-0.00235188 0.09894681 0.07510111 -0.09247661 -0.00981012 0.12217444 0.10783425 0.13997003
-0.0008429736 -0.1518057 0.14935127 -0.12710483 -0.08627038 0.07811943 0.040174335 0.11876699
-0.114614755 0.06494857 -0.011665463 0.06767516 0.03868057 -0.028565153 -0.08261688 -0.014743403
0.053485125 -0.04301727 0.0062166154 -0.08546529 -0.078958265 0.010624543 -0.07575484 0.021359175
-0.07475507 0.09045637 -0.007264212 0.04992488 0.09715888 -0.07296675 -0.14702033 -0.07824734
0.12614128 0.09116109 -0.13689178 0.062192887 -0.027817145 0.009987757 -0.11478393 0.07297093
0.02628477 -0.006947458 -0.03570062 -0.05244644 0.14886692 -0.06739629 -0.09881566 0.005040005
0.08335774 -0.13197966 0.15113357 0.029663026 -0.036313236 -0.11559657 -0.0005712807 -0.15056656
0.12385163 0.10662687 0.046593145 0.12131807 0.11128664 -0.15146561 -0.054680675 0.10784653
0.105003595 0.013865188 0.07303326 -0.101649 0.12055379 -0.086826645 0.118774176 -0.02458103
0.042609245 0.039362863 -0.13438931 0.014209852 -0.06997225 0.10844201 -0.03045933 0.06072694
-0.10523243 -0.031875804 -0.021422073 -0.061340943 0.09244014 -0.13568868 0.14739671 0.15104946
0.11706409 0.07882494 -0.12576102 -0.123757325 -0.008774102 -0.09410211 0.06739575 -0.097648375
-0.041511275 -0.04059597 0.05312474 0.14950252 -0.052533753 -0.07280842 0.10966706 -0.0069433153
-0.046376258 -0.053671457 -0.08705235 0.059133932 -0.04497622 0.028674632 -0.06219843 -0.025589004
-0.11774443 -0.054882184 -0.029143915 -0.020402983 0.0051949173 0.04674582 -0.014318541 0.10299072
0.056962445 0.005871251 -0.029992118 0.06511666 -0.0314034 0.08709118 -0.033379294 0.13991201
-0.09627682 0.034415215 -0.018011332 -0.09442572 -0.043261416 0.01065205 0.085875705 0.09479228
0.12883902 -0.08335302 -0.11030778 -0.06828303 -0.14075215 -0.13916048 -0.06026884 -0.0126529485
-0.11051832 -0.086031206 0.015523016 0.013753861 0.021993905 0.13819855 0.1395837 0.063039124
-0.05554404 0.0027588457 0.058239385 0.028378919 -0.08099004 0.016034424 -0.13707954 -0.11971735
0.02000618 -0.0002862811 -0.04622446 0.08135979 -0.03026954 -0.02151391 0.12826398 0.11824626
-0.030002423 -0.09989785 0.056534454 0.116045356 0.10273099 0.12681648 0.04898338 -0.13535848
-0.06640551 0.041804343 -0.030583002 -0.13418369 0.08009006 0.0044776797 -0.051573344 0.010657012

sequential_2/dense_8/MatMul f4 [256, 3]
00000000: ae22 f9bd 588f c43d 5036 0a3e 482d 7c3d
00000010: bf03 99bd 716d c1bd 2e9c 89bd 4c27 823d
00000020: 522a 57bd dab5 06be 342a 083e c0dc c03d
00000030: 48c4 fc3d 90ea f33c 2024 d73c 44e3 12bd
00000040: 3f93 aebd f8bd 9ebc 1ce8 06be 3453 d03d
00000050: 1379 eebd d8e7 553d c448 173e 1f99 16be
00000060: e049 c93b 9015 df3d 7a65 d0bd fcd3 303d
00000070: e089 febb e03b f9bb e080 76bd 8025 e43c
00000080: 046e 253d c494 3f3d 4ecf a03d dec5 77bd
00000090: 781d ff3c 208b d0bc 10c8 7fbc 38de 0d3e
000000a0: 0029 97bc 0231 163e f0a4 d43d e8e2 a0bc
000000b0: 407c d0bd 341e 713d 7ae9 76bd 5c96 0f3e
000000c0: 888f d63d 0015 173c 845a e73d 60a5 233c
000000d0: 4e26 063e a65d c9bd 588e 883d 3436 06be
000000e0: c899 fc3d 36f4 5bbd 76c7 09be b836 e03d
000000f0: 0e65 88bd 0d84 8bbd 6623 9bbd ffd9 a2bd
00000100: a5f0 c7bd e048 f3bb 4adf 92bd 3621 c73d
00000110: 8cf9 f5bd f038 87bc 0afd 083e b0f2 ca3d
00000120: 6c1e f33d 948b 1f3d 0455 d03d 4422 43bd
00000130: 34c3 b53d eaf6 073e c47b d9bd 3ca7 033d
00000140: c03c 263b 2e9b b6bd e0d5 983b b86a 5e3d
00000150: 56ff c23d 6e92 f8bd dcc0 7fbd 90ca 1b3e
00000160: 061c 22bd 5465 c0bd e01d 143d 5814 483d
00000170: 10fb 04be 00ac b2bc 409b 563d ee1a a63d
00000180: f8ef c63c 84f4 05be c437 843d c883 f8bc
00000190: 40ef 12be b8bd e43c d43b ddbd 5acb f2bd
000001a0: 9e0b c23d 86ff b4bd 0802 f1bd 0e2e 963d
000001b0: 34e8 3dbd 9922 b9bd 9c74 383d b280 0b3e
000001c0: 16ae c63d e421 ab3d 18af f63d d084 633d
000001d0: 0ef6 f1bd 60f9 8dbb 9f62 9ebd e4fe 07be
000001e0: ae71 17be 0050 a13d d054 8ebd 00ec 7f3c
000001f0: e080 02bc 5486 953d 4a73 9e3d 1bbd 0fbe
00000200: 44cc 0abd f8aa 72bd 0244 41bd 908d 0b3e
00000210: 337e 0bbe be61 c43d 18c6 893d fa7d 34bd
00000220: c084 01bb f4aa 65bd 880c f6bd 80c8 803c
00000230: f422 0c3d 60b9 ed3d a46a ce3d 5894 c03d
00000240: 9220 1fbd a07f 4d3c 6839 33bd 5cad 0d3e
00000250: 1cde 4b3d bc3f 56bd de1b 04be b6a0 c0bd
00000260: 30ca de3d 70cf 703c 307b f03d e20b b1bd
00000270: 6094 483d 14e2 4dbd 983d cd3d 70c3 8d3d
00000280: 38a4 01be 88aa 1dbd fa9e e9bd 82db bf3d
00000290: e291 07be f81d fabc 9401 ba3d 00a4 843a
000002a0: c184 bfbd 7e2c 0fbe 0618 b43d b266 083e
000002b0: 8a6d 4fbd bce4 a6bd 7b50 d9bd bcfd 2c3d
000002c0: 54ac bd3d 97c9 96bd 33e3 a4bd 44f0 ebbd
000002d0: 384a bc3c f847 a03c d0c7 e1bc 8e46 b6bd
000002e0: 5059 2a3d 5cb6 eabc c047 0e3c 809b 62bb
000002f0: 5219 993d c46b cc3d 3e66 0f3e f01a 1fbd
00000300: 6c5c 0d3d 3907 88bd d008 6abd 9e84 5dbd
00000310: 2026 a53c 2054 de3c e0e2 f3bc 30fc 8e3c
00000320: 9c32 e63d 00e9 5d3d c45f 10be d70a eebd
00000330: 4052 893b b51d 05be de28 17be 2b32 11be
00000340: f0d9 1b3c d8e9 a13c a4c0 f43d 24c0 dcbd
00000350: 6e9e d1bd 4d3d 81bd 1499 5bbd 8007 92bd
00000360: 00ae a339 0072 44bc e28c 153e f897 933d
00000370: da42 893d 22c8 fdbd 6446 993d 009d 00ba
00000380: a84b a83c 1cd1 43bd 28bb 9c3c 40be db3b
00000390: 4811 1a3d 131e cdbd c2f2 4fbd 8ac4 c9bd
000003a0: ac1b b1bd c6ec 17bd 5857 58bd 1f26 febd
000003b0: 4c89 d93d 740c ac3d f0f9 8c3d 7020 213d
000003c0: 9c6e bfbd d698 a5bd b8e6 e43d cc97 0f3e
000003d0: 0c69 753d b630 03be d419 c7bd 28c1 f43c
000003e0: 7f97 86bd 8f92 16be 220d a53d 5050 933c
000003f0: 0e37 c2bd 801b be3a 60b9 573c 9a09 8b3d
-0.12164818 0.09597653 0.13497281 0.06156662 -0.07471418 -0.094447024 -0.06719242 0.063551515
-0.052530594 -0.13155308 0.13297349 0.09417105 0.12342125 0.029774934 0.026262343 -0.03586127
-0.08524179 -0.019377694 -0.1317448 0.1017212 -0.11644187 0.052223057 0.14773852 -0.14706849
0.00614284 0.108927846 -0.10175605 0.043170914 -0.007767901 -0.0076060146 -0.0601815 0.027849913
0.040388122 0.046772733 0.0785204 -0.060491435 0.031141981 -0.025456965 -0.015611663 0.13854301
-0.018452168 0.14667132 0.10383022 -0.019639447 -0.10179949 0.058866695 -0.060281254 0.14022201
0.10476595 0.009221315 0.11296561 0.009988159 0.1310055 -0.09832315 0.06667775 -0.13106614
0.12334019 -0.053699695 -0.13454995 0.10947937 -0.066599 -0.06812296 -0.07575111 -0.07951736
-0.09762696 -0.007424459 -0.07171495 0.09723131 -0.12010488 -0.016506642 0.13377777 0.0990957
0.11871037 0.03895147 0.101724654 -0.0476401 0.08875123 0.13277784 -0.106193095 0.03214191
0.00253658 -0.08916317 0.0046641678 0.054300994 0.09521358 -0.12137304 -0.062439784 0.1521399
-0.039577506 -0.09394327 0.036161304 0.048847526 -0.12986398 -0.021810532 0.05239415 0.08110605
0.024284348 -0.13081557 0.06455949 -0.030336276 -0.14349079 0.027922496 -0.10802427 -0.118551925
0.09474872 -0.088378 -0.117679656 0.07333003 -0.046364024 -0.09039802 0.045033082 0.13623312
0.09701173 0.083560735 0.12045115 0.05554658 -0.11814509 -0.0043327063 -0.07733654 -0.13280827
-0.14789459 0.07876587 -0.069497705 0.015620232 -0.0079652965 0.07301012 0.077368334 -0.14036982
-0.03388621 -0.05924508 -0.047183998 0.1362822 -0.1362236 0.09588955 0.067272365 -0.044065453
-0.0019762963 -0.056071237 -0.12014109 0.015720606 0.03421302 0.11607623 0.10078934 0.09403294
-0.03884942 0.012542635 -0.04375592 0.13835663 0.049772367 -0.052306876 -0.12901255 -0.09405653
0.10878408 0.014697894 0.11742246 -0.086448446 0.048969626 -0.050264433 0.10021514 0.06922042
-0.126603 -0.03849271 -0.114072755 0.0936804 -0.13239244 -0.030531868 0.09082332 0.0010119677
-0.09351493 -0.13981816 0.087936446 0.13320425 -0.050641574 -0.08149096 -0.106110536 0.042234167
0.092613846 -0.07362669 -0.08051147 -0.115204364 0.022984609 0.019565567 -0.027561098 -0.08900176
0.04158908 -0.028651409 0.008684099 -0.0034577549 0.074755326 0.09981492 0.14003846 -0.03884405
0.03451197 -0.066420026 -0.05713731 -0.05408155 0.020159781 0.027139723 -0.029771268 0.017454237
0.11240122 0.054177284 -0.14099032 -0.11623161 0.004190713 -0.12999614 -0.14761683 -0.14179294
0.00951241 0.019764826 0.11950806 -0.107788354 -0.10235296 -0.0631052 -0.053612784 -0.07130337
0.00031219423 -0.01199007 0.14604524 0.0720672 0.06702204 -0.12391688 0.07484129 -0.00049062073
0.020543888 -0.047806844 0.019132212 0.006706029 0.037614137 -0.10015502 -0.05076862 -0.0985194
-0.08647856 -0.03709104 -0.052817672 -0.12409615 0.106218904 0.08400813 0.06883609 0.039337575
-0.09347269 -0.08085792 0.111768186 0.1402275 0.059914634 -0.1281155 -0.09721723 0.02987726
-0.06571864 -0.14704345 0.080591455 0.017982632 -0.09483157 0.0014504045 0.013166755 0.06788941

sequential_2/dense_9/MatMul f4 [64, 256]
00000000: 94d1 093d fca1 d23d 4e87 03be fcd4 80bc
00000010: 0096 eabd 4443 0bbd 18e0 af3c 9ac6 823d
00000020: 6057 873d e8e1 a3bc 0c5a aebc 34c2 4d3d
00000030: ec7c 093d 3a4c d7bd 90a2 3b3c 418b 0abe
00000040: 7ec8 a9bd 3efa c13d 455a 93bd e8dd ca3d
00000050: 63e0 83bd 00db 4d3c 00fa 05ba e4f6 de3d
00000060: da02 22bd 80da d4bb 1c53 f63d 4cea 1b3d
00000070: 6784 92bd e89c f3bd 9858 b0bd 8a7b 46bd
00000080: bc5a 3bbd 5ccd 56bd e672 2fbd 20cf f23b
00000090: 1059 c33c bded 01be 1860 8abc 34b4 d83d
000000a0: f0ad ef3d e2af 42bd 88d3 233d 74cd ab3d
000000b0: cc78 a9bd 16e6 903d 0b9e abbd a60a b43d
000000c0: 8cc0 703d 84fc 113d 02f6 0a3e b2d5 013e
000000d0: ec91 143d dc17 003e dce2 933d 28dd a2bd
000000e0: 157d 8dbd d4a9 de3d 74cb c5bc 0956 05be
000000f0: 3ec8 c3bd 691e 0bbe 6002 ac3b 24f9 bf3d
00000100: dc9d 7a3d e63d cd3d 4044 153d e14c 94bd
00000110: 5869 febc e019 303d 7834 033e 9084 3c3d
00000120: fe1a ac3d a4d3 d03d ea39 ddbd b49f 983d
00000130: 6c99 8c3d 1ec6 9e3d 96e9 aa3d faf9 9a3d
00000140: f3ef a2bd 2ceb 0bbd f0d5 d43d 67cf cbbd
00000150: c11b 85bd e02d a6bb 045b d5bd 5a91 013e
00000160: 3988 83bd 1271 52bd 401d 863c 08c3 a33c
00000170: eb08 86bd 28a9 ac3c 2c7c 543d 9e0c f5bd
00000180: 20d8 09bd caa5 093e fabc b7bd 2829 973c
00000190: f0a1 8d3c 54fe aabc b8b5 763d 0d5e 8dbd
000001a0: 5c52 86bc 9b3e dfbd d0d8 6b3c 7479 86bc
000001b0: 4c60 5b3d cc5d b1bc c060 04be 3e7d e43d
000001c0: 98fe d53d ba1e cf3d 0803 f93c 4a45 b6bd
000001d0: 5aab 11bd bc39 6dbd d551 8fbd c937 07be
000001e0: 4eab 7bbd ac1a e93d 088d 78bd 0af2 b9bd
000001f0: 60f4 f2bb 6d3f 04be 488e 123d f8c3 fd3d
00000200: 40b9 9abc f8b8 febc d14b 01be 0009 4a3d
00000210: 24eb f7bc 9e0a 063e 0018 18bb e234 0b3e
00000220: 2033 3a3d 76ee 053e e0da a13c e20c 3bbd
00000230: 2022 d73c cf2a f1bd 0074 9dba d0bf ab3c
00000240: f01f 4fbc a86e f83d 2e00 dd3d b80a e93d
00000250: 6057 8dbb bc42 91bd c823 c0bd 4409 6d3d
00000260: 70d8 95bc 4435 f83d c884 79bc 405d ce3b
00000270: f094 cf3d e024 5d3d 743e 853d 8056 1a3c
00000280: c0c7 563d eaf3 cbbd 2191 93bd b84d 6e3d
00000290: 40bb b0bc c052 c8bb 1ef9 0a3e 851f adbd
000002a0: 0019 33ba 985d b4bd 1592 f0bd 20a1 25bc
000002b0: a6ce f9bd e459 52bd b710 dbbd 74bd 96bc
000002c0: 5403 babd b0ac c13d 8c24 3f3d 42f0 9cbd
000002d0: 5030 a93c 6a98 003e a06a 013e 64d2 c1bc
000002e0: 9805 123d faf4 813d 18e8 7cbd 68f6 d0bd
000002f0: a4b3 813d 81b3 fdbd 1c93 543d 6036 d3bb
00000300: 9b62 a8bd a828 a93d b043 9abc 254b e2bd
00000310: fa04 bb3d e051 babd 6ab0 76bd 3c66 e13d
00000320: d0f6 bd3d 5871 243d 7673 f2bd 66c6 013e
00000330: 00fd 463b ccf6 91bd 7889 00be 5041 5abc
00000340: d4e4 823d 6a3c 813d 7a02 1ebd 0886 073e
00000350: 98e1 d03c 5251 3bbd b8e2 79bc a60d b8bd
00000360: 8ca4 033d 70a1 14bc 340e 5bbd 8cc0 babd
00000370: b836 9c3c 946e 773d 7e0a 7abd 807d 303c
00000380: 3c2f 7dbd 3c9d 2c3d e847 f83c 3ef2 b93d
00000390: 104b 8cbc c0c4 1f3c fce0 273d 5a8b dd3d
000003a0: 14af 76bd 6a38 e73d 8059 f53d dcd0 ffbc
000003b0: 007a f83b c083 4b3d 9468 1cbd 6f9b 82bd
000003c0: dcb6 4a3d 3c78 ddbd 98b2 06bd a06e de3b
000003d0: cc20 093e cf04 febd 0203 e33d de56 cdbd
000003e0: 480c 713d 2612 5ebd 04f9 723d e4e7 24bd
000003f0: 108e a8bd d86d a5bc f6cb c93d 2881 873d
0.033647135 0.10284802 -0.12844583 -0.015726559 -0.114543915 -0.033999696 0.02146916 0.063855365
0.06608462 -0.020005181 -0.021283172 0.050234035 0.0335664 -0.10512586 0.011452332 -0.13529684
-0.08290194 0.09471558 -0.07194952 0.099056065 -0.06439283 0.012564421 -0.00051108 0.108869344
-0.0395535 -0.006495774 0.120275706 0.03806524 -0.0715416 -0.11895162 -0.08610648 -0.04845766
-0.045740828 -0.05244194 -0.042834185 0.007409945 0.02384618 -0.12688346 -0.016891524 0.10581246
0.11703098 -0.047531016 0.039996654 0.083887964 -0.08274993 0.070751354 -0.08379754 0.087910935
0.058777377 0.03564121 0.13570407 0.12679175 0.036271974 0.12509102 0.07221004 -0.079523385
-0.06908623 0.10872236 -0.024144866 -0.13021101 -0.095596775 -0.1358582 0.0052493066 0.09373692
0.061185703 0.10021572 0.03644204 -0.07241226 -0.031056091 0.042993426 0.12812984 0.04602486
0.08403586 0.10196617 -0.10802062 0.07452336 0.068652004 0.077526316 0.08345334 0.075672105
-0.07955923 -0.034159824 0.10392368 -0.09951668 -0.06499434 -0.0050713867 -0.104177505 0.12653103
-0.06422467 -0.051377364 0.01637137 0.01999046 -0.0654467 0.021076754 0.051876232 -0.11965297
-0.03365338 0.1344215 -0.08971591 0.018452242 0.017289132 -0.020873226 0.060231894 -0.069027044
-0.016396694 -0.10900613 0.014394954 -0.016415335 0.053558633 -0.021651171 -0.12927532 0.111567006
0.104489505 0.101132825 0.030396953 -0.088999346 -0.035563804 -0.057916388 -0.0699803 -0.13204874
-0.061442666 0.113820404 -0.060681373 -0.090793684 -0.0074143857 -0.1291482 0.03578022 0.12390894
-0.018887162 -0.03109406 -0.12626578 0.04932499 -0.030263491 0.13089988 -0.0023207664 0.13594392
0.045458913 0.13079247 0.019757688 -0.045666583 0.02626139 -0.11775743 -0.001201272 0.020965487
-0.012641892 0.12130481 0.1079105 0.113789976 -0.0043133944 -0.07092807 -0.09381825 0.057870165
-0.018291682 0.121195346 -0.015229411 0.0062977374 0.101358294 0.053990245 0.065060526 0.009420037
0.05243659 -0.09958632 -0.072054155 0.058179587 -0.021573663 -0.00611338 0.13571593 -0.084532775
-0.00068320334 -0.08806914 -0.11746613 -0.010109216 -0.12197618 -0.051355258 -0.106965475 -0.018400885
-0.09082666 0.09456766 0.046665713 -0.07663013 0.02065292 0.12558141 0.1263833 -0.023659892
0.035649866 0.06345554 -0.06174478 -0.10203248 0.06333092 -0.12387753 0.051898107 -0.006445691
-0.082219325 0.08259708 -0.018831104 -0.11049489 0.091318086 -0.09097648 -0.060226835 0.11005828
0.092755914 0.040147156 -0.11838429 0.12673339 0.0030363202 -0.07127151 -0.1255244 -0.013321236
0.06391302 0.06310351 -0.03857658 0.13234723 0.025498196 -0.04573185 -0.015251808 -0.08986978
0.032139346 -0.009071693 -0.053480342 -0.09118757 0.01906906 0.06040819 -0.061045162 0.010772109
-0.061812624 0.042142138 0.030307725 0.09079407 -0.017125636 0.009751499 0.040986046 0.10817595
-0.06022556 0.11290057 0.119799614 -0.031227522 0.007582903 0.049686193 -0.03818567 -0.06377303
0.049490795 -0.108139485 -0.032885164 0.00678809 0.13391417 -0.12403261 0.11084558 -0.10026334
0.058849603 -0.054216526 0.05931951 -0.04026021 -0.08230221 -0.02019398 0.098533556 0.066164315
