notebooks/fcModel_202105172331.tflite (tflite, 143524 bytes, 8 tensors)

sequential_10/dense_40/BiasAdd/ReadVariableOp/resource f4 [256]
-0.032988094 0.0 0.03188282 0.0 -0.020752769 0.0 -0.0044439184 0.0
-0.013247235 0.023286939 0.0 -0.04521133 0.0 0.024699552 0.0 0.002684609
0.017573211 -0.009111625 0.0 -0.02104495 0.0 0.0 0.033586856 0.0
0.082287975 0.015742935 0.0 -0.0028833458 0.042451628 -0.0072010607 0.02938252 0.0
-0.0006352308 0.0 0.009596372 0.048910882 -0.011945698 0.060938787 -0.0007656035 0.004604634
0.0 -0.007985738 0.0 0.055393387 0.020063642 -0.0061687585 -0.022822106 -0.047911428
0.0 0.068801925 0.0075970287 0.0 -0.014821746 0.0 0.0013085477 -0.0012554791
0.029771466 0.02239104 0.026191663 -0.005568019 0.0075474563 0.016059425 0.05929604 0.009199558
0.0065704407 0.04019297 -0.0039986456 -0.04758334 0.0 0.04343776 0.010805366 0.0
-0.030719047 0.0090337545 0.01713728 -0.009331169 0.0 0.0028613466 0.014649529 0.046626784
0.0 0.025210345 0.0004099705 0.0 0.0027200792 0.0 0.014221766 0.0
-0.012621704 0.051772706 -0.002312103 -0.020205855 0.0 -0.003650881 0.0 0.018302532
0.0012591371 0.0 0.0 -0.0080743395 0.0 0.01509643 0.0021329967 -0.012781016
-0.0058125933 0.021282492 0.0 -0.010309627 -0.005552261 0.0 -0.007818449 -0.013816581
0.0 0.0038090923 -0.0431716 0.0 -0.0026086164 0.0 -0.008034931 -0.0073967255
-0.01337858 -0.0058643827 0.057511397 0.0 -0.0035758577 -0.0007830286 0.01348397 -0.030499924
0.0 -0.019931426 -0.019215215 0.0 0.0001418825 0.008070907 0.017585253 0.0
0.0 0.0 0.023682652 -0.017995933 -0.0034355256 0.0025956726 0.0046137567 0.0
0.0 0.0 0.008817197 0.0 0.017580949 -0.02114294 -0.0123373065 0.021074586
0.010932678 0.06279362 0.0 0.0 0.0 -0.0020421643 0.026507834 0.0
0.006336279 -0.001670693 0.036147248 0.0 -0.0022676538 -0.015788903 0.0 -0.0061589144
0.022439718 0.03212036 0.0 -0.008976337 0.0 0.016518632 0.0 -0.005893941
0.043049518 -0.000110555426 0.03351604 0.0 -0.0052586105 -0.0015712603 0.012956424 0.0
0.023014816 0.009671889 0.0 0.0 0.021031305 0.035535216 0.007244754 0.0
0.016724968 0.0 0.004370288 -0.008162189 -0.012650713 0.0 -0.022238016 0.009674432
-0.007997632 -0.01200309 0.012085608 0.0 0.0 -0.0065234285 -0.007036099 -0.012954264
-0.060009178 -0.0049588536 -0.00400349 0.006467618 0.0 -0.008600275 0.0 0.021737872
-0.015208894 0.0 -0.0059616626 0.016623314 0.0 0.057890933 0.0 -0.005963063
-0.0060374457 0.024139611 0.0 0.01302934 0.0 0.022724522 0.052343093 0.0
0.0 -0.016922554 0.0041700704 0.0 -0.046437252 0.013079942 0.012990962 0.0
-0.008149403 0.015031803 0.0 -0.0037105696 -0.0062065106 0.0 0.0 0.035463456
0.02504471 0.0 -0.011984761 0.0 0.02512414 0.0 -0.07531944 0.0020152128
00000000: 861e 07bd 0000 0000 8f97 023d 0000 0000
00000010: b601 aabc 0000 0000 4a9e 91bb 0000 0000
00000020: ee0a 59bc 40c4 be3c 0000 0000 842f 39bd
00000030: 0000 0000 b756 ca3c 0000 0000 44f0 2f3b
00000040: b2f5 8f3c ed48 15bc 0000 0000 7566 acbc
00000050: 0000 0000 0000 0000 5f92 093d 0000 0000
00000060: 9986 a83d 54f7 803c 0000 0000 84f6 3cbb
00000070: c2e1 2d3d e0f6 ebbb 9cb3 f03c 0000 0000
00000080: 9e85 26ba 0000 0000 1a3a 1d3c c756 483d
00000090: e4b7 43bc f39a 793d c8b2 48ba 78e2 963b
000000a0: 0000 0000 9dd6 02bc 0000 0000 2de4 623d
000000b0: 825c a43c 4c23 cabb 6df5 babc c63e 44bd
000000c0: 0000 0000 06e8 8c3d 7ff0 f83b 0000 0000
000000d0: e9d6 72bc 0000 0000 9383 ab3a e38e a4ba
000000e0: 4ae3 f33c 6a6d b73c e68f d63c ee73 b6bb
000000f0: a750 f73b 0e8f 833c 68e0 723d beb9 163c
00000100: da4c d73b 62a1 243d 1207 83bb c0e6 42bd
00000110: 0000 0000 cbeb 313d fd08 313c 0000 0000
00000120: 83a6 fbbc 5002 143c 7b63 8c3c c2e1 18bc
00000130: 0000 0000 6e85 3b3b 9404 703c bafb 3e3d
00000140: 0000 0000 ed85 ce3c 4ff1 d639 0000 0000
00000150: 5b43 323b 0000 0000 6902 693c 0000 0000
00000160: 43cb 4ebc 9e0f 543d a786 17bb c086 a5bc
00000170: 0000 0000 9e43 6fbb 0000 0000 31ef 953c
00000180: a109 a53a 0000 0000 0000 0000 3c4a 04bc
00000190: 0000 0000 0457 773c bfc9 0b3b 7767 51bc
000001a0: 9177 bebb 9f58 ae3c 0000 0000 b6e9 28bc
000001b0: beef b5bb 0000 0000 f418 00bc f15e 62bc
000001c0: 0000 0000 f7a1 793b b4d4 30bd 0000 0000
000001d0: 52f5 2abb 0000 0000 f1a4 03bc 3b60 f2bb
000001e0: d531 5bbc 022a c0bb 1291 6b3d 0000 0000
000001f0: f058 6abb 2944 4dba dfeb 5c3c fada f9bc
00000200: 0000 0000 3b47 a3bc 3a69 9dbc 0000 0000
00000210: 4bc6 1439 d63b 043c f30e 903c 0000 0000
00000220: 0000 0000 0000 0000 1f02 c23c 356c 93bc
00000230: 8e26 61bb 291c 2a3b ff2e 973b 0000 0000
00000240: 0000 0000 0000 0000 0176 103c 0000 0000
00000250: ec05 903c f533 adbc 6a22 4abc 9ca4 ac3c
00000260: fa1e 333c f199 803d 0000 0000 0000 0000
00000270: 0000 0000 d5d5 05bb f526 d93c 0000 0000
00000280: 90a0 cf3b 28fb daba 230f 143d 0000 0000
00000290: eb9c 14bb bb57 81bc 0000 0000 b8d0 c9bb
000002a0: 80d3 b73c a390 033d 0000 0000 7c11 13bc
000002b0: 0000 0000 1552 873c 0000 0000 f621 c1bb
000002c0: b154 303d fed9 e7b8 1d48 093d 0000 0000
000002d0: 6c50 acbb bff2 cdba 2e47 543c 0000 0000
000002e0: 9189 bc3c d876 1e3c 0000 0000 0000 0000
000002f0: d849 ac3c 608d 113d 6765 ed3b 0000 0000
00000300: cd02 893c 0000 0000 a234 8f3b b4ba 05bc
00000310: f044 4fbc 0000 0000 802c b6bc 8281 1e3c
00000320: 8008 03bc 9ca8 44bc b702 463c 0000 0000
00000330: 0000 0000 7cc2 d5bb 148f e6bb 1f3e 54bc
00000340: 2fcc 75bd e17d a2bb b52f 83bb 50ee d33b
00000350: 0000 0000 2be8 0cbc 0000 0000 9f13 b23c
00000360: ba2e 79bc 0000 0000 0d5a c3bb 9e2d 883c
00000370: 0000 0000 0b1f 6d3d 0000 0000 cc65 c3bb
00000380: c4d5 c5bb 6fc0 c53c 0000 0000 0379 553c
00000390: 0000 0000 c728 ba3c b665 563d 0000 0000
000003a0: 0000 0000 2ba1 8abc 16a5 883b 0000 0000
000003b0: fd34 3ebd 414d 563c 0bd8 543c 0000 0000
000003c0: 1385 05bc f447 763c 0000 0000 072d 73bb
000003d0: fc5f cbbb 0000 0000 0000 0000 2142 113d
000003e0: 902a cd3c 0000 0000 bb5b 44bc 0000 0000
000003f0: 24d1 cd3c 0000 0000 1441 9abd a911 043b

sequential_10/dense_41/BiasAdd/ReadVariableOp/resource f4 [64]
-0.009804511 -0.0063207867 0.04634526 0.0 -0.009550155 -0.0060025635 0.066079326 0.0
-0.013799419 0.030141076 -0.0061301296 0.030753572 -0.0060839504 -0.0065759607 -0.006885029 0.0
0.0 0.0 0.037643548 0.0 -0.0110313585 0.0 0.03760965 0.0
0.017749902 -0.008106018 0.026363922 -0.0055554463 -0.018428512 0.0 -0.0065063336 0.06820805
0.0 0.043942623 0.024027338 -0.0047618547 0.034992553 -0.04670463 0.048010875 -0.0060038688
-0.006005524 0.0007972933 -0.012480004 -0.015177918 0.03160743 0.008326566 0.029831281 0.029675461
0.028840272 0.021926964 0.0 0.008115722 -0.0012995327 0.0 -0.01113645 0.0
0.037570685 -0.020127231 -0.013044 0.02483157 0.0 -0.014093529 -0.006041592 0.011671446
00000000: 1aa3 20bc 9a1e cfbb 87d4 3d3d 0000 0000
00000010: 4178 1cbc 27b1 c4bb 9954 873d 0000 0000
00000020: f516 62bc 6bea f63c 41df c8bb eaee fb3c
00000030: e05b c7bb 287b d7bb cf9b e1bb 0000 0000
00000040: 0000 0000 0000 0000 1f30 1a3d 0000 0000
00000050: dfbc 34bc 0000 0000 940c 1a3d 0000 0000
00000060: 3e68 913c 1bcf 04bc 27f9 d73c 760a b6bb
00000070: 64f7 96bc 0000 0000 1533 d5bb aab0 8b3d
00000080: 0000 0000 2efd 333d fbd4 c43c 5509 9cbb
00000090: 5a54 0f3d 5b4d 3fbd 0da7 443d 1abc c4bb
000000a0: fdc9 c4bb 7301 513a ee78 4cbc cdac 78bc
000000b0: cb76 013d 266c 083c bb60 f43c f419 f33c
000000c0: 6f42 ec3c 2da0 b33c 0000 0000 cef7 043c
000000d0: 1555 aaba 0000 0000 a875 36bc 0000 0000
000000e0: b8e3 193d dde1 a4bc 80b6 55bc 946b cb3c
000000f0: 0000 0000 8ce8 66bc 8cf8 c5bb 9839 3f3c

sequential_10/dense_42/BiasAdd/ReadVariableOp/resource f4 [256]
0.00015998425 0.0 -0.0057818755 0.03852896 0.002808201 0.029569933 -0.020246444 0.023709454
-0.01081684 0.01704734 0.027855588 -0.0053393487 0.08638887 -0.0067147417 -0.0034313556 -0.01685323
0.0 0.0072192806 0.038587097 -0.00616627 -0.002796333 -0.0067417338 0.02392507 0.026148504
0.018125039 -0.0069265673 0.0056108236 0.035159506 -0.007222657 0.026772168 -0.04027075 0.043297224
-0.02126365 -0.014716511 -0.012248668 -0.014202748 -0.0055296896 0.021250172 -0.012503113 0.02389585
0.07146582 0.0075738034 0.0005109034 -0.0068712085 0.016187444 -0.0063055134 -0.014316122 -0.0073360014
0.02411761 0.014022139 -0.0069244006 -0.019545732 0.01925904 0.013330004 0.0 0.001077941
0.0 0.017411033 -0.020084156 0.0 0.017588992 0.024929844 0.036568463 0.043724697
-0.035958625 0.018210348 -0.014759572 0.027515683 -0.01464992 -0.010154151 -0.021418145 0.0027002236
-0.007158432 -0.0010241629 0.027615359 0.022554182 0.04948976 -0.035891086 0.09202234 0.021209152
0.019037027 0.0 0.00058175443 0.0 -0.012472439 -0.023900114 0.08522719 -0.009249468
-0.006648927 0.025193205 -0.01180627 -0.0075480547 0.011523417 0.02624047 0.023367895 -0.006599159
-0.005993176 0.04502449 0.012581825 0.031490114 0.023678804 0.03114651 -0.0065883314 -0.02357773
0.024117632 -0.006966634 0.023560394 0.0 0.0024435355 0.023410728 0.05170247 -0.007903079
-0.012571699 -0.024604894 0.04264221 0.03203306 0.027428577 -0.00602461 0.027604882 0.015399912
0.012977594 0.046622384 0.025828449 0.048784204 -0.0026525036 0.005941104 -0.0059745973 -0.025558699
-0.005899927 -0.061108224 0.032734785 -0.007926527 0.0 -0.0012146608 0.021767465 0.0051899888
0.01470614 0.025253918 -0.0020045107 0.0014057683 0.0025709395 0.0 0.047484834 0.0019380166
0.025488762 0.03148276 0.031539686 0.024253955 0.009364742 0.0 -0.02172491 -0.0050183944
-0.016017452 -0.01018947 0.0 -0.024161959 0.023274412 -0.01352384 0.015700277 0.005416716
-0.007938819 0.0 -0.0066535603 0.0021262127 0.046547495 0.022370925 -0.0034394406 -0.0060044467
0.017640885 -0.020956125 0.025277816 0.0 -0.020099554 -0.01285695 0.029540554 0.024407875
0.009696426 0.024874136 0.025663935 0.02330696 -0.006093681 -0.0061315494 0.0 -0.0060051107
0.029438145 0.007218202 -0.009989777 -0.0063039954 0.013385614 0.026507605 -0.008319389 0.03754868
0.022222707 0.02518387 -0.0075548603 -0.0064893253 0.020202467 -0.008297038 -0.018699106 0.030350257
-0.0059853764 0.10441715 -0.0021685169 0.021787256 0.0234952 -0.028127583 0.023954365 -0.0066676172
-0.008686827 0.0036532169 -0.015395606 0.0 0.018635254 -0.010916524 0.010604535 0.026802683
0.017139476 -0.008626751 -0.007693027 0.023064494 -0.005990901 0.0 -0.010433561 0.0524286
-0.0081068035 0.0 0.042603854 -0.0036015932 -0.011833651 0.014011952 0.011303168 -0.010315069
0.0 0.0631208 0.022802029 -0.0062675616 -0.024394425 0.040350612 -0.005954919 -0.0013389664
-0.010270097 0.025484083 0.017650507 0.048640415 -0.020224893 0.023673551 0.012868005 -0.009605175
-0.020942105 0.0027124772 0.023027923 0.022016523 -0.009523681 -0.026148235 0.0047333683 -0.004669033
00000000: 72c1 2739 0000 0000 e375 bdbb 8bd0 1d3d
00000010: cb09 383b a53c f23c dfdb a5bc 543a c23c
00000020: 1e39 31bc dda6 8b3c 6731 e43c b4f5 aebb
00000030: a6ec b03d 5607 dcbb 98e0 60bb c90f 8abc
00000040: 0000 0000 b78f ec3b 810d 1e3d 6c0e cabb
00000050: af42 37bb c3e9 dcbb 82fe c33c 6335 d63c
00000060: f67a 943c 42f8 e2bb 00db b73b 6a03 103d
00000070: 0aac ecbb 4e51 db3c f1f2 24bd 6e58 313d
00000080: 1b31 aebc 851d 71bc a3ae 48bc a5b2 68bc
00000090: 6632 b5bb d714 ae3c dbd9 4cbc 3bc1 c33c
000000a0: ac5c 923d ab2d f83b 26ee 053a e027 e1bb
000000b0: 889b 843c 7b9e cebb 2b8e 6abc d762 f0bb
000000c0: 4b92 c53c 1dbd 653c 15e6 e2bb 5f1e a0bc
000000d0: 22c5 9d3c 1766 5a3c 0000 0000 b349 8d3a
000000e0: 0000 0000 95a1 8e3c 8787 a4bc 0000 0000
000000f0: ca16 903c ac39 cc3c d0c8 153d ab18 333d
00000100: 5a49 13bd de2d 953c 22d2 71bc 9268 e13c
00000110: 3806 70bc 995d 26bc 1b75 afbc 3cf6 303b
00000120: 4891 eabb 343d 86ba 9b39 e23c 8cc3 b83c
00000130: c6b5 4a3d 8802 13bd 3576 bc3d d1be ad3c
00000140: 8af3 9b3c 0000 0000 e180 183a 0000 0000
00000150: 3359 4cbc 2cca c3bc 988b ae3d 158b 17bc
00000160: 3edf d9bb fb61 ce3c 166f 41bc ac55 f7bb
00000170: b7cc 3c3c 41f6 d63c 076e bf3c c23d d8bb
00000180: 6762 c4bb 9a6b 383d 0024 4e3c c7fb 003d
00000190: 0dfa c13c f726 ff3c eee2 d7bb 1526 c1bc
000001a0: 5792 c53c 5d48 e4bb ba01 c13c 0000 0000
000001b0: b923 203b dbc7 bf3c f8c5 533d ea7b 01bc
000001c0: 87f9 4dbc 3490 c9bc 99a9 2e3d 1935 033d
000001d0: e5b1 e03c 176a c5bb a223 e23c ea4f 7c3c
000001e0: f99f 543c 1df7 3e3d 2f96 d33c f2d1 473d
000001f0: a0d5 2dbb 98ad c23b 8ec6 c3bb 7a60 d1bc
00000200: 2d54 c1bb 9e4c 7abd e914 063d 44de 01bc
00000210: 0000 0000 4135 9fba af51 b23c c810 aa3b
00000220: 06f2 703c 4ee1 ce3c 1c5e 03bb c241 b83a
00000230: 357d 283b 0000 0000 757f 423d 0c05 fe3a
00000240: cfcd d03c 11f4 003d c22f 013d 3bb0 c63c
00000250: 936e 193c 0000 0000 70f8 b1bc 5871 a4bb
00000260: 0837 83bc bcf1 26bc 0000 0000 4def c5bc
00000270: fba9 be3c 1993 5dbc de9d 803c b57e b13b
00000280: d211 02bc 0000 0000 1c06 dabb ee57 0b3b
00000290: 96a8 3e3d 3b43 b73c 3d68 61bb f3c0 c4bb
000002a0: 9e83 903c 2eac abbc 6c13 cf3c 0000 0000
000002b0: d2a7 a4bc f5a5 52bc 08ff f13c 06f3 c73c
000002c0: c2dd 1e3c d8c4 cb3c 2c3d d23c 3dee be3c
000002d0: 80ad c7bb 2aeb c8bb 0000 0000 85c6 c4bb
000002e0: 4428 f13c ab86 ec3b 29ac 23bc bf91 cebb
000002f0: 564f 5b3c 7a26 d93c 0c4e 08bc a5cc 193d
00000300: 650c b63c 674e ce3c c38e f7bb 68a4 d4bb
00000310: a57f a53c 4df0 07bc de2e 99bc 1aa1 f83c
00000320: fa20 c4bb a9d8 d53d ad1d 0ebb 307b b23c
00000330: 0179 c03c d16b e6bc f23b c43c 077c dabb
00000340: 3153 0ebc cf6a 6f3b da3d 7cbc 0000 0000
00000350: f6a8 983c 38db 32bc a5be 2d3c 4d91 db3c
00000360: 1668 8c3c 3757 0dbc ca15 fcbb c0f1 bc3c
00000370: 524f c4bb 0000 0000 87f1 2abc 5fbf 563d
00000380: 66d2 04bc 0000 0000 6181 2e3d b508 6cbb
00000390: eee1 41bc 6392 653c ec30 393c 8900 29bc
000003a0: 0000 0000 7a45 813d 52cb ba3c 1e60 cdbb
000003b0: d1d6 c7bc af46 253d 7b21 c3bb 4280 afba
000003c0: e943 28bc ffc3 d03c cc97 903c 2c3b 473d
000003d0: adae a5bc 09ef c13c 53d4 523c 065f 1dbc
000003e0: c78e abbc d1c3 313b 0ea5 bc3c ff5b b43c
000003f0: 3709 1cbc d334 d6bc 5f1a 9b3b b0fe 98bb

sequential_10/dense_43/BiasAdd/ReadVariableOp/resource f4 [3]
0.026908414 0.030786915 0.021446709
00000000: 096f dc3c d734 fc3c 02b1 af3c

sequential_10/dense_40/MatMul f4 [256, 5]
-0.0035782417 -0.108208105 -0.04278242 0.15822993 0.21208172 -0.04775347 -0.06710225 -0.14602563
0.045925226 -0.017484736 -0.018969528 0.15739678 -0.02835174 0.05914599 0.107265815 -0.0021788091
0.00821047 -0.028153531 0.0011345892 -0.04271463 -0.028666401 -0.057551302 0.04843577 -0.012960804
0.050466064 -0.14229067 -0.05959675 0.030987194 -0.14428483 -0.11079043 0.07620428 0.058106408
0.02413389 -0.033903074 0.09735338 -0.0026316328 -0.12759429 -0.12396168 -0.14052708 -0.00949549
0.12713476 0.024360484 0.087688215 0.09703549 -0.12600525 -0.12572198 -0.013418573 0.040247142
0.011902271 0.1724594 0.11116136 -0.13593274 -0.14464876 -0.041502975 0.10422645 0.21302906
0.16195413 -0.067038454 0.15216966 -0.11521197 0.058540393 0.0902339 -0.13239583 -0.0046878746
-0.016494485 -0.07403711 0.16931865 -0.13894002 0.117043085 0.0020075603 -0.03328695 0.028263807
0.005498395 -0.044308368 -0.06677257 -0.115094826 0.10193714 0.065527014 1.1674189e-05 0.16766313
0.10344032 -0.15523352 0.038243666 0.1387674 0.010633794 0.0437561 -0.037287105 0.052052874
-0.14620441 -0.115768254 0.078394234 -0.14710689 -0.052190423 0.04701255 -0.058080465 -0.20785202
-0.26140633 0.034026045 0.08536976 0.2139712 0.017865034 -0.069237754 -0.12865432 -0.13231689
0.101441815 0.04873441 -0.10658278 -0.03219178 0.08093196 -0.08233655 -0.10547768 0.05394188
0.09589447 0.033853665 0.008057077 0.12069867 -0.10852519 -0.060186762 -0.100334786 0.01759425
-0.34685662 -0.2235904 0.107962854 -0.20237371 -0.23784117 -0.011497914 0.15034427 -0.26464516
0.0074115987 0.07299353 0.088942885 -0.15048435 -0.063178584 -0.005192634 -0.11699597 0.064289704
0.07048281 -0.014601039 0.095058344 -0.14162056 -0.027960384 0.071731426 0.114931636 -0.10295106
-0.0952923 -0.0967923 0.049333453 0.10223659 0.1442974 -0.08809691 0.061641317 -0.08304863
0.003218986 0.026554162 0.078599386 -0.04499165 0.040534977 0.016140198 -0.06538596 -0.06695714
0.030253062 0.16487929 0.086115375 -0.052539572 -0.04265866 0.070854 -0.1394544 -0.09979183
-0.11682748 0.0044620153 0.15767649 -0.043221112 0.07839212 0.093244225 -0.028527379 -0.018628877
0.017687375 0.16530322 -0.108237766 -0.114497125 0.07723287 0.09436119 -0.01671449 0.11904647
0.064360425 -0.106229626 -0.29853347 0.23033571 -0.10182097 -0.011223639 -0.09763218 0.12063836
0.09416372 0.116733685 -0.07961578 0.01935458 -0.18370649 0.09788528 0.12898944 -0.079779066
-0.12596248 0.028748795 -0.045735005 -0.10649694 -0.07576762 0.106373206 -0.030109806 -0.0034348182
-0.11636306 0.10125646 -0.050550938 0.07535461 -0.14515857 0.10467147 -0.11344188 0.09688577
-0.096774556 0.15639716 -0.17550966 0.046623528 0.10745915 0.28333065 0.037764616 -0.2012818
0.13774501 0.20253251 -0.011094792 0.10613794 0.15120594 -0.035071597 0.092126444 0.093037665
-0.08650369 0.034419764 -0.059970587 0.1486647 -0.10339123 0.16979504 0.011085746 -0.04461576
0.116371386 -0.12377523 -0.023209568 -0.07747352 0.10058744 0.043846935 -0.17122367 0.11203376
-0.019625673 -0.1192378 -0.08699637 0.14023277 0.11711531 0.099794574 0.058554232 -0.11812925
00000000: ef80 6abb 369c ddbd 9e3c 2fbd 0707 223e
00000010: f32b 593e 2499 43bd e86c 89bd be87 15be
00000020: 171c 3c3d 263c 8fbc fc65 9bbc 9f2c 213e
00000030: e941 e8bc 1143 723d 2eae db3d 5aca 0ebb
00000040: 3585 063c 3ca2 e6bc 7fb6 943a 89f5 2ebd
00000050: cdd5 eabc eaba 6bbd 9664 463d 8d59 54bc
00000060: 81b5 4e3d a5b4 11be b91b 74bd dbd8 fd3c
00000070: 67bf 13be 18e6 e2bd fd10 9c3d fc00 6e3d
00000080: 70b4 c53c f3dd 0abd 3561 c73d 7977 2cbb
00000090: 14a8 02be 9fdf fdbd 55e6 0fbe f992 1bbc
000000a0: 9d2f 023e a38f c73c e195 b33d 8bba c63d
000000b0: 8507 01be 43bd 00be 93d9 5bbc 30da 243d
000000c0: be01 433c 3299 303e 91a8 e33d f431 0bbe
000000d0: ce1e 14be 06ff 29bd ad74 d53d 4a24 5a3e
000000e0: 4ed7 253e 754b 89bd 5dd2 1b3e 41f4 ebbd
000000f0: 0dc8 6f3d 8dcc b83d c692 07be be9c 99bb
00000100: 711f 87bc c5a0 97bd de61 2d3e 4b46 0ebe
00000110: 49b4 ef3d 4691 033b e657 08bd 8089 e73c
00000120: e12b b43b b17c 35bd 0fc0 88bd d6b6 ebbd
00000130: 6bc4 d03d 0733 863d 43dc 4337 e2af 2b3e
00000140: 85d8 d33d 89f5 1ebe 64a5 1c3d 0b19 0e3e
00000150: 5d39 2e3c 9939 333d 5dba 18bd 6535 553d
00000160: 9cb6 15be e817 edbd 288d a03d 30a3 16be
00000170: a0c5 55bd 3b90 403d c8e5 6dbd 29d7 54be
00000180: 0dd7 85be e55e 0b3d 57d6 ae3d 441b 5b3e
00000190: b159 923c 86cc 8dbd f5bd 03be 147e 07be
000001a0: bac0 cf3d bc9d 473d 1348 dabd 87db 03bd
000001b0: a8bf a53d 11a0 a8bd af04 d8bd 29f2 5c3d
000001c0: 5264 c43d 24aa 0a3d d501 043c dd30 f73d
000001d0: 7442 debd 6586 76bd 537c cdbd d121 903c
000001e0: 3197 b1be e2f4 64be a11b dd3d 0e3b 4fbe
000001f0: a38c 73be bf61 3cbc d9f3 193e 927f 87be
00000200: ffdc f23b a27d 953d b027 b63d 9218 1abe
00000210: c663 81bd f926 aabb 959b efbd 52aa 833d
00000220: 4b59 903d 3239 6fbc f3ad c23d fb04 11be
00000230: 2d0d e5bc ede7 923d 4761 eb3d 01d8 d2bd
00000240: 9c28 c3bd 0b3b c6bd e011 4a3d 6b61 d13d
00000250: b3c2 133e 276c b4bd 9b7b 7c3d 6615 aabd
00000260: a0f5 523b 1d88 d93c b7f8 a03d 2a49 38bd
00000270: 0108 263d 7338 843c 13e9 85bd d320 89bd
00000280: 45d5 f73c 1ed6 283e 425d b03d bc33 57bd
00000290: d9ba 2ebd e71b 913d 22cd 0ebe a95f ccbd
000002a0: 3f43 efbd 1936 923b f275 213e 9f08 31bd
000002b0: 0c8c a03d d4f6 be3d 40b2 e9bc 969b 98bc
000002c0: 1de5 903c 3f45 293e c3ab ddbd 787d eabd
000002d0: 442c 9e3d 7140 c13d d3ec 88bc a3ce f33d
000002e0: 66cf 833d eb8e d9bd 61d9 98be 20dd 6b3e
000002f0: 8387 d0bd 5be3 37bc 61f3 c7bd 3f11 f73d
00000300: e9d8 c03d 1212 ef3d 990d a3bd 7f8d 9e3c
00000310: 8e1d 3cbe 1478 c83d cf15 043e 3563 a3bd
00000320: 4ffc 00be 9882 eb3c a154 3bbd 111b dabd
00000330: 0e2c 9bbd 32da d93d d7a8 f6bc b01a 61bb
00000340: c24f eebd 8c5f cf3d 800e 4fbd 8553 9a3d
00000350: 73a4 14be ff5d d63d 3754 e8bd 0c6c c63d
00000360: bd31 c6bd 9426 203e ceb8 33be 50f8 3e3d
00000370: 8b13 dc3d b710 913e 12af 1a3d d11c 4ebe
00000380: 070d 0d3e af64 4f3e eec6 35bc d95e d93d
00000390: bbd5 1a3e 3ca7 0fbd caac bc3d 888a be3d
000003a0: d928 b1bd bdfb 0c3d b8a3 75bd 8f3b 183e
000003b0: c8be d3bd c0de 2d3e fda0 353c 04bf 36bd
000003c0: 1f54 ee3d de7d fdbd fe21 bebc 70aa 9ebd
000003d0: ca00 ce3d d898 333d 4255 2fbe f571 e53d
000003e0: 05c6 a0bc f332 f4bd 272b b2bd 2e99 0f3e
000003f0: 27da ef3d 1961 cc3d 90d6 6f3d c0ed f1bd

sequential_10/dense_41/MatMul f4 [64, 256]
0.05196757 0.04840345 -0.13354339 -0.022873247 -0.0054880553 -0.06777741 -0.0156734 0.1211613
-0.08984457 -0.09101222 -0.11281893 -0.045851264 -0.104680695 -0.10404745 0.06355556 -0.10081863
-0.09109624 -0.018448168 -0.13176756 0.03746073 -0.08359531 -0.11250888 -0.123057745 -0.017668793
-0.13428698 0.082170114 -0.10384285 -0.055927936 0.04415308 0.05479456 -0.034436245 0.040346224
-0.019890528 -0.056681447 0.026524875 0.0017843714 0.089256175 0.0016972328 -0.13518786 0.13599235
-0.083646365 0.067730986 0.10966058 0.12487583 0.12962686 -0.0037771694 0.05327054 0.12431748
-0.038456302 0.12959288 -0.028229797 0.09516393 -0.04776573 0.11433722 -0.003889225 0.06569562
-0.11654641 -0.05043396 -0.010865406 0.07520547 -0.1094796 0.11414291 0.09853693 0.014296754
-0.105709895 0.013812755 -0.038776107 -0.11692062 0.06402097 -0.0069283014 -0.076610364 -0.052681915
0.11721881 -0.103878 0.034938276 -0.067673616 -0.0023653444 0.07172948 0.008835479 0.13283661
-0.036594618 0.13597392 -0.089522995 -0.106781065 0.01850262 -0.028117318 0.06296114 0.085527845
-0.095167086 0.008595025 0.0051654624 0.11434303 0.03063928 0.04110514 0.07127317 -0.11648886
0.008485609 -0.12281065 0.12875606 0.027924873 -0.020403156 -0.12858419 -0.0023495308 -0.087923296
-0.084360905 0.111445755 -0.110215604 -0.080121264 -0.084874965 -0.060705297 -0.123851195 -0.008185469
0.048298784 -0.04002593 0.010954057 -0.12650707 -0.007169996 -0.10091348 -0.0032072985 0.06252705
-0.1110246 0.08908493 0.09069736 0.09991123 0.011459287 0.056794696 -0.122113 0.055165485
-0.09325658 -0.0063469755 -0.030298162 -0.08077936 0.13545525 0.017429555 -0.03205498 0.091721095
0.086552165 0.06806447 -0.03095085 -0.06717837 0.03509878 -0.009823197 -0.10767652 0.035578806
0.08892823 0.052662127 0.07861265 0.05327981 0.003599464 -0.075703464 0.09917648 -0.08092842
0.09202083 -0.06609935 -0.091079265 0.056042545 0.017646099 -0.08398626 0.07743839 0.003746646
-0.13599606 -0.044014215 0.09462898 0.07061856 -0.089497104 -0.094711 0.12811615 -0.004164892
-0.10714211 0.06269107 0.010845174 0.020747976 0.04834401 0.078062445 -0.09731698 -0.07380029
0.008469108 0.07499864 0.09653331 0.045871247 -0.07417938 0.041634046 -0.11695621 -0.05359511
-0.123052575 0.01909777 -0.101889655 -0.030563738 0.017147617 -0.061251294 0.08711086 0.0610807
0.09437202 0.08486233 -0.08013298 0.08466647 0.093020625 -0.04139396 0.09076709 0.1304791
-0.120663844 -0.03947431 -0.10514873 -0.076048024 -0.11084709 0.028314833 0.054211117 0.066419564
-0.01910855 0.024146352 0.023352051 0.10167189 -0.0360596 0.06160721 0.11478014 0.110706285
-0.09079711 0.07760017 0.086517684 -0.016950488 -0.10109016 -0.11843578 -0.031694073 -0.013302999
0.047228403 0.12816946 0.103044435 0.102659516 0.017864639 -0.086406894 0.038909603 0.003636601
0.11815299 0.044265892 0.11959974 0.070026614 -0.009208371 0.0041944706 -0.07059924 0.09088946
0.10894431 0.06278164 0.122792974 0.0137781445 -0.10682138 -0.1051991 0.093268655 -0.056453254
-0.087257355 0.008516868 0.006652673 0.09063765 -0.10437741 -0.012478763 -0.12586106 -0.029146755
00000000: f2db 543d b242 463d 99bf 08be ad60 bbbc
00000010: 25d5 b3bb e2ce 8abd 8165 80bc 6a23 f83d
00000020: 6e00 b8bd 9d64 babd 9c0d e7bd 89ce 3bbd
00000030: d562 d6bd d416 d5bd 6b29 823d ff79 cebd
00000040: aa90 babd 9d20 97bc 13ee 06be 6c70 193d
00000050: 0534 abbd 0e6b e6bd b305 fcbd 25be 90bc
00000060: 8782 09be ce48 a83d 8fab d4bd b114 65bd
00000070: dcd9 343d 4370 603d 050d 0dbd 1542 253d
00000080: 76f1 a2bc ce2a 68bd b24a d93c 92e1 e93a
00000090: f1cb b63d af75 de3a b06e 0abe 9441 0b3e
000000a0: c94e abbd 8bb6 8a3d ba95 e03d e6be ff3d
000000b0: e7bc 043e 638a 77bb 3632 5a3d 2a9a fe3d
000000c0: 5b84 1dbd ffb3 043e 2d42 e7bc 4ee5 c23d
000000d0: 00a6 43bd a229 ea3d 5ee2 7ebb 6d8b 863d
000000e0: e2af eebd d793 4ebd d104 32bc 5305 9a3d
000000f0: d736 e0bd c2c3 e93d bbcd c93d ef3c 6a3c
00000100: 6e7e d8bd e54e 623c b2d3 1ebd 1474 efbd
00000110: 6d1d 833d ce06 e3bb e5e5 9cbd fec8 57bd
00000120: 6a10 f03d fdbd d4bd 701b 0f3d 7798 8abd
00000130: e503 1bbb e8e6 923d afc2 103c 5206 083e
00000140: 3de4 15bd bf3c 0b3e d557 b7bd 08b0 dabd
00000150: ce92 973c 4a56 e6bc c5f1 803d 3929 af3d
00000160: f6e6 c2bd 26d2 0c3c 0a43 a93b ae2c ea3d
00000170: 3aff fa3c dd5d 283d abf7 913d b691 eebd
00000180: 3907 0b3c 2684 fbbd a1d8 033e b4c2 e43c
00000190: 8524 a7bc 93ab 03be 96fa 19bb 2111 b4bd
000001a0: 69c5 acbd ac3d e43d b8b8 e1bd 9e16 a4bd
000001b0: edd2 adbd 1ea6 78bd b2a5 fdbd 581c 06bc
000001c0: f2d4 453d 3bf2 23bd a578 333c 128b 01be
000001d0: 49f2 eabb baab cebd 8a31 52bb 2f0e 803d
000001e0: de60 e3bd 2972 b63d 8abf b93d 429e cc3d
000001f0: bcbf 3b3c 8ea1 683d 6116 fabd 34f5 613d
00000200: 4efd bebd 4afa cfbb da33 f8bc a66f a5bd
00000210: c8b4 0a3e 6dc8 8e3c 154c 03bd 45d8 bb3d
00000220: 4342 b13d 6365 8b3d a38c fdbc d094 89bd
00000230: bdc3 0f3d 79f1 20bc 8285 dcbd 15bb 113d
00000240: 0120 b63d 3eb4 573d abff a03d ee3b 5a3d
00000250: fce4 6b3b 6b0a 9bbd 0a1d cb3d cdbd a5bd
00000260: 6b75 bc3d 195f 87bd c487 babd de8c 653d
00000270: 8d8e 903c fd00 acbd 0598 9e3d 4a8a 753b
00000280: 8d42 0bbe 4048 34bd d7cc c13d 77a0 903d
00000290: 424a b7bd d7f7 c1bd e130 033e a579 88bb
000002a0: 536d dbbd 2d64 803d f5af 313c a9f7 a93c
000002b0: 5e04 463d 34df 9f3d 204e c7bd 9b24 97bd
000002c0: 03c2 0a3c e398 993d 42b3 c53d 7de3 3b3d
000002d0: 5ceb 97bd 7688 2a3d bd86 efbd 8c86 5bbd
000002e0: fd02 fcbd ed72 9c3c 86ab d0bd ce60 fabc
000002f0: 2979 8c3c a3e2 7abd 2e67 b23d c22f 7a3d
00000300: 1e46 c13d 4dcc ad3d c31c a4bd 9d65 ad3d
00000310: 9981 be3d b78c 29bd 19e4 b93d 509c 053e
00000320: 9b1e f7bd d0af 21bd 3858 d7bd 11bf 9bbd
00000330: cd03 e3bd 82f4 e73c 7a0c 5e3d fb06 883d
00000340: 8989 9cbc 92ce c53c cd4c bf3c 5a39 d03d
00000350: 3bb3 13bd d857 7c3d da11 eb3d fab9 e23d
00000360: d6f3 b9bd d7ec 9e3d 2f30 b13d c0db 8abc
00000370: 5c08 cfbd 758e f2bd a5d1 01bd d2f4 59bc
00000380: 9272 413d db3e 033e f608 d33d 273f d23d
00000390: dd58 923c 19f6 b0bd ad5f 1f3d 0a54 6e3b
000003a0: 32fa f13d 2750 353d b5f0 f43d 1d6a 8f3d
000003b0: b5de 16bc c571 893b 5696 90bd 4124 ba3d
000003c0: 321e df3d a993 803d e27a fb3d babd 613c
000003d0: 2bc5 dabd a072 d7bd a303 bf3d 873b 67bd
000003e0: fcb3 b2bd 558a 0b3c aafe d93b 3ba0 b93d
000003f0: d3c3 d5bd ba73 4cbc b9e1 00be 2dc5 eebc

sequential_10/dense_42/MatMul f4 [256, 64]
-0.027365606 -0.1196537 0.8028387 -0.03273609 -0.44435418 0.02395936 -0.24999408 -0.07532407
-0.006859409 0.03877705 0.037497208 0.06400401 -0.05276332 0.12818652 -0.13567856 0.018618518
0.07025651 0.07192094 -0.16345716 0.07437683 -0.043180518 -0.0044045583 -0.02760874 0.12306215
0.035804182 0.096144095 -0.0065305503 0.06979106 -0.08331442 -0.048520222 0.032827426 -0.2388286
0.09443323 0.08901707 0.042565573 0.061222594 0.30549172 -0.10919205 -0.098851636 -0.050969
0.07805472 -0.26219255 0.038644023 -0.28830633 -0.150368 0.12947378 -0.065037996 0.22945921
0.14827044 -0.15533864 -0.09440252 -0.16048616 -0.068477035 0.040225077 -0.046767797 0.044382576
-0.07110495 0.49945864 0.2524223 0.13817404 -0.076537944 -0.08379002 0.13674746 -0.35570636
-0.13292386 -0.057363007 -0.06491463 -0.014297589 0.0012899872 0.13678762 -0.08924332 -0.12532671
0.013036667 -0.07342317 -0.07432726 -0.09918657 0.05034352 0.07358219 0.074779555 0.12337514
-0.04853172 0.10772059 -0.105855085 0.04676517 0.1045137 -0.04831831 -0.09751423 -0.08876786
0.037740193 0.041118346 0.033999972 0.12836277 0.05538794 0.046937384 0.09628008 -0.10879444
-0.025555227 0.11046948 0.015910868 0.025419775 0.029043553 -0.045594066 0.07335766 0.13505185
-0.13438639 -0.05695701 -0.12541789 -0.09639151 0.060335662 -0.07591079 -0.09912924 -0.06980966
-0.024337437 -0.06819544 0.026739476 -0.1015436 -0.098895125 0.106700994 0.030196635 0.11056044
-0.016516175 0.043579303 0.062415194 -0.101313084 0.04699079 0.06492171 0.118007146 -0.10701506
-0.054447223 -0.12871146 0.007207028 0.0042416053 -0.116784 0.054899808 0.101807386 0.11161574
-0.043547284 -0.017351907 0.105467536 0.069791205 0.107712395 0.050640874 0.10305093 -0.09529131
0.11078923 -0.012606056 -0.050576672 -0.06837238 0.1115847 -0.11789448 -0.029351767 -0.042374633
-0.050849106 -0.03830602 0.0075417114 -0.03700848 -0.05503078 -0.04185333 0.03961774 -0.07271215
0.11152016 0.060975827 0.074425414 -0.07639465 -0.08753844 -0.05793615 -0.11984519 0.07464342
0.006259938 0.07468403 -0.020912852 -0.12932827 -0.057864524 -0.110059336 -0.0066087362 0.004157916
0.07354342 0.042952646 0.105191015 -0.045126703 -0.046845857 0.10436074 0.0029597604 0.08540745
-0.08255236 -0.1291404 0.06765412 -0.038612045 0.0058809714 -0.08843936 -0.07904609 -0.060805906
-0.13626026 0.045946818 -0.9026835 -0.011225506 -1.061903 0.08131399 -0.47172925 -0.10717411
0.33554104 -0.3164719 -0.026824247 0.10883433 0.02027486 -0.03484302 -0.03978787 0.023793714
-0.032312404 -0.043344904 0.2588466 -0.085976444 -0.10884367 0.111022845 0.09662989 0.018732978
0.030016879 -0.049354274 -0.123418756 0.0834026 0.113159 0.032212477 -0.051454406 -0.23931557
0.024434673 -0.19768351 -0.052330516 -0.00757593 0.34109196 -0.070402645 -0.14255528 0.118342325
-0.064133674 -0.040517535 -0.015374376 0.33044448 -0.2881159 0.24017449 0.14933379 -0.2001887
0.14371468 0.08131464 0.008447184 0.0713596 0.20917454 -0.04359175 0.09693569 -0.05735323
-0.096634164 -0.003766651 -0.9186948 -0.15382156 0.018014727 0.13631715 0.0040102 -0.7046504
00000000: d62d e0bc 000d f5bd d686 4d3f 4716 06bd
00000010: 6482 e3be 6b46 c43c 73fe 7fbe 8243 9abd
00000020: e5c4 e0bb afd4 1e3d ac96 193d 8914 833d
00000030: 5a1e 58bd 5443 033e 52ef 0abe dd85 983c
00000040: a5e2 8f3d 494b 933d 5061 27be e152 983d
00000050: 0ede 30bd 1d54 90bb b92b e2bc 0208 fc3d
00000060: 68a7 123d 32e7 c43d 3afe d5bb 9eee 8e3d
00000070: c0a0 aabd 24bd 46bd 0d76 063d 7c8f 74be
00000080: 3666 c13d 954e b63d 3d59 2e3d 8bc4 7a3d
00000090: 6969 9c3e 15a0 dfbd ba72 cabd dfc4 50bd
000000a0: 27db 9f3d 1a3e 86be 3249 1e3d e39c 93be
000000b0: 12fa 19be c694 043e a432 85bd 5bf7 6a3e
000000c0: 35d4 173e 1811 1fbe 1c56 c1bd 7c56 24be
000000d0: b03d 8cbd 0dc3 243d 978f 3fbd 81ca 353d
000000e0: 799f 91bd 0bb9 ff3e 7f3d 813e 7f7d 0d3e
000000f0: edbf 9cbd 1a9a abbd 8707 0c3e 251f b6be
00000100: 311d 08be 79f5 6abd f6f1 84bd 6f40 6abc
00000110: ca14 a93a 0e12 0c3e 34c5 b6bd a555 00be
00000120: bf97 553c e35e 96bd e438 98bd 5422 cbbd
00000130: 0235 4e3d 42b2 963d 0626 993d 1bac fc3d
00000140: 32c9 46bd 9d9c dc3d 8dca d8bd d68c 3f3d
00000150: 470b d63d 6ce9 45bd 8ab5 c7bd eccb b5bd
00000160: 7695 1a3d b66b 283d 8e43 0b3d 8871 033e
00000170: 77de 623d 6a41 403d 7e2e c53d 9fcf debd
00000180: 3259 d1bc d33d e23d 8257 823c 223d d03c
00000190: bfec ed3c d8c0 3abd 8a3c 963d 084b 0a3e
000001a0: 969c 09be c14b 69bd 8c6d 00be e968 c5bd
000001b0: 8722 773d 1e77 9bbd 4504 cbbd 5ef8 8ebd
000001c0: 4e5f c7bc 0daa 8bbd bf0c db3c 17f6 cfbd
000001d0: 8789 cabd 0d86 da3d ef5e f73c 836d e23d
000001e0: ee4c 87bc 3680 323d 13a7 7f3d 3c7d cfbd
000001f0: 6a79 403d acf5 843d bbad f13d b62a dbbd
00000200: 0d04 5fbd f0cc 03be ef28 ec3b 2afd 8a3b
00000210: 732c efbd 9fde 603d 6480 d03d cb96 e43d
00000220: a35e 32bd 9625 8ebc 5dff d73d b1ee 8e3d
00000230: 5198 dc3d ce6c 4f3d 5e0c d33d 1728 c3bd
00000240: 77e5 e23d a289 4ebc 7c29 4fbd d206 8cbd
00000250: 8586 e43d a972 f1bd 1e73 f0bc 0691 2dbd
00000260: 2747 50bd c6e6 1cbd 7620 f73b 3496 17bd
00000270: f567 61bd 666e 2bbd 3646 223d 1cea 94bd
00000280: af64 e43d cac1 793d 5a6c 983d cc74 9cbd
00000290: 5b47 b3bd 754e 6dbd 6571 f5bd a6de 983d
000002a0: 2a20 cd3b f1f3 983d 6e51 abbc a16e 04be
000002b0: 5a03 6dbd ca66 e1bd 198e d8bb 213f 883b
000002c0: ef9d 963d 1def 2f3d 636e d73d c7d6 38bd
000002d0: 71e1 3fbd 15bb d53d 8af8 413b 1aea ae3d
000002e0: 3611 a9bd 623d 04be 3e8e 8a3d aa27 1ebd
000002f0: 2ab5 c03b b21f b5bd ebe2 a1bd 9d0f 79bd
00000300: cf87 0bbe bb32 3c3d 4416 67bf 2feb 37bc
00000310: 70ec 87bf f387 a63d 7f86 f1be 1a7e dbbd
00000320: 09cc ab3e 9b08 a2be 86be dbbc 89e4 de3d
00000330: 7717 a63c 8eb7 0ebd 9bf8 22bd 09eb c23c
00000340: 035a 04bd 6d8a 31bd 8b87 843e 6b14 b0bd
00000350: 6ee9 debd f25f e33d e4e5 c53d e775 993c
00000360: f5e5 f53c b527 4abd f9c2 fcbd fbce aa3d
00000370: e8bf e73d 3bf1 033d dbc1 52bd 240f 75be
00000380: 392b c83c 8c6d 4abe 8658 56bd 823f f8bb
00000390: 9ba3 ae3e 432f 90bd 03fa 11be 765d f23d
000003a0: 8458 83bd b7f5 25bd cfe4 7bbc 0530 a93e
000003b0: ed83 93be 4df0 753e f5ea 183e 44fe 4cbe
000003c0: f129 133e 4a88 a63d 0f66 0a3c fb24 923d
000003d0: da31 563e 438d 32bd 3886 c63d 38eb 6abd
000003e0: 22e8 c5bd ebd9 76bb 952f 6bbf 6683 1dbe
000003f0: 9f93 933c b996 0b3e ff67 833b f863 34bf

sequential_10/dense_43/MatMul f4 [3, 256]
0.16255017 0.07469948 -0.11515809 -0.063364044 0.12951243 0.13462582 0.1699309 -0.056717046
-0.082281314 -0.025640637 0.112483695 -0.014721021 0.08800254 0.15200315 -0.14523762 -0.13132204
0.12567556 0.07674843 0.07646921 -0.11980191 0.021891044 -0.09702386 0.034997594 -0.054699536
-0.10839713 0.14922908 0.022445386 -0.12116708 -0.07108589 0.13443203 -0.26555967 -0.09795698
-0.03893701 0.11104119 -0.03907603 -0.049375534 0.05998339 -0.011143518 -0.10869792 0.06442594
0.16646273 0.06150234 -0.3148932 0.29405305 0.06442887 -0.16461161 0.1625379 -0.022313599
-0.040177297 0.15546653 0.068318754 0.064808026 0.1359249 0.042800725 -0.12016355 0.19665076
0.093348876 -0.11943159 0.22306482 0.1443108 0.13281076 0.033348028 0.22228113 -0.10906725
0.106346704 0.12971638 -0.12971237 0.10358653 0.1091539 -0.09669431 0.1289706 -0.117314994
-0.12516725 0.21065801 0.07080282 -0.06661384 -0.02428331 0.12051907 -0.14239277 -0.05628822
0.07434536 0.123286456 0.3740239 0.110266596 -0.13479312 -0.4186834 -0.06944551 -0.12156944
0.10273095 0.14189857 0.40345287 0.010012463 0.0915284 0.093330204 0.05798211 -0.06136757
-0.091092564 -0.056201298 -0.17130393 0.10308918 -0.049771875 -0.010216822 -0.14101253 -0.0933174
0.08380093 0.059981544 0.12424096 -0.01191023 0.017702354 0.023467075 0.060585447 -0.0800527
0.056687918 0.3154622 -0.034183912 -0.062404033 0.13623762 -0.029917186 0.06662048 -0.24667014
-0.9214147 -0.028279006 0.08863307 0.027567584 -0.22842759 -0.18331689 -0.044824675 0.08742541
-0.046910055 -0.55559236 0.04139932 -0.11254762 0.11486414 0.049250085 -0.13375576 0.24830495
0.33429742 0.08203814 -0.5621777 -0.003252474 0.09365728 0.061339453 -0.0039096195 -0.11678412
0.051331896 -0.07566652 -0.08457793 0.07455638 -0.12501818 0.04768677 -0.47066268 -0.078047074
-0.12291508 -0.08514291 0.1290184 0.28212884 -0.05148879 0.20735243 0.09117874 0.13176209
0.095749624 -0.02236183 0.012818529 -0.062564544 -0.076176725 0.061657574 -0.2056237 -0.10541046
0.011001083 -0.022609014 0.12746517 -0.040372655 -0.32871774 -0.12456397 0.0584489 0.04226707
-0.09044597 0.16143355 0.26521412 0.018612193 -0.06480923 -0.0058815917 0.1515683 -0.13615267
0.25130472 0.0073931315 0.038656656 0.060850814 0.12336356 -0.044887062 -0.0072045014 0.13016225
-0.25021887 0.10213517 0.07499614 0.075355075 0.10319177 0.01169026 0.11228249 0.18686977
0.017527781 0.254747 -0.07602192 -0.14189875 0.08288465 0.37663597 -0.009023978 -0.027146082
0.04752538 0.14466295 -0.14203773 0.046857104 0.004091631 -0.13712516 0.03967248 -0.10351935
0.13616727 -0.09906417 -0.08594222 0.13885103 0.026643563 0.056460395 -0.047799714 -0.16123503
0.3787772 -0.0026164204 0.022276495 -0.040158205 -0.11118821 -0.10186949 0.1974659 -0.00030895043
0.073609635 -0.1543259 0.18739855 -0.023192579 -0.1097871 0.3748269 -0.049959645 0.315563
-0.062075805 -0.014800738 -0.12796026 0.42699096 0.022886435 0.031213734 -0.021488927 -0.14174257
-0.005304727 0.33456653 0.11251751 -0.12609674 0.0014570622 -0.13335492 0.15212207 0.15097532
00000000: 8d73 263e 0afc 983d 01d8 ebbd 02c5 81bd
00000010: e89e 043e 5adb 093e 5e02 2e3e 2250 68bd
00000020: 1b83 a8bd 500c d2bc da5d e63d 7030 71bc
00000030: ad3a b43d b7a6 1b3e 2cb9 14be 4979 06be
00000040: 18b1 003e 482e 9d3d e49b 9c3d b45a f5bd
00000050: d954 b33c 72b4 c6bd a359 0f3d 9f0c 60bd
00000060: 51ff ddbd 82cf 183e 63df b73c 7226 f8bd
00000070: 7b95 91bd 8da8 093e 70f7 87be ab9d c8bd
00000080: 6a7c 1fbd 9069 e33d 300e 20bd 003e 4abd
00000090: 25b1 753d 4d93 36bc 049d debd bff1 833d
000000a0: 3575 2a3e e1e9 7b3d ae39 a1be 1f8e 963e
000000b0: 49f3 833d f28f 28be 5670 263e 02cb b6bc
000000c0: f390 24bd 9e32 1f3e b4ea 8b3d 12ba 843d
000000d0: e62f 0b3e d04f 2f3d 4f18 f6bd d15e 493e
000000e0: b22d bf3d 8d98 f4bd 1b6b 643e 36c6 133e
000000f0: 8bff 073e f197 083d aa9d 633e a65e dfbd
00000100: 4dcc d93d 5fd4 043e 52d3 04be 2d25 d43d
00000110: 148c df3d ab07 c6bd de10 043e d842 f0bd
00000120: d82b 00be bcb6 573e 1201 913d d66c 88bd
00000130: cbed c6bc b4d2 f63d 69cf 11be 7a8e 66bd
00000140: 6142 983d 9c7d fc3d 1080 bf3e 74d3 e13d
00000150: 3507 0abe ac5d d6be 7339 8ebd 66f9 f8bd
00000160: 9b64 d23d dc4d 113e 6091 ce3e 500b 243c
00000170: 3e73 bb3d e823 bf3d a67e 6d3d 905c 7bbd
00000180: bd8e babd 5533 66bd 4c6a 2fbe 6c20 d33d
00000190: 98dd 4bbd 7564 27bc 9765 10be 311d bfbd
000001a0: d29f ab3d 35af 753d 0b72 fe3d 2023 43bc
000001b0: 8704 913c 063e c03c 7228 783d acf2 a3bd
000001c0: 9731 683d 4384 a13e 6e04 0cbd 5f9b 7fbd
000001d0: e081 0b3e e314 f5bc 5170 883d 1997 7cbe
000001e0: d5e1 6bbf 60a9 e7bc 4185 b53d 6ad5 e13c
000001f0: ece8 69be 6cb7 3bbe 149a 37bd 180c b33d
00000200: c224 40bd 4d3b 0ebf 5592 293d 5e7f e6bd
00000210: e43d eb3d 75ba 493d 45f7 08be a743 7e3e
00000220: 0829 ab3e 9d03 a83d e1ea 0fbf 7527 55bb
00000230: 63cf bf3d 143f 7b3d 441c 80bb 832c efbd
00000240: 6541 523d 0cf7 9abd 3237 adbd 04b1 983d
00000250: c404 00be 3453 433d b3fa f0be 25d7 9fbd
00000260: e7ba fbbd 685f aebd 661d 043e 3173 903e
00000270: e9e5 52bd 3254 543e ebbb ba3d a4ec 063e
00000280: 6118 c43d 2830 b7bc cf04 523c d721 80bd
00000290: 8b02 9cbd a78c 7c3d 058f 52be 70e1 d7bd
000002a0: e33d 343c 8a36 b9bc 3b86 023e cc5d 25bd
000002b0: b14d a8be 651b ffbd 1d68 6f3d 3c20 2d3d
000002c0: bd3b b9bd d64e 253e 25ca 873e 9978 983c
000002d0: b4ba 84bd 5eba c0bb b834 1b3e 9b6b 0bbe
000002e0: 03ab 803e 1542 f23b 7156 1e3d b43e 793d
000002f0: 09a6 fc3d 7fdb 37bd bd13 ecbb 4149 053e
00000300: b01c 80be 3e2c d13d 9497 993d c353 9a3d
00000310: 3556 d33d 8188 3f3c 5df4 e53d ca5a 3f3e
00000320: 6c96 8f3c 336e 823e 61b1 9bbd e84d 11be
00000330: 6dbf a93d 6ed6 c03e 4fd9 13bc 7661 debc
00000340: f9a9 423d 8622 143e 5772 11be 3ced 3f3d
00000350: 1713 863b 8a6a 0cbe 9c7f 223d f401 d4bd
00000360: 6f6f 0b3e 28e2 cabd 7a02 b0bd f72e 0e3e
00000370: 9a43 da3c 0443 673d a2c9 43bd cc1a 25be
00000380: 16ef c13e 4078 2bbb 327d b63c ee7c 24bd
00000390: a5b6 e3bd f4a0 d0bd 8034 4a3e a0fa a1b9
000003a0: a6c0 963d 9c07 1ebe 68e5 3f3e 5dfe bdbc
000003b0: 0fd8 e0bd 50e9 bf3e 7ca2 4cbd 7991 a13e
000003c0: 3343 7ebd cb7e 72bc 0408 03be 8f9e da3e
000003d0: 557c bb3c f2b3 ff3c 8c09 b0bc f724 11be
000003e0: 46d3 adbb 4e4c ab3e 956f e63d 811f 01be
000003f0: e5fa be3a 318e 08be e3c5 1b3e 4699 1a3e
