models/fcModel_202105241659.tflite (tflite, 143496 bytes, 8 tensors)

sequential_1/dense_4/BiasAdd/ReadVariableOp/resource f4 [256]
00000000: 0000 0000 10ab c139 9ba3 9b3c 951a 933c
00000010: 0000 0000 a174 c039 02a8 213c 6841 acbb
00000020: 0000 0000 f53c e83c a6fc 803c 0000 0000
00000030: 8e94 a1bc 872e e73c b508 9c3b 1141 9bbc
00000040: 0000 0000 9c55 ef3c a248 3ebc 258a c43b
00000050: cb5c fb3c 89ba 4cb8 86c7 6f3c 985f d4bc
00000060: 03d0 2cbb 13a0 313b d809 043c 0000 0000
00000070: a611 8e3c 6269 373c 0d61 7c3c 66b5 0cbc
00000080: 3d13 953c 7a76 fa3c 55bb 7c3b 1cc7 903a
00000090: 9310 be3c c3a2 373d c349 ccbc 0000 0000
000000a0: b465 b53c 3b85 eb3c 0117 613d 0000 0000
000000b0: 0000 0000 9160 743c 0000 0000 59e3 b1bb
000000c0: 1030 fcbb 0000 0000 c945 e0ba 0000 0000
000000d0: 0000 0000 00fa 2dbd adad 9e3c 57be 88bc
000000e0: 0000 0000 ee7e b93b 76ed dfbb 0000 0000
000000f0: 0000 0000 0000 0000 0000 0000 0000 0000
00000100: 04d6 d03c 0f21 e9bc 10d2 35bb 0000 0000
00000110: e71e 8cbc feaa 8ebc b877 8d3c 0000 0000
00000120: edca aabc a5b9 863d 778d 2f3c 831e 823c
00000130: ae92 01bd f151 67bc 5849 963c 0000 0000
00000140: 0000 0000 064d b7bc 6789 223d eec9 933b
00000150: 86de 923d e7f0 7d3c 2719 333d 0a49 22bc
00000160: fc5f faba 0000 0000 9074 25bc c8a5 0abc
00000170: 0000 0000 dbc9 f93c d7ab c23c 9e28 393d
00000180: 0000 0000 98fc 4bbc 0000 0000 0000 0000
00000190: c6fe 6fbc 91ad 94bc 577f 53bd f97b 863a
000001a0: 0000 0000 0a69 fe3b 9e61 793c 2ce7 4abc
000001b0: 034a a83c 5bf9 3abc 099f 26bc 9b76 333d
000001c0: 6aa4 05bc 8f30 1abc f404 2c3d 70bf f23b
000001d0: a0d1 303a 5486 67bc 0000 0000 b36e acb9
000001e0: d0be c63c 90d9 5e3c 04c2 4bbb 0fd5 d33c
000001f0: 7c63 88bc b1c2 853c 625c f33c 3d7d 3b3c
00000200: 0815 923b a1c4 af3c ebd1 30bc 0000 0000
00000210: f2ef 90bb add6 9a3c 939f 1e3d 0000 0000
00000220: d710 773c 9445 be3c 0000 0000 0000 0000
00000230: 0000 0000 0000 0000 750a 39bb 828d 04bb
00000240: 5fc9 103d dd0e 5a3c e583 2f3b 0000 0000
00000250: 8343 343a 0000 0000 0000 0000 0000 0000
00000260: 0000 0000 2a16 acbc a6f4 723c 34f5 213d
00000270: 0000 0000 0000 0000 4524 0ebc 0000 0000
00000280: 0000 0000 5ba1 b83c 06a5 54bd 0000 0000
00000290: 0000 0000 5c6a cbbc 0000 0000 91e3 853c
000002a0: 19d9 a03c 0000 0000 9981 9d3d 58dd b9bc
000002b0: 0000 0000 7213 5d3c a4d9 67bc da80 b33b
000002c0: 6c76 0ebb cd46 053d 0000 0000 10d7 a3bc
000002d0: 1212 193c 7fa7 9cbd 2768 d6bb a5cf 613a
000002e0: 0000 0000 0b18 623d 0000 0000 0000 0000
000002f0: fddb 9b3c 0000 0000 2500 b03c cb3a 37bc
00000300: b830 c23c 0000 0000 138f 8fbc a6c0 d23b
00000310: 783e c13b 1816 083c f31a 883c 8dc5 b03d
00000320: 776f 813d d6b7 a13c 8f3d f4bb ca1c 7fbc
00000330: b6d5 653c 09a3 aebb 0000 0000 87df a6bc
00000340: 84e8 063c 0ee8 0bbc 4c1b 753c 0000 0000
00000350: 0000 0000 8531 99bc 55a6 533c ed87 27bd
00000360: 0000 0000 d80e 103d 0000 0000 9e20 323c
00000370: 9330 3abc 0000 0000 e093 d33c 45d6 993c
00000380: 0000 0000 0000 0000 b3dc c3bc 0000 0000
00000390: 55c8 a9bc 7bce 5fbb 0000 0000 0000 0000
000003a0: 0000 0000 94f0 9a3c 6ac2 d639 3d20 af3c
000003b0: adfa b2bc 8393 223c abce 773d 4d0a 0d3c
000003c0: 0000 0000 0000 0000 fd6c 8c3d e39e b3bb
000003d0: 0000 0000 0000 0000 0000 0000 0000 0000
000003e0: fed7 653c 2eac 153d 8fec b9bc 339b 23bc
000003f0: 0000 0000 f4a9 923b fab7 a73c df8e 8e3d
0.0 0.0003693928 0.018998912 0.017957011 0.0 0.0003670799 0.009866716 -0.0052568205
0.0 0.02834938 0.015745472 0.0 -0.019724157 0.028220428 0.00476178 -0.018951925
0.0 0.029215626 -0.011613997 0.0059979134 0.030683896 -4.8811115e-05 0.014634972 -0.025924489
-0.0026369102 0.0027103468 0.008058988 0.0 0.0173424 0.011194559 0.015403998 -0.008588171
0.01819765 0.030574072 0.0038563807 0.0011045667 0.023201263 0.044832956 -0.024937516 0.0
0.022143222 0.028750053 0.05495358 0.0 0.0 0.014915601 0.0 -0.0054287133
-0.007696159 0.0 -0.0017110641 0.0 0.0 -0.042474747 0.019369924 -0.016692324
0.0 0.005660883 -0.0068337275 0.0 0.0 0.0 0.0 0.0
0.025492676 -0.028458146 -0.0027743615 0.0 -0.01710458 -0.01741552 0.017269 0.0
-0.020848716 0.06578378 0.01071488 0.01588369 -0.031634025 -0.014118657 0.01834552 0.0
0.0 -0.022375595 0.03968182 0.004510156 0.07171349 0.01549933 0.04372516 -0.009905109
-0.0019102092 0.0 -0.010098591 -0.008462377 0.0 0.03049176 0.02376358 0.04520475
0.0 -0.01245036 0.0 0.0 -0.014648145 -0.01814917 -0.051635113 0.0010260335
0.0 0.0077639865 0.015221028 -0.012384217 0.020543104 -0.01141199 -0.010169753 0.043814283
-0.008156875 -0.009410991 0.04199691 0.007408075 0.0006745104 -0.014131147 0.0 -0.00032888874
0.024260908 0.013601676 -0.0031090984 0.02585843 -0.016649 0.016328188 0.029707137 0.011443433
0.0044580735 0.021456065 -0.010792236 0.0 -0.004423135 0.018901194 0.0387264 0.0
0.0150796985 0.023226537 0.0 0.0 0.0 0.0 -0.0028234993 -0.0020225947
0.035348292 0.013309208 0.0026781496 0.0 0.0006876515 0.0 0.0 0.0
0.0 -0.021006662 0.014828837 0.039540485 0.0 0.0 -0.0086756395 0.0
0.0 0.022537878 -0.05191519 0.0 0.0 -0.02483099 0.0 0.016343864
0.01963477 0.0 0.076907344 -0.022688553 0.0 0.013493406 -0.014151011 0.005478007
-0.0021738065 0.032538224 0.0 -0.02000001 0.009342687 -0.07649135 -0.0065431776 0.00086140103
0.0 0.05519871 0.0 0.0 0.019025797 0.0 0.021484444 -0.011183451
0.023704872 0.0 -0.017524278 0.006431657 0.0058973394 0.008306049 0.016614413 0.0863143
0.06320088 0.01974098 -0.0074536274 -0.015570829 0.014028003 -0.005329494 0.0 -0.020370258
0.008234147 -0.008539213 0.014960121 0.0 0.0 -0.01870037 0.012918075 -0.040901113
0.0 0.035170406 0.0 0.010872034 -0.01136412 0.0 0.025827348 0.01877893
0.0 0.0 -0.023908949 0.0 -0.020725409 -0.0034150172 0.0 0.0
0.0 0.018913545 0.0004096211 0.021377677 -0.021848047 0.009922865 0.06049983 0.008608413
0.0 0.0 0.06856725 -0.0054815873 0.0 0.0 0.0 0.0
0.014028547 0.036541156 -0.022695808 -0.009985733 0.0 0.0044758264 0.020473469 0.06960844

sequential_1/dense_5/BiasAdd/ReadVariableOp/resource f4 [64]
00000000: 9076 cc3c b22d ce3c 0000 0000 c737 1fbc
00000010: 231c 483d 0000 0000 0000 0000 d8aa 09bd
00000020: 6e45 1f3d f10a 2dbc 8189 f93c aa8e e8bb
00000030: bebf 073c 4d25 ad3b 8ea8 26bc 7c02 f8bc
00000040: fdc4 e4bc 0000 0000 9204 e2bb ca7b 043d
00000050: 0000 0000 c773 f73c 47d9 09bc 677e 44bc
00000060: 7892 eb3c 0000 0000 3da1 9d3c defc 513b
00000070: c925 043d 0000 0000 d8a0 173d 0a22 8a3c
00000080: f189 e0bc 933b 343d 3758 4a3d 446d 18bc
00000090: 704f 1e3d 0000 0000 ea55 7b3d 3aa6 e43c
000000a0: 7696 a23c 8684 fa3c 0000 0000 79b2 12bd
000000b0: 1cea f33c e364 cdbb b054 dcbc 0000 0000
000000c0: 3d51 9abb e88d c0bc 40b0 4fbc c31d c03c
000000d0: 0ed3 ebbc 3938 0d3d 2c3b d1bc 9c43 ed3c
000000e0: 4d1d 7dbc 34c0 5c3d 0000 0000 3206 433d
000000f0: d1d6 c4bc 2631 713d f87f 66bc 0b78 bfbb
0.024958879 0.025168274 0.0 -0.009717888 0.04885496 0.0 0.0 -0.033610195
0.038884573 -0.010561691 0.030461075 -0.007097085 0.008285461 0.0052839876 -0.0101720225 -0.030274622
-0.027925963 0.0 -0.0068975175 0.032344617 0.0 0.030206574 -0.008413619 -0.011993027
0.028756365 0.0 0.019241923 0.003204159 0.032262597 0.0 0.037018627 0.016861934
-0.027409526 0.044002127 0.049400534 -0.009303395 0.038649976 0.0 0.06136123 0.027911294
0.019847136 0.03058077 0.0 -0.035814736 0.029774718 -0.00626813 -0.02689585 0.0
-0.0047093914 -0.023505166 -0.012676299 0.023451691 -0.028787162 0.034477446 -0.02554091 0.028962903
-0.01544888 0.053894237 0.0 0.04761333 -0.024028214 0.058884762 -0.014068596 -0.0058431677

sequential_1/dense_6/BiasAdd/ReadVariableOp/resource f4 [256]
00000000: ae5a 86bb 9279 333d 0000 0000 5cfd c6bb
00000010: 9690 77bb 9bf5 793c 2643 153d b4e5 8cba
00000020: 0000 0000 3e1b 1dbc a9d1 033e 0015 d6bc
00000030: dd56 a5bd 0000 0000 a60d c3bb a7fd 593d
00000040: 2e9d 4e3d 1d35 a0bc c913 053d 8eee 0c3d
00000050: a4be 86bc 87af 93bb 95d8 2d3d 3a3d c2bb
00000060: c88f 2f3d acd5 673d ba77 083d 6e9b 233d
00000070: 6e9e 93bc 7aa6 21bc f146 ae3c 8ed2 2dbc
00000080: 5649 143d fa05 2d3d c013 873c 05fa 533d
00000090: bf1a 94bb 0000 0000 649f 1b3d 0000 0000
000000a0: 78b4 c1bb ed2e f0bb 866d 503c 5566 d63c
000000b0: 5f95 0ebd 66d9 06bc 530d d7bb dcb1 97bc
000000c0: b61c 3f3d 0316 063d 0000 0000 96c9 dcbc
000000d0: 30e1 1b3d e348 d13c e22f 0b3d 6765 72b9
000000e0: b77d 1e3d e74b d33c 3310 4cbc 253b a9bc
000000f0: 6202 f939 9804 8bbc 3636 bf3c 5a61 383d
00000100: 0000 0000 1655 22bc 1d40 e1bb d0f7 143d
00000110: 45cf a53d e0af 1c3c 99f6 373d f016 923c
00000120: f525 f83c c39a 613d 6988 0f3d 90f4 103d
00000130: 62fe 343d d878 073d 0000 0000 53c0 ad3c
00000140: 4dac db3c b0ec b03c 0193 3bbc b3b0 073d
00000150: 49df e6bb 0000 0000 1c18 d4bc 0000 0000
00000160: 37eb c53c e613 b8bb ed03 0bbc 92be c63c
00000170: 1823 fa3c f636 e03c 13dc bdbc d050 2fbd
00000180: 3ba7 c13c 3434 123d 2e87 1f3d 8eaf 27bc
00000190: d832 f4bb 482a 6dbb aea9 70bd b1dd 073d
000001a0: ade3 dbbc d1a6 1ebc 1574 2b3c 7e75 b53b
000001b0: 0000 0000 1aa1 113d 305b 59bb 2cb0 7e3a
000001c0: 6913 1abc 0000 0000 0000 0000 f509 773c
000001d0: 9de4 aebc 861c 87bc 1d4d 7cbc 8f35 2dbc
000001e0: 0197 903c 0000 0000 4024 03bc d7e7 3ebc
000001f0: fd1d 5ebc 94f8 cd3c 0000 0000 7cb0 153d
00000200: 782d cb3c f529 16bc 4b4b 173d 0000 0000
00000210: ee9c 393c 1683 313d d87b 103d ef33 a7bc
00000220: 2567 1c3d 4312 b93c 0dde 3e3d cb5e 04bc
00000230: 4142 e5bc 50d9 21bc 5772 ea3c a808 a73c
00000240: 1d36 11bd a300 1ebc 1838 edbc 38cb fa3b
00000250: 4228 2a3d 364d cb3b 8005 863d 9f37 4c3c
00000260: 28db 303d d5f7 7bbc a49d 51bc 7ccc 41bb
00000270: 10e2 ee39 0000 0000 a9f2 0c3d 0000 0000
00000280: b14a 0fbc f749 0abd 97f2 593d f2b7 1abd
00000290: b158 88bb 0000 0000 0ba6 11bd 96d1 dabc
000002a0: b5c3 0a3d 7a6b 77bd bb23 e93b dd1f 9fbb
000002b0: efb3 263d f166 a43c f4b7 35bc e97a a5bc
000002c0: cb50 ef3c d0ca dabc 47db cbbc 00e0 183d
000002d0: 035d fb39 e733 323d caca 4ebc 0000 0000
000002e0: 0000 0000 6c90 8bbc 6722 823c bc24 343d
000002f0: 3d38 d8bc e263 bf3c 2bba 003d 2f03 6c3c
00000300: 2fc2 0ebb ff27 a9bb 4f42 a13b 1611 123d
00000310: 0000 0000 1ecd 023d c02b 433d 7fe6 21bc
00000320: 6d20 ebbb 3b93 e13c 82da e83c e32a e33c
00000330: aa06 d0bc c0d7 d33c 0000 0000 0000 0000
00000340: ff22 263d 52ab e9bc 0000 0000 914b f6bc
00000350: c78e af3b f10e 2dbb 577e c6bc 1b8c 113d
00000360: e9d4 213d e632 0e3d 1279 fe3c 19db bf3c
00000370: 5c22 0fbc b3f8 2dbc 12f1 1a3d d02e 8c3d
00000380: 0000 0000 ad9c 903d 3a01 103d 347c 0bbc
00000390: 4789 5cbc d50a fd3c 0000 0000 1235 243d
000003a0: 9a8c 2ebc 2d66 c73c 0000 0000 1f88 10bc
000003b0: 8933 293d df4b 3dbc 3627 1b3d 0000 0000
000003c0: 5244 9a39 1bf0 3bbc 9346 0c3d c8d1 b13c
000003d0: f53f 81bc a2f5 183d 0000 0000 8698 5e3c
000003e0: 0000 0000 b291 a93c c852 ce3c 8fb6 d5bb
000003f0: 13bb 8b3c f61c edbc 77d6 2f3d 8de8 2c3d
-0.0041001653 0.04381711 0.0 -0.0060726833 -0.003777539 0.015256311 0.03644099 -0.0010749609
0.0 -0.009589015 0.12872948 -0.02613306 -0.080732085 0.0 -0.0059525548 0.053220417
0.050442867 -0.019556576 0.03248957 0.03440719 -0.016448326 -0.0045070085 0.042442877 -0.005927709
0.04286173 0.056600258 0.033317305 0.03994315 -0.018019881 -0.009866351 0.021274062 -0.010609282
0.03620275 0.042242028 0.01648891 0.05175211 -0.00451979 0.0 0.037993804 0.0
-0.005911406 -0.0073298127 0.012721425 0.026171843 -0.03481042 -0.008230543 -0.0065628677 -0.018517427
0.04665824 0.032735836 0.0 -0.026951592 0.038056552 0.02554745 0.03398121 -0.00023116694
0.03869411 0.025793029 -0.012455034 -0.020658085 0.00047494756 -0.016969964 0.02334128 0.045014717
0.0 -0.009907981 -0.006874098 0.036369145 0.08096174 0.009563416 0.04491291 0.017833203
0.030291537 0.055079233 0.0350422 0.035389483 0.04418791 0.03307423 0.0 0.021209871
0.026815558 0.021597236 -0.011448623 0.033127498 -0.0070456606 0.0 -0.025890402 0.0
0.02416001 -0.0056176065 -0.008484823 0.024260793 0.030534312 0.027369957 -0.023176229 -0.04280168
0.023639312 0.035694316 0.038947277 -0.010234727 -0.00745235 -0.0036188532 -0.05875557 0.033170406
-0.026841963 -0.009683327 0.010464688 0.005537688 0.0 0.03555403 -0.0033165924 0.0009715583
-0.009404042 0.0 0.0 0.015078058 -0.021349246 -0.016493093 -0.015399245 -0.010571851
0.01765013 0.0 -0.008004248 -0.011651955 -0.013556954 0.025142945 0.0 0.03654526
0.024801955 -0.009165277 0.03693704 0.0 0.011328919 0.043337904 0.035274357 -0.020410506
0.038184304 0.022591716 0.046598483 -0.008079241 -0.027985694 -0.0098784715 0.028618975 0.02038987
-0.035451997 -0.0096437065 -0.028957412 0.00765362 0.0415423 0.0062042726 0.06544018 0.012464433
0.043177754 -0.015378912 -0.012793932 -0.0029571345 0.00045563327 0.0 0.034411106 0.0
-0.008745835 -0.033761945 0.053209867 -0.03777308 -0.0041609635 0.0 -0.03555874 -0.026711266
0.033878047 -0.060405232 0.007114855 -0.0048560933 0.04069894 0.020068618 -0.011091221 -0.02020021
0.02921333 -0.026708037 -0.024884833 0.037322998 0.0004794375 0.04350653 -0.012621591 0.0
0.0 -0.01703664 0.015885545 0.043980345 -0.026394004 0.023363058 0.031427544 0.014405056
-0.0021783223 -0.0051622386 0.0049212347 0.035660826 0.0 0.031933896 0.047649145 -0.009881615
-0.0071754963 0.027536025 0.028424505 0.02773041 -0.025393803 0.025859714 0.0 0.0
0.04056072 -0.028524075 0.0 -0.03006533 0.0053575966 -0.002640661 -0.024230165 0.035534006
0.039509688 0.03471651 0.03106359 0.023419904 -0.008736219 -0.010618377 0.03782756 0.06844866
0.0 0.070611335 0.03515742 -0.008513499 -0.013460464 0.030888954 0.0 0.040089674
-0.010653639 0.024340713 0.0 -0.008821516 0.041308913 -0.011553734 0.03787919 0.0
0.00029424072 -0.01147082 0.034246992 0.021706477 -0.015777567 0.03734363 0.0 0.013586169
0.0 0.020699356 0.025185958 -0.006522007 0.017056977 -0.028944474 0.04292914 0.042213965

sequential_1/dense_7/BiasAdd/ReadVariableOp/resource f4 [3]
00000000: 5966 c53c a5d8 133d 745c 2d3d
0.024096655 0.03609528 0.0423245

sequential_1/dense_4/MatMul f4 [256, 5]
00000000: ea22 f1bd 30d9 fb3d ee33 fabd 20ad f3ba
00000010: 5027 86bb 9e8d 31bd 3a01 6a3a cf99 c93d
00000020: 1274 11be 9e58 603e 722d 52bd 6800 373e
00000030: 2ce1 4abd 2109 b83d 5ebf 0cbe c986 483c
00000040: 9002 83be 51a5 473e 5d91 aebc 40f6 d0bc
00000050: 8090 47bb 5cff 06bc a921 7fbd d829 003d
00000060: 344f e6bc 762e 013e 46cc 7dbd 1470 a5bd
00000070: 18a6 1d3e d66d 413e 1855 f8bd 3af8 f33d
00000080: 5f1d fb3d 24c2 003d 0683 543d 32a3 e43b
00000090: 3091 3dbd bc55 433d 867c 06be fc97 89bc
000000a0: ba88 0e3e 52c7 0fbd 77aa 09be d9bc 0dbe
000000b0: 186c 9c3d d4f0 1cbe d035 b43d 9b1c d9bd
000000c0: 123e 783c 3297 263e a907 a83d e534 3bbe
000000d0: a5ea 3d3d 636b 243e 8eb0 27be 5e4f 97bd
000000e0: c485 7cbd 2dd2 12be 00d9 c6bd 0fbd 6f3d
000000f0: 94fe 083e bcbc 2abd 8d5d 2d3d c671 0a3e
00000100: d758 603d e251 30bc 8869 1cbe 9667 273d
00000110: 901e acbb 4f0c 2b3e b759 6d3d 7f3c b6bd
00000120: b757 373d c3de 193d e0e9 933d 83f8 133d
00000130: e8c0 20bd bf03 a93d 2445 26be d2c3 3d3d
00000140: 0e98 09bd 20d6 163c 3c51 1bbd 36ec 3dbd
00000150: 58c6 d3bd 3457 0abd 74a5 66be 2e77 78be
00000160: f89d 373d 239d 5a3e ee6b ec3c 51e0 6f3d
00000170: fffb 8bbd c7fa f4bb e8d9 943a 3172 35be
00000180: 4b42 e1bd 6f73 8c3d b900 f4bc 315f 273e
00000190: 066b cc3e 0682 04be f0e5 7f3d f8ba ccbd
000001a0: 3136 f4bd cae8 6e3e 33f4 7abe 8e42 ff3d
000001b0: 3400 9c3d 14f7 abbd 8ce1 ed3d b8ce a8be
000001c0: 43ca b93d 4f21 7c3d 11c2 2f3d db9a 47bd
000001d0: 84f7 023c 1dcc b73d 1ff5 3fbd 4531 bebd
000001e0: 0815 bdbd 9134 c03c aa37 253c d4f0 d23b
000001f0: 8c83 a3bd 5014 08bd ff51 ae3d 3d92 c6bd
00000200: b6f8 303e 4b09 1a3e 98ec 81be 7876 0d3e
00000210: 4f4f 123e 407c f43c 27f0 6e3d 74a1 fcbd
00000220: 18de c239 6678 c8bd 8845 043d 2a7f 15be
00000230: 46da 2b3d 74eb 713e 86d3 3bbe bfb0 423e
00000240: 0372 42be 7292 133e cf63 2a3e b19c 0d3d
00000250: 4a6f 0bbe 3562 0e3d 008a ebbd 7761 b53d
00000260: 5744 5b3c b2e5 013e b8b2 9dbd 922d 55bd
00000270: 23a2 6cbd 3fa3 113e 39fb 753d 0365 9fbd
00000280: c1fb b23d 4daf 0b3e 08ef 72bd e799 983d
00000290: f37f 983d de40 6bbe 7d9d 163e 079f 823d
000002a0: d5f0 1abc 6c1a c13c 62c0 11be 4002 8dbd
000002b0: 4519 223e 9c58 0a3e 3a6b 35be d54f 033e
000002c0: a5d2 503e 924c 7bbd 85df 5c3d ea4e 7ebc
000002d0: 68dc 1abe efec 743e b4f2 f8bd 4609 693d
000002e0: aea2 693d 63b5 d53e b766 00bf a15a 3bbe
000002f0: d680 e13b fe91 473d 93fc 76bd efc4 6bbe
00000300: 0d69 da3b 3571 543e 2882 643e 3e2f 18be
00000310: 6c61 493d 2ce9 a3bc f2f5 823d 38bc 0dbe
00000320: ef57 1a3d 14db a73d 0c5e 7c3d 3044 55bd
00000330: 318f f73d dd8a 053e c1b9 02be 5819 2dbe
00000340: 3099 de3d 96c0 4abc d304 fc3d ccb3 d8bd
00000350: 0849 3a3d 3205 25bd 42c7 fcbd 9242 ab3d
00000360: 82cc fcbd 60d2 75bd 681b 7d3b d04f 50bd
00000370: be1f 153e ba3a 72bd bb37 a3bd a622 3ebd
00000380: ce72 c53c 909d 83be d23d 153d e2a9 803e
00000390: 39a5 53bc d4a2 72be 374b 9fbd 843c bfbc
000003a0: 5434 873b 6edb 19be 2062 4c3a 07e9 c23d
000003b0: 30c2 073e 81c5 7dbd c950 0f3b 20c0 13be
000003c0: c48f a43d 6772 e03d 06e8 acbd 3b9d b1bd
000003d0: 5a03 233d 382f dd3d 75ed 08be 6281 debd
000003e0: f8ad b83b d8dd 533d a6c5 bd3d 7469 e4bd
000003f0: d686 cd3c 21eb 21bd bf08 053e 5848 623d
-0.117742375 0.122972846 -0.12216936 -0.0018591024 -0.004094042 -0.043347947 0.00089265744 0.0984379
-0.14204434 0.21908805 -0.05131287 0.17871249 -0.049531147 0.08986116 -0.13744876 0.012239167
-0.25587893 0.19496657 -0.021309549 -0.025508046 -0.003045112 -0.008239593 -0.06228796 0.031289905
-0.028113939 0.1261538 -0.06196239 -0.08078018 0.15395391 0.18889555 -0.12125605 0.1191258
0.122614615 0.031435147 0.051882766 0.006977462 -0.04628104 0.047689185 -0.1313344 -0.016796105
0.13919345 -0.035102196 -0.13443933 -0.13841571 0.07637805 -0.15326244 0.087993264 -0.10601159
0.0151515175 0.16268614 0.08204586 -0.18281896 0.046366353 0.1605659 -0.16375944 -0.07388185
-0.061651006 -0.14337988 -0.09709358 0.05852991 0.13378364 -0.041683897 0.042325545 0.13519964
0.054772224 -0.01076171 -0.15274632 0.04087027 -0.005252667 0.16703914 0.057946887 -0.088982575
0.044761386 0.037565958 0.072223425 0.03612567 -0.03924647 0.08252668 -0.16237313 0.046329327
-0.033592276 0.009206325 -0.037919268 -0.046367846 -0.103405654 -0.03377457 -0.22524053 -0.24264213
0.044828385 0.21349005 0.028860059 0.058563534 -0.06835174 -0.007476184 0.0011356445 -0.17719342
-0.109989725 0.06857955 -0.0297855 0.16344906 0.39925402 -0.12940225 0.062475145 -0.09996599
-0.11924399 0.2333099 -0.24507217 0.12463866 0.07617226 -0.08396736 0.11615285 -0.32970214
0.090717815 0.061555203 0.042909686 -0.048731666 0.007993583 0.089744784 -0.046864625 -0.09286741
-0.09232527 0.023462566 0.010084072 0.0064374004 -0.07984075 -0.033222497 0.08511733 -0.096958615
0.17282376 0.15042607 -0.2537582 0.13814723 0.14288066 0.029844403 0.058334496 -0.12335482
0.00037168036 -0.09788589 0.032292873 -0.1459929 0.04195621 0.23624974 -0.18342409 0.19012736
-0.18988805 0.14411333 0.16639636 0.03457326 -0.13616672 0.034761626 -0.11500931 0.088564806
0.013382993 0.12685278 -0.077001035 -0.052045412 -0.057771813 0.1422243 0.060054038 -0.07782938
0.087394245 0.1364109 -0.05930999 0.074512295 0.074462794 -0.22973964 0.14708515 0.06377988
-0.009456833 0.02357217 -0.14233544 -0.06885195 0.15829952 0.13510364 -0.17716685 0.12823422
0.20392855 -0.06135232 0.053924102 -0.015521744 -0.15123141 0.23918508 -0.12155667 0.05689361
0.05703991 0.4173995 -0.5015673 -0.18296291 0.0068818135 0.048723213 -0.060299467 -0.23024343
0.006665355 0.2074631 0.22315276 -0.14861771 0.049165174 -0.020008646 0.063945666 -0.13841331
0.037681516 0.08196083 0.061613128 -0.05206698 0.120878585 0.13041253 -0.12766172 -0.16904199
0.10869062 -0.012375018 0.12305608 -0.105811685 0.045479804 -0.040288158 -0.12342693 0.08362307
-0.12343694 -0.060015082 0.0038621072 -0.050857365 0.1456289 -0.059138037 -0.07969614 -0.046419762
0.024102595 -0.25706148 0.03643591 0.2512961 -0.01291781 -0.23694927 -0.07778018 -0.023344286
0.004126111 -0.15025112 0.0007796604 0.09517103 0.1325767 -0.061955933 0.002186822 -0.14428759
0.080352336 0.109593205 -0.084426925 -0.086725675 0.03979812 0.10800022 -0.13371833 -0.108645216
0.005635973 0.05172524 0.09266214 -0.11152926 0.025088709 -0.039530877 0.12991618 0.055244774

sequential_1/dense_5/MatMul f4 [64, 256]
00000000: 06b3 a3bd 6fe6 dabc 08f8 d1bd 8aaf 8d3d
00000010: 3d18 c13d 3e65 b2bc 6723 b6bc 43fc 95bc
00000020: cd85 333d ab14 21bd 8ec3 5c3e 874c 48bd
00000030: 6c15 193e cb0f 503d 6402 7b3d cf7f c5bc
00000040: 85b2 c63d 06ea 8bbe 7028 00be bc08 143e
00000050: de19 c23d 6f6c 0f3e ac8c 0a3e 0e32 a3bb
00000060: ed56 eb3d a8fd 3e3d 6828 d5bd 81ef 0abe
00000070: 2e32 b3be 7ddb e1bd 2391 48bc 5217 96bd
00000080: 35ce bb3b 473e 3b3c 5aaf 9abd 24ee d2bd
00000090: c27b 4cbe 0ccd 063f af15 883d 1f0d 553d
000000a0: 3807 c93d b99c 243e 0110 2f3e e1d8 ba3c
000000b0: 8b2e 903d 9cbe 99bd a997 013c 03e2 673d
000000c0: fb92 553d 697f 033e bbf8 a73d 6f26 debd
000000d0: 4b34 06be 23c6 5f3d f616 1b3e acd0 94bc
000000e0: c312 4b3c 923f 1a3e d2df 0abe 6f3f 3fbd
000000f0: 4036 05be 4c60 ccbd e194 3f3d 5f32 a23d
00000100: d100 f03d f1f2 063e 0752 583e 7fe3 0b3e
00000110: 8668 c03d 7a9d c93d 0224 3e3e 677a d63d
00000120: 25ab a1be 641d ae3d b628 2cbc 8855 413e
00000130: 28dc 8d3d 80a4 d63d fc1d 683e 1b4b 933d
00000140: 73e7 df3d c200 0fbe e50b 99be 8d2f 123e
00000150: 53da cb3d 5022 8ebd 8349 933e 2d4c 02be
00000160: a123 833d 55b3 3c3d fdb0 00bd c69d 9ebc
00000170: 2548 9fbd 82b7 8a3d e057 703d a4da 02bd
00000180: e9ee 25bc d3a7 b33e 570b a9bd c7c5 eebd
00000190: ff40 c0bd 12eb c83b 90de 7c3e 229b 89bd
000001a0: c32d c9bd cc20 f13d 5398 2ebe 764f bc3c
000001b0: e6ee babd dc39 d5bd 10f9 eb3d 113a 9b3e
000001c0: 7bbe b4bd 1796 e23d f057 fabd 3c7b c03d
000001d0: 2634 fb3b 9b46 4bbd efc7 ac3d 7101 ba3e
000001e0: 84e4 043e c617 263c 7aae 81be d936 013d
000001f0: dc1c 2d3c 0c5c 463d 27c1 87bd f422 89bc
00000200: eb4e 3cbd db59 df3c 9e81 b9bc cf07 923d
00000210: fe4d 2ebd a2d3 77be b37f abbd 134e ef3b
00000220: a812 aabd 5572 f6bd 3790 fdbc a539 b9bd
00000230: 17bb 77bd 7509 14bd 919f 4fbe 5768 cc3d
00000240: 904a 473c 3a85 a13c 9b17 6ebd e7fb 3fbd
00000250: fa40 c2bd 6967 073c 886a 82bd 9964 993c
00000260: 1a48 f7bd a013 b0bd b669 9cbd d939 1d3d
00000270: 89ad 903c 2171 083e b8b4 8f3d 9bf5 4cbc
00000280: 1990 d9bd 8a11 febd 1a2e 973e 019b 363d
00000290: ddea f9bd d3ea fa3d 8d5b dbbd adfc a33d
000002a0: e760 ce3c 054a 93bc 39a5 d83d 11ed d9bb
000002b0: cbbb 6d3d b13e e53b 8d9c ac3c 4f3b c43d
000002c0: 1e25 663d d40d 903e 3312 fb3c 9b47 243e
000002d0: cd33 553d 0a46 07bf 05c3 583d 83dd 45bc
000002e0: e79f d43d 6933 3a3e 2b83 cbbd 6394 093e
000002f0: 2552 b4bd 1321 fe3c 5c52 97bd 6ae1 b2bd
00000300: 04b2 4cbc c7d4 d8bc e841 803e e632 6b3d
00000310: 8cc4 153e 5985 f33d c671 4d3c f882 0a3e
00000320: 45df 263e e5e0 543d 1d85 623c c203 c43a
00000330: 4708 b63d 6edd d83d bbd0 aabd d07b 85bc
00000340: e2cf cbbd b6ff 6ebd 5696 1cbe 4560 06be
00000350: 3ccb 91bd 6503 9abc 79f4 1c3e 22db b83e
00000360: 51d9 efbd dccc 803d a1e0 3bbd 7a88 aabd
00000370: c700 0d3e 9b42 7d3d 10d7 423e 470c debd
00000380: 0e72 9cbd 3f7c e33d f257 94be 3782 8f3d
00000390: d4c3 e6bc 748a 01be a3fe c83d 598a 7bbd
000003a0: b3b6 593c a393 f93c 070a 4a3d 87d4 a2bd
000003b0: 3baf af3d bc48 2abe 56e9 b2bc f8be 26bd
000003c0: 3143 f5bd 5fa8 fe3d f156 9f3d 36cb 833d
000003d0: 0743 eb3d 0b2e d63d d3e7 fa3d 131d 0a3e
000003e0: 9baa e6bd fe43 86bd 2985 b43d d020 503d
000003f0: 352b d6bd 6d21 ac3d 5e1a 20be 8c57 5c3e
-0.079931304 -0.026721207 -0.10252386 0.06918247 0.09428451 -0.021776792 -0.022233678 -0.018308764
0.043828774 -0.03932635 0.21558973 -0.048901107 0.14949578 0.05079631 0.061281577 -0.024108795
0.09702019 -0.27326983 -0.12515426 0.14456457 0.0947759 0.14006208 0.13530225 -0.004980332
0.11491189 0.046628624 -0.104080975 -0.13567926 -0.34999222 -0.11028192 -0.012241635 -0.07328667
0.005731369 0.011428422 -0.07552977 -0.10299328 -0.19969085 0.52656627 0.06644761 0.052014466
0.0981583 0.1607541 0.17095949 0.022808494 0.07040127 -0.07507059 0.007909694 0.056612026
0.052142125 0.12841572 0.082017384 -0.108471744 -0.13105886 0.054632317 0.15145478 -0.018165909
0.01239461 0.15063313 -0.13561943 -0.046691354 -0.13008976 -0.09979305 0.04677284 0.07919764
0.11718906 0.13178612 0.21125041 0.13661002 0.09394936 0.098444894 0.18568423 0.10472565
-0.31575885 0.085016996 -0.010507753 0.18880284 0.06926757 0.10480595 0.22667688 0.071920596
0.10932817 -0.13965133 -0.29891887 0.14275952 0.099537514 -0.06940138 0.28767022 -0.12724371
0.0640328 0.04606946 -0.03141879 -0.019362342 -0.07777432 0.067732826 0.058677554 -0.031946793
-0.010127761 0.35088977 -0.08254116 -0.11658817 -0.09387397 0.006131538 0.24694276 -0.06719042
-0.098231815 0.11773834 -0.17050295 0.022987109 -0.091275975 -0.104114264 0.11522114 0.3031774
-0.08825394 0.110637836 -0.12223804 0.09398505 0.0076661287 -0.04962788 0.08436572 0.36329225
0.12977797 0.010137504 -0.25328428 0.031546447 0.010565963 0.048427626 -0.06628638 -0.0167403
-0.0459737 0.027264526 -0.022644814 0.071303956 -0.042554848 -0.24201825 -0.08373966 0.0073030083
-0.0830434 -0.12033526 -0.030952556 -0.09044198 -0.060481157 -0.03614183 -0.20275714 0.09980839
0.012163773 0.019716848 -0.05812798 -0.046871092 -0.094850495 0.008264401 -0.063679755 0.018724727
-0.12074299 -0.08597493 -0.0763735 0.038385246 0.017660873 0.13324405 0.07016891 -0.012509729
-0.106231876 -0.12405689 0.2952736 0.044581417 -0.12203 0.122518204 -0.10710821 0.080071785
0.025192691 -0.017979631 0.10578389 -0.006650575 0.05804042 0.006995999 0.021070743 0.09581625
0.05618774 0.2813555 0.030648327 0.1604294 0.052051354 -0.52841246 0.05292036 -0.012076738
0.103820615 0.18183674 -0.09937128 0.13435511 -0.0880473 0.03102163 -0.07388756 -0.087344006
-0.012493614 -0.026468648 0.25050282 0.057421587 0.14625758 0.118906684 0.012539333 0.13526523
0.16296108 0.05197229 0.013825682 0.0014954733 0.088882975 0.10589109 -0.083405934 -0.01629439
-0.0995176 -0.058349334 -0.15291724 -0.13122661 -0.07118842 -0.018800447 0.15327634 0.36104685
-0.11711372 0.06289074 -0.04586852 -0.08326812 0.13769828 0.061831098 0.19027352 -0.108421855
-0.07638942 0.111076824 -0.28973347 0.070072584 -0.02816955 -0.12650472 0.09814193 -0.061411235
0.013288188 0.030465906 0.04932597 -0.079506926 0.085783444 -0.16629308 -0.021839779 -0.040709466
-0.11975706 0.12434458 0.07780255 0.06435244 0.11487394 0.10458001 0.12251248 0.13487653
-0.11263009 -0.06555937 0.08814461 0.050812542 -0.1045746 0.08404813 -0.15635058 0.21517771

sequential_1/dense_6/MatMul f4 [256, 64]
00000000: 0185 94bd c92b 0bbd d8a0 0b3d a795 d9bd
00000010: f1b8 5bbc f452 b7bd 58f0 123d 6b81 efbd
00000020: 3722 6a3d 13a7 0f3d 766e fb3d 9dee cebc
00000030: 3e4c fb3d 2f4a 0f3e 0005 6b3d 37c3 02be
00000040: 3045 c53d 4054 d33c 0b6b e3bc eb57 abbd
00000050: c634 e9bd 7486 2a3e d49c babd 4be5 4a3d
00000060: 7358 233e 93a9 fcbd 39af db3d 334f b3bc
00000070: 642b 7bbd 6898 a93d fbc0 96bd e531 903d
00000080: 0fe3 cb3d e960 a13d 6fd1 243d 3233 9d3c
00000090: c931 d73d 22c7 ccbd 103b f3be 29b6 923d
000000a0: d4aa 913c 3bfc 423d 2447 9e3c 28b6 9bbd
000000b0: 24a6 493c b7f1 693c cbd0 e1bd 540e 52bd
000000c0: 5f02 ee3d cdf7 dbbd d67a 313d a067 0f3e
000000d0: 86e5 9d3d 0f8a aabd 0ab7 e9bd 4eea 4f3d
000000e0: 1f27 3c3e 3aa4 8b3d 1c3c 493d 089e 16bd
000000f0: cea8 9f3d e853 5d3d 40a8 8f3e e3ea 9e3d
00000100: d648 303d 0f28 1a3e de32 083d 4967 c7bd
00000110: 220d 2abe dc70 89bd 0632 fbbc 423d b6bd
00000120: 07e1 1cbc 1c1b 91bd f380 9c3d 8e73 043e
00000130: ac05 e33c 98aa 633d c405 16bc 48ac f83d
00000140: aa70 47bd b6c6 1fbc db12 c83d c313 773b
00000150: 301d b83d 9699 06be 6a7f 82bd a82c bebd
00000160: e34b d7bb 7aae 6e3d 349a a73d 0ddc febd
00000170: ed8d 9abb 0e7b bc3c 2a63 d53d 51b6 043e
00000180: 3e4f cdbc ffa9 8ebc a9ec 3c3e 4a8a efbd
00000190: 3700 733d 1c26 07be 963c db3d 25da 80bd
000001a0: 22a9 de3d 0361 f83d 801d 013e 26f3 ecbd
000001b0: 8ccd a8bd 9521 fcbd d2b1 b23d 2a02 c33d
000001c0: 0074 473a ae2b 9f3d b25d e6bd c065 1d3e
000001d0: b7be 0abd d04f 523d a306 9abd b78b c13d
000001e0: 7234 593e 8671 173e de87 bbbc c1ae ce3d
000001f0: 4979 edbd 4bea c03c 48d5 383e 0b9a d9bb
00000200: c8a4 ea3d c382 9fbd b26c 79bd 5c37 95bd
00000210: ec75 ef3c 6c96 f2bc 5465 893d 4c0c debd
00000220: 569a bebd ccc7 d8bb 7436 f5bd 765f d4bd
00000230: 06c4 08bd a210 0a3e 0816 bab8 1a43 79bd
00000240: de24 c6bd 6893 453c 56e3 dd3d 62d1 cf3d
00000250: 78ad cbbc 4482 e23c 94b7 a43d ae9e d9bd
00000260: 6fd7 86bd 987e 6d3d 8422 f73c d58b 9bbd
00000270: 0884 9f3b 2820 5fbd 409d 9ebd 8f2f 08be
00000280: e484 e9bd feb5 b23d 0c37 7c3b b256 39bd
00000290: b058 02bd 2426 b9bd a533 8dbd 2cd2 98bc
000002a0: 7c15 d63d 407a dabd 5404 74bd bcee 773d
000002b0: f885 27bc d44d fe3d 5038 fe3d 501f f13d
000002c0: 5823 5bbd 4030 363d 38e6 f63d d02f 0fbd
000002d0: 507e a7bc c8f1 3a3c 0446 843d 88f4 c43c
000002e0: 26d5 2dbd 0441 fdbc 5674 f2bd aa36 cdbd
000002f0: 0862 20bd e27d db3d 089f 28bb 065b afbd
00000300: b248 cdbd 3ad3 833d b478 e9bd 32dd 643c
00000310: 0f80 803c 8952 d53d b6f9 c23d 1304 fcbd
00000320: c7f1 d6bb 1c20 86bc 92be 703d 27ed f33d
00000330: 6db8 7fbd 6809 d3bd ece7 2f3d 7c49 fa3d
00000340: 760d a1bc e0e3 4e3d d37d d13d 5d92 9ebd
00000350: d2f4 b73d c3f1 95bc 2274 573c a0a7 85bb
00000360: 1fd9 8cbd 68cc aa3c f1d5 b83d 4caa eb3d
00000370: a98e f1bd 10ed 3c3d e9ec 80bd 0822 e03d
00000380: 3f0d 94bd 82d0 e3bd d754 ff3d cc62 6c3c
00000390: aeae 13bd db26 08be f2b4 a13d c10e 963c
000003a0: c87c c7bb 08b6 b33d 2450 7dbc 2848 9dbb
000003b0: 661e 47bd a1ef 8fbd ba36 843d 36fe 7abd
000003c0: 3b49 4fbd 75e6 cabd 3cf7 3bbd 9d29 fbb7
000003d0: c09d 11bd 83b7 cabd e7ab ffbd a711 b53d
000003e0: 9ce9 013e 7bcb 9f3d 5237 98bd a0b4 cfbd
000003f0: 0e6b c53d 8cf8 e73d 6c87 bebd 622f abbd
-0.07251931 -0.033977304 0.03408894 -0.10624247 -0.013410793 -0.08951369 0.03587374 -0.116946064
0.057161536 0.035071444 0.12276928 -0.025260264 0.122704014 0.13993143 0.057377815 -0.12769781
0.09632337 0.02579701 -0.027761003 -0.083663784 -0.11387019 0.16652852 -0.09111944 0.049535077
0.1595171 -0.12337031 0.107267804 -0.021888351 -0.061320677 0.08281022 -0.07361027 0.070407666
0.09955417 0.07879812 0.040238794 0.01918945 0.10507543 -0.09998919 -0.47506 0.071636505
0.017781653 0.047603827 0.019321032 -0.07603103 0.012307677 0.014278821 -0.11026152 -0.051283196
0.11621546 -0.107406236 0.043330036 0.14004374 0.07709794 -0.08327114 -0.11411865 0.05076056
0.18374299 0.06818433 0.04912959 -0.036771804 0.07795869 0.054035097 0.28058052 0.07759645
0.04303821 0.15054344 0.033251636 -0.09736497 -0.16606572 -0.06710979 -0.030663501 -0.08898403
-0.009575135 -0.07085249 0.076417826 0.12934706 0.027712665 0.055582613 -0.009156648 0.12142235
-0.04869143 -0.009751966 0.097692214 0.0037700988 0.08989942 -0.13144526 -0.063719586 -0.09285861
-0.0065703257 0.058271863 0.08183709 -0.12444315 -0.004716626 0.023007896 0.10419305 0.12960173
-0.0250622 -0.017415045 0.18449654 -0.116962984 0.059326377 -0.13198131 0.10704915 -0.06291608
0.10872103 0.121278785 0.1260891 -0.115698144 -0.0824233 -0.12311093 0.08725323 0.09521897
0.0007608533 0.07772003 -0.1124834 0.15370846 -0.033873286 0.051345646 -0.07520797 0.094504766
0.21211413 0.147894 -0.022891935 0.100919254 -0.11595399 0.02354922 0.1805011 -0.006640678
0.11457211 -0.07788613 -0.060894676 -0.072859496 0.029231034 -0.029612742 0.0670878 -0.10842189
-0.09306781 -0.0066156145 -0.11973277 -0.1036977 -0.033390068 0.13482907 -8.873275e-05 -0.06085501
-0.096750006 0.01205907 0.108343765 0.101473585 -0.02486299 0.027650006 0.08042827 -0.10625969
-0.065840594 0.057982057 0.030167826 -0.0759503 0.0048680343 -0.054474026 -0.07744837 -0.13299392
-0.114023 0.087261185 0.003848496 -0.045248695 -0.03182286 -0.09040478 -0.06894616 -0.018654905
0.104533166 -0.106678486 -0.05957444 0.06053041 -0.010224812 0.12417188 0.124130845 0.117735505
-0.053500503 0.04447961 0.120556295 -0.034957707 -0.020445973 0.011410184 0.06458667 0.024042383
-0.042439602 -0.03091479 -0.118385956 -0.10020192 -0.03915599 0.107173696 -0.0025729556 -0.08562283
-0.10023631 0.06436773 -0.113999754 0.013968753 0.015686063 0.10416133 0.09520285 -0.123054646
-0.006559584 -0.016372733 0.058775492 0.119104676 -0.06243174 -0.103045285 0.042945787 0.12221047
-0.019659739 0.050510287 0.10229077 -0.0774276 0.08982243 -0.018303758 0.013150247 -0.0040788203
-0.0687735 0.020849422 0.09025181 0.11507091 -0.117947884 0.046124518 -0.06295187 0.10943991
-0.07229089 -0.11123754 0.12467354 0.014427852 -0.03605526 -0.13296072 0.07895841 0.018317582
-0.006087873 0.08774954 -0.015461002 -0.0047998615 -0.048612975 -0.070281275 0.06455751 -0.06127759
-0.050606947 -0.099072374 -0.045890078 -2.994091e-05 -0.035550833 -0.09898283 -0.1248396 0.088412575
0.12686771 0.07802483 -0.074324265 -0.10141873 0.0963956 0.113267034 -0.093031734 -0.08358647

sequential_1/dense_7/MatMul f4 [3, 256]
00000000: d35a 00bd 7d46 0cbe 001d d13d 4d79 98bd
00000010: c2e7 00bd 9e4d b93d 1e79 633d 3671 163d
00000020: 42d2 09be b09a 17be aba8 bf3e 6eb9 f1bd
00000030: 8d82 26bd 8e1b 95bd 299c 033e b086 cdbd
00000040: dc30 44bd 432f 17be 8323 b13d 86f7 de3d
00000050: eacd efbd 4b51 043f 05ff 913d 342a dcbd
00000060: 79d8 16be da86 203d 28a7 123d 3fe4 663e
00000070: d4ea 843e 1ca0 07be 7b5c febd d5f1 af3e
00000080: f596 9d3d f0e8 9cbd 6b2b 4abd 5075 0e3e
00000090: a4d1 913e 5eda e5bd f98a af3d 6c0e a23d
000000a0: 1587 6f3e 4748 9e3d 2992 9b3d 31b6 abba
000000b0: 6798 11be b563 b63e 2eab 783d ff1e 183e
000000c0: c3c6 293e 118c eb3d f4df 023e 579e 7ebe
000000d0: ccee bbbd fecf c93d 81f9 acbc 6281 ad3e
000000e0: 3b57 cfbc e6fe 1a3e 46a0 f53c 39de 973c
000000f0: ba46 25bc da17 f03b cf2b 9c3d efb1 0e3e
00000100: 5e40 9d3d 577b 0d3e b237 103e 7b9d 5e3b
00000110: 0e3e c03e 66fd 1a3e 39ef e6bb e975 533b
00000120: 9ca9 e23d de3b febd eeac 3c3c 5bfe eb3b
00000130: 3369 13be 2d59 913d cc72 fa3d 0eb1 053e
00000140: 4323 d83d 7512 0e3e f1a8 1abc 2fef e23d
00000150: a6b1 cdbd 6a40 0e3e 1518 71bd 5ce5 a53d
00000160: 8779 3f3e dd9b 8bbd f6b5 febd 68bc 383d
00000170: 1c80 003e 4b48 123e 96a9 83bd 93e0 ed3d
00000180: ffde 983e ce76 e13d e7ec d4bc 3252 73bd
00000190: 1357 ef3d 9e33 3d3f a151 61bf aa81 ea3d
000001a0: 9a73 e5bd 5f15 9dbd 9859 983d af56 0c3f
000001b0: fe9c b43d 0d79 e5bd 1b53 e83d 6f25 a3bd
000001c0: f368 ff3d 5eaf ddbd 4b95 c0bd f772 643c
000001d0: ade5 fabd 099d b0be c986 17be fec1 90bd
000001e0: ff8d 10be 0400 733d 4d1e 6f3e b670 d5bd
000001f0: ede3 26bf dcb5 6f3d 60bb 37bd 6809 b13d
00000200: 330b a13d 6426 a03c f54a 4f3d a47b 5dbd
00000210: e79f 5f3e ccb2 e3bd 84bb edbc b1c2 273d
00000220: 2e30 fbbb 0916 2fbe 7ca3 b03d 341f b33b
00000230: 9410 cbbd fdfb 943d 04cc 6e3d 1181 1f3f
00000240: ab95 40be 7f36 1d3e 497a c7bd 42b5 e93e
00000250: ba3f 8dbc 9ec3 c8be 0995 4dbd 78a0 8a3d
00000260: 692c 153e f4a1 75bd bcbf 9abb 864c a03e
00000270: 95e7 7e3e 29e7 cbbd 2173 c93d 1a75 143e
00000280: dac4 05be e7b0 36be 726d 303e 5687 e43f
00000290: d747 f4bd 7152 9abd 1910 53bd 2dbf b13e
000002a0: 88be 113e 35a4 04be c050 2dbd fe07 1f3d
000002b0: 4a11 6d3e f284 9d3e 01df f13c 3980 0dbe
000002c0: 8699 f63d 32a3 893e 1d47 b3bd af31 bb3d
000002d0: 10da e83d 11b7 863d 32b9 ec3c 9ca8 8d3d
000002e0: b496 9d3d 7d7d 923c 317f c13d 84eb fabd
000002f0: f2cc a33e 7507 d7bd 2d19 b83d 780e b63d
00000300: 9d24 dfbe 5200 b53d 1ca4 c0bc b184 533d
00000310: 1f3d 93bd 7527 8ebc c12e 5c3e 6de8 863d
00000320: b397 94bd adfb 05be 8745 0a3e 2f07 5a3d
00000330: a344 d2be 0f22 c0bc 00e0 b93a 709d 093c
00000340: 9608 2a3e 3069 71be e037 9a3b 6689 183d
00000350: 57c8 83bd ed6d 4e3d 09b4 86be e2e3 84bd
00000360: d9af 8d3b bdce 0a3e 075b 073e 3b98 0c3e
00000370: 5b1b d3bd 3b90 10be 42a6 153a d104 903e
00000380: 6cf9 353d fffc 0d3f b50f 98bd e1a7 0bbe
00000390: 567f e3bd 5f02 0e3e 382a 093e c580 1dbd
000003a0: 5799 a6bd c1ac 6fbf e64e e9bd 1a36 6e3d
000003b0: 6b4f 3cbd 36e6 1bba e936 023d c859 0cbd
000003c0: 1356 f3bd 13e5 1a3d c8bd 923c e2f3 323e
000003d0: 0886 06be ef78 2cbe 0e5e 10be 105e 64bd
000003e0: 40fa d33c a50d df3e 8516 de3d f1d8 bc3d
000003f0: 338c f3bd 8600 033e f08b 68bd 3455 9c3d
-0.031336617 -0.13698764 0.102106094 -0.07445011 -0.03147102 0.090480074 0.05553543 0.03672906
-0.13459113 -0.14805102 0.3743337 -0.11802946 -0.040651847 -0.07280646 0.12852539 -0.10035455
-0.04789816 -0.14764123 0.086493514 0.10887055 -0.11709197 0.51686543 0.07128719 -0.10750237
-0.14731015 0.039191104 0.035803944 0.22548006 0.2596041 -0.1324467 -0.12419983 0.3436419
0.076948084 -0.07661617 -0.049357813 0.13911939 0.28480256 -0.11223291 0.08571429 0.07912907
0.23391373 0.077286296 0.07596237 -0.0013100562 -0.14218293 0.35622945 0.060710125 0.14855574
0.16579728 0.11501325 0.12780744 -0.2486509 -0.09176406 0.098541245 -0.021115066 0.33887774
-0.02531015 0.15136299 0.02998365 0.018538581 -0.010087663 0.007327062 0.07625543 0.13935064
0.07678293 0.13816582 0.14083746 0.0033968377 0.37547344 0.15135726 -0.0070475605 0.0032266325
0.11067507 -0.124137625 0.011515839 0.0072019524 -0.14395599 0.07097087 0.12228927 0.13055822
0.10553601 0.13874228 -0.009439693 0.11080777 -0.100436494 0.1389176 -0.058860857 0.081003875
0.18698703 -0.06816838 -0.1243705 0.045101553 0.1254887 0.1428539 -0.0642883 0.116151
0.29857633 0.11008988 -0.02599187 -0.05940456 0.1168653 0.73906887 -0.8801518 0.11450513
-0.1120369 -0.07670092 0.07438964 0.5481977 0.088190064 -0.11204729 0.11343976 -0.07966124
0.12471189 -0.10824464 -0.094034754 0.013943425 -0.122508384 -0.34494808 -0.1479751 -0.07068251
-0.14116667 0.059326187 0.23351403 -0.104218885 -0.6519154 0.058523044 -0.04485643 0.08644372
0.07863464 0.019549556 0.050608594 -0.05407299 0.21838342 -0.11118087 -0.029020078 0.040957157
-0.0076656556 -0.1709825 0.08624932 0.005466366 -0.099152714 0.072746255 0.058300033 0.62306315
-0.18807094 0.1535282 -0.09740121 0.456461 -0.017242301 -0.39211744 -0.05019096 0.06768888
0.14567722 -0.059968904 -0.0047225635 0.31308383 0.24893029 -0.099562 0.09836412 0.14497796
-0.13063374 -0.1784092 0.1722925 1.7853801 -0.11927765 -0.07535256 -0.051529024 0.34716168
0.14232838 -0.12953265 -0.042313337 0.03882598 0.23151127 0.30765492 0.029525282 -0.13818444
0.12041001 0.2688232 -0.08753798 0.09140336 0.11369717 0.06577886 0.028896902 0.06916925
0.0769476 0.017882103 0.09448088 -0.12251952 0.31992298 -0.10499469 0.08989177 0.088894784
-0.4358262 0.08837952 -0.023515753 0.051640216 -0.07189392 -0.017352799 0.2150221 0.065873004
-0.07255497 -0.13084288 0.13503085 0.053229507 -0.4106799 -0.02345374 0.0014181137 0.008399352
0.16604838 -0.23575282 0.004706368 0.03724041 -0.06434696 0.050397802 -0.2630923 -0.06488778
0.004323941 0.13555427 0.13218318 0.13729946 -0.10307952 -0.1411752 0.0005708673 0.28128675
0.04442732 0.55464166 -0.07424871 -0.1363826 -0.11108272 0.13868092 0.13395011 -0.038452882
-0.08134716 -0.93622977 -0.11392002 0.058157064 -0.045974176 -0.0005947085 0.031790648 -0.03426531
-0.11881652 0.03781612 0.01791276 0.17475846 -0.13137066 -0.16843008 -0.14098379 -0.055753767
0.025876164 0.43565097 0.10844139 0.09221066 -0.11891975 0.12793168 -0.05677408 0.07633439
