models/fcModel_202105241651.tflite (tflite, 143496 bytes, 8 tensors)

sequential_1/dense_4/BiasAdd/ReadVariableOp/resource f4 [256]
00000000: 0000 0000 c4f4 57bc 0000 0000 0000 0000
00000010: 5a09 c4ba 5094 babc 8c26 793c c4bc 633c
00000020: e3f2 a63c 979a 323d 1fc1 de3c 0000 0000
00000030: d4e5 913d bc2b e33c 2783 edbc 7ced fabb
00000040: e5e3 9aba 78f5 42bb 0000 0000 0000 0000
00000050: 6a44 27bc 02ce d8ba 98a0 b3bb ecbb 38bb
00000060: 0000 0000 d374 c2bb bf54 1cbb 0984 38bb
00000070: 37ec e7bb 0000 0000 0000 0000 822a 273d
00000080: 0000 0000 0000 0000 ff5f 55bd 0000 0000
00000090: 0000 0000 5a8c 84ba ea24 27ba 0000 0000
000000a0: 63ef 0bbb 0000 0000 77ea 9e3c 446b b63c
000000b0: 1f00 b23c 9bf5 c9bb 0366 f8b9 dffd 693d
000000c0: 6d92 7a3d 0000 0000 d363 b93b 4891 d23d
000000d0: 0000 0000 0000 0000 f7ca a93b 4916 a239
000000e0: 202f 9c3d 9b8a 15bd 3954 313c 40f6 7ebc
000000f0: 6139 d8bb 0000 0000 9704 f03b 97a4 0ebc
00000100: 0000 0000 0000 0000 0000 0000 0000 0000
00000110: b966 dc3b 63f0 00bc 6183 293b 0000 0000
00000120: 0590 443c cf52 b8bc 0000 0000 2f6d 1dbc
00000130: c103 13bc 0000 0000 bc6e 73bc 0000 0000
00000140: 0000 0000 0000 0000 0000 0000 0000 0000
00000150: 0000 0000 991c b0b9 0000 0000 082e 5ebc
00000160: 0000 0000 008c 273c 0000 0000 6591 693d
00000170: 0000 0000 ce7d 273a 275b 313c 0000 0000
00000180: 8087 a0bb 0000 0000 9cb2 d4bb 8d11 8e3c
00000190: 0000 0000 2914 c83a 6e74 18bc 0000 0000
000001a0: e6f4 3dbb 37f8 203d 2424 0b3c 685f 57bb
000001b0: 8881 763d 7681 f93c bd89 a6bb c99b 11bc
000001c0: 8061 66bc 24be 633a 9963 303c 17d6 f6bb
000001d0: 0000 0000 6ff4 dc3b a5f3 893c e03a 3f3a
000001e0: 0f3c 913c 0000 0000 c242 16bc 0000 0000
000001f0: 2727 d63c 7b44 c8bb 0000 0000 c8a0 c13d
00000200: 9d2d 6dbc 9ef3 f13a 0000 0000 0000 0000
00000210: 0918 c33c 6173 2abc 0000 0000 7b0d ef3c
00000220: 9ab0 ca3c 9c56 973d a1a5 cfbb b9db 7b3b
00000230: dde5 463d 487a ddbb 3ea9 9dbc 0e73 c5bb
00000240: 9049 1f3c a8dc 8d3c 0000 0000 539d 9a3c
00000250: 673c 6f3d 0000 0000 7086 7abc 154c 9f3c
00000260: 2067 083b 02d6 253c cf00 f3bb 90f0 6e3c
00000270: 0000 0000 314f 0eba d535 413c cb28 0fbc
00000280: f5a1 27bc 1ee1 c8bb b93f 74bc 4edc 95bb
00000290: 0000 0000 07d0 8f3c 9ff2 653c 0000 0000
000002a0: 204c 37bc e3fc 93bb be19 a73b 0000 0000
000002b0: 19d4 3fbb 06a0 74bb 5a1b 89bc 118d 693c
000002c0: 9e19 443b 918c 8fbc 0000 0000 a812 edbc
000002d0: 9a0e 7a3d 352b 19bc bded 2ebb dd00 a5bb
000002e0: 4ad8 053c dde4 b53b 2093 54bd 5c30 d03c
000002f0: fcdb bbbc 8023 343c ce39 853c 682f 74bb
00000300: a088 5f3c 23e2 0b3c 841e 4abc 0000 0000
00000310: 0000 0000 c8e7 933c 5099 903d 2d03 043d
00000320: 0000 0000 0000 0000 8ab3 033c e0ad 08bc
00000330: 309c ff3c 7b35 fbbc 0000 0000 4009 7fbc
00000340: 9a17 a0bc ab1b 933c 954d a13d 4ed1 0e3d
00000350: 0000 0000 0000 0000 0000 0000 d1fb 38bb
00000360: 0000 0000 0000 0000 54bc 8f3c 0000 0000
00000370: 762e a5bb 0bb8 a33a 0000 0000 b3dc 25bc
00000380: cbbc c23c ad61 0ebc 19b0 b9bb 3424 b4bc
00000390: 4f54 0ebd 3969 673d 0000 0000 0000 0000
000003a0: 0000 0000 1ef9 38bc 0000 0000 0000 0000
000003b0: 0000 0000 425a 3339 60dd b23c fc2c 05bd
000003c0: 0000 0000 0000 0000 32a7 813c 0000 0000
000003d0: 0000 0000 7080 8f3c bd42 d13c 8876 1ebc
000003e0: dae6 1b3d 0000 0000 4032 983d 8ea8 9d3c
000003f0: 367c 70bc 0000 0000 a055 23bc 5888 1e3c
0.0 -0.013180915 0.0 0.0 -0.00149564 -0.022775799 0.015206944 0.013899986
0.02037949 0.04360446 0.027191697 0.0 0.07123914 0.027730815 -0.028993202 -0.007657705
-0.0011817185 -0.0029748362 0.0 0.0 -0.010209182 -0.0016540887 -0.0054817908 -0.0028188182
0.0 -0.0059343367 -0.0023854224 -0.002815487 -0.0070777196 0.0 0.0 0.040812023
0.0 0.0 -0.052093502 0.0 0.0 -0.0010112629 -0.0006376045 0.0
-0.0021352402 0.0 0.01939891 0.022267945 0.021728573 -0.0061633117 -0.0004737825 0.057126876
0.0611748 0.0 0.005657652 0.102816164 0.0 0.0 0.005181666 0.00030915652
0.07626176 -0.036509138 0.010823303 -0.01556164 -0.006598637 0.0 0.007324766 -0.008706233
0.0 0.0 0.0 0.0 0.0067261127 -0.007869813 0.0025865661 0.0
0.011997228 -0.022500424 0.0 -0.009608551 -0.008973063 0.0 -0.014857944 0.0
0.0 0.0 0.0 0.0 0.0 -0.00033590643 0.0 -0.013560779
0.0 0.01022625 0.0 0.057023425 0.0 0.0006389291 0.010824955 0.0
-0.0048989654 0.0 -0.0064910185 0.017342353 0.0 0.0015264797 -0.009305103 0.0
-0.0028985082 0.039299216 0.008492503 -0.0032863263 0.060182124 0.03045724 -0.0050823377 -0.00888724
-0.014061332 0.0008687696 0.010765933 -0.0075328457 0.0 0.006743006 0.016839812 0.0007294845
0.017728833 0.0 -0.00917119 0.0 0.026141716 -0.006111679 0.0 0.09454495
-0.014476207 0.0018459444 0.0 0.0 0.023815172 -0.010403485 0.0 0.029181233
0.024742413 0.07389566 -0.006336883 0.0038430525 0.04855906 -0.006758962 -0.01924574 -0.0060256785
0.0097221285 0.017317131 0.0 0.018873846 0.058407214 0.0 -0.015290841 0.019445458
0.002081342 0.010121824 -0.007415868 0.014583722 0.0 -0.00054286706 0.01179262 -0.008737753
-0.010231485 -0.0061303517 -0.014907771 -0.0045733815 0.0 0.01755525 0.014034896 0.0
-0.011187583 -0.0045162304 0.0050995043 0.0 -0.0029270707 -0.0037326827 -0.016736675 0.014254824
0.0029922496 -0.017523082 0.0 -0.02893956 0.06104908 -0.00934868 -0.0026691996 -0.0050355033
0.008169243 0.0055509643 -0.05189812 0.025413685 -0.022932045 0.010994792 0.016262915 -0.0037259702
0.013643414 0.008537802 -0.012336377 0.0 0.0 0.018054858 0.07060492 0.03222959
0.0 0.0 0.008038411 -0.008342236 0.031202406 -0.03066515 0.0 -0.01556617
-0.019542504 0.017957529 0.07876126 0.034867577 0.0 0.0 0.0 -0.0028226266
0.0 0.0 0.017545857 0.0 -0.005040939 0.0012490762 0.0 -0.01012342
0.023771664 -0.00869028 -0.0056667444 -0.02198992 -0.03474837 0.056496833 0.0 0.0
0.0 -0.011289863 0.0 0.0 0.0 0.00017104394 0.021834075 -0.032513604
0.0 0.0 0.015826795 0.0 0.0 0.017517298 0.025544519 -0.009671815
0.038061954 0.0 0.074314594 0.019245412 -0.014678052 0.0 -0.009969145 0.009676062

sequential_1/dense_5/BiasAdd/ReadVariableOp/resource f4 [64]
00000000: 5cc2 113d 0000 0000 1729 9c3d c0cb 013a
00000010: 0000 0000 adbd 883c 8e23 033d 574b e43c
00000020: ff2e a33c 29cf c2bb 58eb 1a3d 4535 ecbb
00000030: 94df 11bc 0000 0000 bc01 70ba 4a70 0bbc
00000040: 4b7b e1bb 0000 0000 4b67 18bc b475 f2bb
00000050: 0000 0000 9d44 e73c 0000 0000 a841 80bb
00000060: 9ffe aabb 8aaa 8f3d 0000 0000 96e7 083c
00000070: 4a99 353c fc60 603c cc16 833c a99b 213d
00000080: 5a91 02bc cdaf 273d a055 1ebc 6f5b 0a3d
00000090: a191 86bc 1a78 2abc 24fa a03c 48db dc3c
000000a0: 645c 64bb 63b4 48bd 3da7 07bc d468 e5bb
000000b0: d690 0a3b 6864 683d d6e7 023d 8b39 0ebc
000000c0: 0000 0000 0000 0000 7cbb ff3c a69e a83a
000000d0: 1c0d e8bb bc83 33bc 0000 0000 ffa1 8439
000000e0: 0000 0000 fc60 7bbb 3163 c43c 2b1b 803c
000000f0: 7b39 6f3b 0000 0000 5648 eebb 9851 b13c
0.035585746 0.0 0.07625025 0.00049513206 0.0 0.016692007 0.03201633 0.027867956
0.01991987 -0.0059451056 0.037822098 -0.0072084987 -0.008903403 0.0 -0.0009155532 -0.0085106585
-0.0068811527 0.0 -0.009301971 -0.007399285 0.0 0.02823096 0.0 -0.003914077
-0.0052183415 0.070149496 0.0 0.008355996 0.01108391 0.013694998 0.016002081 0.03945509
-0.007969225 0.04093914 -0.009663969 0.033778604 -0.016426863 -0.010404611 0.019650526 0.02696003
-0.0034845108 -0.049000155 -0.008279619 -0.007001022 0.0021143458 0.05673638 0.031959377 -0.0086807115
0.0 0.0 0.03121733 0.0012864664 -0.007081641 -0.010956701 0.0 0.00025297698
0.0 -0.0038357368 0.02397308 0.015637955 0.0036502767 0.0 -0.0072718067 0.021645352

sequential_1/dense_6/BiasAdd/ReadVariableOp/resource f4 [256]
00000000: 17d9 7bbc 0a91 943c 40d4 8abc 9674 373c
00000010: eddd 26bc 8f3c ae3c 6a71 b23b 2901 873c
00000020: 8a35 14bc e2e7 cd3c 2bed e3bb e96f 10bc
00000030: 3ec3 d23c 8d05 003d a12c 50bc 57e9 303d
00000040: b07e 32ba 0000 0000 576b c5bc 0000 0000
00000050: c14d aabc ae15 2e3d a7b2 3a3d 0000 0000
00000060: 0af1 bdbb f270 4ebc 0000 0000 6aaa c03c
00000070: 8ee5 203b b8a4 553c 2c33 c03c 3dae 16bc
00000080: 2c0a 013d 89b7 ad3b 2c8a 07bc 93e8 b8bc
00000090: f773 89bb 1a13 e9bb 892d a03c 9c9d e8bc
000000a0: 9d76 71bc 0f05 273d ca33 12bc 6c7e b7bb
000000b0: 3c81 083d 1606 65bc a2a2 d3bb 4e38 763c
000000c0: b3be 1abc 4eba 6f3b 20fe cb3c a47a 673c
000000d0: b8ca c2bc cb1a 14bb 280b 9d3c e9fd 19ba
000000e0: 0821 a63d 7993 403d bdf6 b9bb 3d19 bd3c
000000f0: 8538 c03c 0000 0000 465e a8bb 0000 0000
00000100: 5f55 c73d b2b8 e63b 27a6 d13c c215 c13c
00000110: 4e5b 613c 146c 983d 1c50 05bc 0000 0000
00000120: b5df 55bc 6667 ecbb 473d d1bb 0108 2f3c
00000130: 5f06 f83a 20b2 823c e6e3 c53c b21f cd3c
00000140: 9dc9 2c3d d544 12bd 3846 bb3c 1d40 0cbc
00000150: 75dd 3d3c 3f68 06bc 5754 56bc 09f1 2ebc
00000160: c290 d83c 19cd fa3c 0000 0000 029e 0e3b
00000170: a1f7 073c 6263 4b3d c110 d03c c1b5 883c
00000180: 2187 813d 92ea 813c bf7b cfbb 6b24 02bc
00000190: 0952 d1bb 0d37 ad3c 71c2 c4bb 465a 51bc
000001a0: 1bef 573c 3e47 48bd 7918 53bc ee72 aebc
000001b0: 4b93 27bc 6748 2cbb d71d 433d c011 09bc
000001c0: 60b1 05bc 0000 0000 ed4c d83c 8f9b b43b
000001d0: 5fd7 3f3d f068 e83a 6bc9 08bc 63ea 053d
000001e0: 39f2 02bc 0000 0000 330f 5cbc cb94 59bc
000001f0: 37ff 5039 6e82 8cbc e48e b73c 44d9 a23c
00000200: 0f18 003d 0000 0000 0000 0000 022c 803c
00000210: 0000 0000 620e 513b 60f4 0abc dd44 d83b
00000220: f4c9 993c de7d c8bb e84a 083c 7757 dfbb
00000230: 0000 0000 2ca6 03bc 0000 0000 5f25 bd3c
00000240: be3c 9e3c 0000 0000 b426 813d f53f ec3c
00000250: ef7b 85bc 3bb9 853b bb95 b13c d2cb ec3b
00000260: 8b95 afbb f285 92bc 0773 20bc 272a 213c
00000270: bdd2 04bc abe0 ccbb 8bd1 923d 669d f8bb
00000280: b348 353d 7596 dcbb 7a64 8fbc 2242 9b3c
00000290: ba10 603d 0000 0000 b7d6 50bc 0a6f cf3c
000002a0: 1b3f 05bb 2a7b 55bc 0000 0000 2220 d83c
000002b0: 520d 96bc 0000 0000 7eba d0bb 8bd0 da3c
000002c0: d5f3 993c 40cb b93a 8322 923c 5791 83bc
000002d0: 0000 0000 2082 1b3c 2276 26bc d9b5 f53b
000002e0: 5b56 9c3c a82a ca3c 1821 10bc c4ff 9a3c
000002f0: 4ad4 143b 7a60 28bc b933 a7bb 9be9 0a3d
00000300: 2637 f93b a253 a6bc 9318 1b3d 8005 0dbc
00000310: 3715 de3c 1459 e13c 7445 973c ff41 b03d
00000320: a4be c23a 85de c53c a158 683b c641 e93c
00000330: 64a2 163c 0000 0000 a81e d13c c8ec 523d
00000340: 990b fdbb c59c 0bbc 6ffb 2e3c 92f0 9c3d
00000350: 096e e4bb 1de1 2a3d ebbe 383b a8ea a3bc
00000360: c841 0fbc 16d4 ac3c 3a14 753d 80d3 c4bb
00000370: 283d be3c 296c 8ebc 54a0 20bc 0bbc c4bb
00000380: 5e9d 0bbc c3ec 823b 4c22 d63c b387 8d3b
00000390: 0000 0000 4da5 51bc 01d1 30bc 975a a2bc
000003a0: 62e6 493a 276f 06bc a39a cabb a066 07bc
000003b0: fe67 d33b cb7e 773c 7130 743d 8470 deba
000003c0: 1322 18bb a1c8 923c 6536 853b 0acd 20bb
000003d0: 0000 0000 2e9f 133d 362c e83c f124 0fbc
000003e0: 0000 0000 eef5 95bc 43b7 a939 9d9d cebb
000003f0: bece 38bc 529e 2dbc 4c26 813d 7935 b3bb
-0.0153715825 0.018135566 -0.016946912 0.01119723 -0.010184747 0.021269111 0.005445649 0.016480045
-0.009045968 0.025134984 -0.006955763 -0.008815744 0.025727864 0.031255294 -0.012705953 0.04319128
-0.0006809039 0.0 -0.024099035 0.0 -0.02078903 0.042501144 0.045580532 0.0
-0.0057965564 -0.01260017 0.0 0.02351876 0.0024550888 0.01303976 0.0234619 -0.009196815
0.03150384 0.00530142 -0.008272689 -0.022571838 -0.0041947323 -0.007112873 0.019552963 -0.028395467
-0.014737752 0.04077631 -0.00892348 -0.0055997875 0.033326373 -0.013978502 -0.0064585963 0.0150280725
-0.00944488 0.0036579552 0.02490145 0.014128361 -0.023778304 -0.0022598978 0.019170359 -0.00058743224
0.08111769 0.04701564 -0.0056751654 0.023083324 0.02346445 0.0 -0.0051381914 0.0
0.0973308 0.0070410604 0.025591923 0.023569945 0.013754679 0.07442489 -0.008136775 0.0
-0.013053824 -0.0072144745 -0.0063854787 0.010683061 0.0018922797 0.015954077 0.024156522 0.025039528
0.04218446 -0.035710175 0.022860631 -0.008560208 0.011588444 -0.008203565 -0.013081632 -0.010677584
0.026436213 0.030615376 0.0 0.002176166 0.008298785 0.049655326 0.025398614 0.01668823
0.06324602 0.015858922 -0.0063318904 -0.007943253 -0.006387953 0.021144414 -0.0060046245 -0.0127778705
0.013179566 -0.048896067 -0.012884253 -0.021295037 -0.0102279885 -0.0026288272 0.04763588 -0.008366048
-0.008159965 0.0 0.026403869 0.005511708 0.046836253 0.0017731469 -0.008348803 0.03269423
-0.007992321 0.0 -0.013431358 -0.013280104 0.000199315 -0.017152037 0.022407003 0.019878991
0.031272944 0.0 0.0 0.015645985 0.0 0.0031899442 -0.008481115 0.006600006
0.018773057 -0.00611852 0.00831864 -0.0068158465 0.0 -0.008035224 0.0 0.023089109
0.019316074 0.0 0.0630621 0.02883909 -0.016294448 0.004080919 0.021677842 0.0072264457
-0.005358403 -0.017886136 -0.00979305 0.00983671 -0.008106885 -0.0062523684 0.071688734 -0.0075871227
0.044258785 -0.006731803 -0.017503966 0.018952433 0.05470345 0.0 -0.0127465045 0.025321502
-0.0020331803 -0.013029853 0.0 0.02638251 -0.018316898 0.0 -0.006369888 0.02671077
0.018793026 0.0014174953 0.017838722 -0.016060514 0.0 0.009491473 -0.010160001 0.0074984846
0.019084146 0.024678543 -0.008796953 0.018920787 0.0022709542 -0.010276908 -0.0051026014 0.03391419
0.007605451 -0.020303551 0.037865233 -0.008607268 0.027109725 0.027508296 0.018465735 0.08606338
0.0014857841 0.024153957 0.0035453218 0.028473746 0.00919399 0.0 0.025527313 0.051495343
-0.00772233 -0.0085212635 0.010680064 0.07663073 -0.006971125 0.04171859 0.0028189968 -0.020009354
-0.008743711 0.021097224 0.059833743 -0.006006658 0.023222521 -0.01738556 -0.00980385 -0.006003862
-0.008521406 0.0039955094 0.0261394 0.004319155 0.0 -0.012795758 -0.010792018 -0.019818587
0.0007701871 -0.008205212 -0.006182985 -0.008264214 0.006451606 0.015105913 0.05961651 -0.0016970788
-0.002321367 0.017917933 0.004065322 -0.0024536275 0.0 0.036040477 0.028341394 -0.008736835
0.0 -0.018305745 0.00032370733 -0.00630541 -0.01127976 -0.010596829 0.06306133 -0.005469021

sequential_1/dense_7/BiasAdd/ReadVariableOp/resource f4 [3]
00000000: d57c 673c 56c2 133d ca57 c13c
0.014128883 0.036074005 0.023601431

sequential_1/dense_4/MatMul f4 [256, 5]
00000000: 8b75 673c 158c 16be a1f5 1ebd e82c 0c3d
00000010: a87c 19be 8448 593d 7021 31be e9ca 033e
00000020: cba1 243d 314c 823c 8205 b1bd 21fa 14be
00000030: 991a c4bd e758 df3d d80a 36bd 7379 563d
00000040: d1d2 9ebd 4df6 0cbe 3d14 283d d9a8 fabd
00000050: 7847 07be be53 9b3c 0039 60bc d7d9 0d3e
00000060: 29fd c9bc a2dc 1cbd 45ea 20be 9711 bc3d
00000070: cd8d 223e dd72 403c 8e9f 603e e8ad 8c3c
00000080: 0e7d 87be 2ef0 59bd ce44 183e 9f3a 033e
00000090: 0e09 193e 0fd6 3d3a 6d00 543d fcd0 55be
000000a0: c8b9 4f3c 1657 1ebe 66db 293e 8031 31bd
000000b0: b0ad 2b3e 0474 ed3d fdc2 6fbe 8dec 383c
000000c0: f4d6 37bd 11df 8c3d f118 973d 5423 193e
000000d0: 14a6 053d 1fc5 28b8 0639 203e cb5f 17be
000000e0: 7d42 43bd 98ce debd 2ba9 cb3c 0362 ce3c
000000f0: 7b51 d63d 809f 33be 50ff 223e f95f 5abe
00000100: 10a8 83bc e3fe 42bd c408 c5bc 8d7a 1fbd
00000110: 6564 2a3e 89a4 953c 4748 8f3e 646f 333e
00000120: 0b26 cabd f297 57be bd85 4a3e 2c88 043e
00000130: 75fe febd a0cb d2bd a664 3f3d 3282 a53b
00000140: 0f07 2cbe 0194 04be 2d38 2abe b862 1e3e
00000150: 7338 213e a705 3abe a0d5 043e e711 6d3d
00000160: 69a9 123c d45d 793d 2345 e9bd f0a8 003e
00000170: e37e 17bd 292a d7bd 25e5 cfbd 97b1 92bd
00000180: 5809 f6bd 48b6 0ebe 3baf 5fbc c216 c5bd
00000190: 66ab eb3d 790b 8bbd 358c 3a3d 4308 1bbe
000001a0: f56d 653c 3b4a 08be cfff 3b3e a04e de3c
000001b0: 93e4 4fbd e4bf c73d adcf b8bd 5cf0 8b3d
000001c0: 4000 8fbd 52df b03d b91b e73d 9cd6 09bd
000001d0: 2d79 d5bd 1138 f93c a8c4 783d a523 013e
000001e0: 8e15 043e cafc 323d 558b d1bd 29ba cebd
000001f0: 103b c4bd 221c f1bc f438 b1bd 39bd 1f3e
00000200: 3055 eebc 41fc cd3c fa44 abbd 5621 e4bd
00000210: d50c c3bd 4494 ba3d 889a e13d 76c8 eabd
00000220: 5cea 8b3e 902b d4bc f30c 453e 7def 53bd
00000230: fc76 a33c ea20 0bbe 78d9 d23b ff16 b6bd
00000240: f81b 0b3e 7fe7 03be cd30 df3c 6987 59bd
00000250: 4625 b0bd fbf8 b8bc 637c d23d d9c6 023d
00000260: 1b28 77bd 9a9c c4bd 0ad2 ebbd 481c d63d
00000270: b32d 143e 44e3 d8bc 63da ddbd e7a6 1e3e
00000280: 9d5d b6bc eb13 abbd 095f 2ebd 28d6 9f3b
00000290: 0067 bdbd 5250 223d 6485 8dbd 3078 d7bc
000002a0: b18e ebbd 4637 d2bd 57cd 223e e657 50be
000002b0: 27b6 163e f30c 783e d623 b4bd 060d 05be
000002c0: 7225 e43d a049 debd e50b 01be c0fa 0a3d
000002d0: a6aa 8f3d 9ba8 e6bd 4bcd 3e3c 89ce dfbd
000002e0: ee0b 963c 91c3 28be 6102 393a c2b1 e83d
000002f0: 3545 143e 8154 483d 6796 a7be 5507 033e
00000300: 9aaa 4d3e 5544 25bd d499 ebbd f75a 24bd
00000310: d180 973c d682 eebd beab 0abe ea8c fabd
00000320: fd3f d53d 81fb 3e3d 109a e53d fb6e e23d
00000330: 34da 74bd ab60 eb3d 8bb8 04be 292d ddbd
00000340: 7cad 0cbd 1902 aa3c 73fa a43d 4685 5c3e
00000350: ff23 453d 8a4d 8dbe 29ce 5e3d d2bd 1bbe
00000360: af34 1c3e 7c00 e0bd eabb 06bd 1bdb c83c
00000370: 28bd 9abd 15be 09be 2174 653e fa74 12be
00000380: acc9 3b3d cdef 703d a663 dcbc e4ab 63bd
00000390: 75c9 df3d 11c3 e3bd 0d7b 2ebe e3c4 c1bd
000003a0: 065f 063d d382 c23d af9a f73d 14f0 b73e
000003b0: ac67 90bd e80c e43d 511b 69be c6a8 ccbd
000003c0: 9407 d23c 8457 4d3c 70ea 983d ee17 e13c
000003d0: 267e 8abe c606 853c db04 9abb 2c32 13be
000003e0: b599 39bd 2fea 673b e68f 743d f5c9 d03d
000003f0: f8a5 a8bc e5b4 d4bd d3a1 dc3d 5818 df3c
0.0141271455 -0.14701875 -0.03880847 0.034222513 -0.14988959 0.053047672 -0.17297912 0.12870373
0.04019336 0.015905472 -0.08643629 -0.14548542 -0.095753856 0.10905629 -0.044443935 0.052361917
-0.07755054 -0.13765831 0.041034926 -0.122392364 -0.13210857 0.01896083 -0.013685465 0.1385263
-0.024656849 -0.03829635 -0.15714367 0.091830425 0.15874405 0.011746136 0.21935865 0.017172769
-0.26462597 -0.05320757 0.14869997 0.12815331 0.1494486 0.0007241675 0.05175822 -0.20880502
0.012678571 -0.15462908 0.165876 -0.043260098 0.16765475 0.11594394 -0.23414226 0.011286867
-0.04488273 0.06878484 0.07377804 0.14954883 0.032629088 -4.0237905e-05 0.15646753 -0.14782636
-0.04767083 -0.108792484 0.024860939 0.02519322 0.1046476 -0.17541313 0.15917706 -0.21325673
-0.01607135 -0.04760636 -0.024052031 -0.038935233 0.1663986 0.018266933 0.2798483 0.17522961
-0.09870537 -0.21054056 0.1977758 0.1294257 -0.124508776 -0.10292745 0.046726845 0.005050921
-0.16799568 -0.12947084 -0.16622992 0.15467346 0.1574419 -0.18166219 0.12972116 0.0578784
0.008951523 0.060880497 -0.1139014 0.12564445 -0.036986243 -0.10506088 -0.10151128 -0.07162779
-0.12013501 -0.13936722 -0.013652618 -0.09623481 0.11507301 -0.067892976 0.045543868 -0.1513987
0.014003267 -0.13309567 0.18359302 0.0271371 -0.050755095 0.09753397 -0.09023986 0.06832954
-0.069824696 0.08636345 0.112845846 -0.033651933 -0.10423503 0.030422242 0.06073442 0.12611254
0.12898847 0.04369811 -0.102316536 -0.10094101 -0.09581578 -0.02943236 -0.08653441 0.15599526
-0.029093355 0.025144698 -0.083627656 -0.11139171 -0.09523932 0.09110311 0.110158026 -0.11464016
0.2732724 -0.025899678 0.19243221 -0.051742066 0.019954197 -0.13586774 0.0064346157 -0.08891105
0.13584888 -0.12881278 0.02724495 -0.053107653 -0.08600859 -0.02257966 0.10277631 0.031927917
-0.060340982 -0.09600182 -0.11514671 0.10454613 0.14470558 -0.026475556 -0.108326696 0.15493356
-0.022261435 -0.083534084 -0.0425711 0.0048778243 -0.09248161 0.03962738 -0.06910208 -0.026302427
-0.115018256 -0.10264449 0.15898643 -0.2034603 0.14717923 0.2422369 -0.08795898 -0.1299325
0.111399546 -0.108538866 -0.12602194 0.03393054 0.070149705 -0.11262628 0.011645625 -0.10928065
0.018316235 -0.16480853 0.00070575444 0.113620296 0.14479525 0.048908714 -0.32731935 0.12795766
0.2008461 -0.04034837 -0.1150395 -0.040125813 0.018494042 -0.11646049 -0.13542077 -0.122339085
0.104125954 0.04662657 0.11211026 0.11056324 -0.059778407 0.11493047 -0.12961023 -0.10799629
-0.034345135 0.020752953 0.08055582 0.21535215 0.04813003 -0.2759822 0.05439583 -0.1520913
0.15254472 -0.109375924 -0.032894053 0.02451854 -0.0755561 -0.13451417 0.22407581 -0.14302436
0.045846626 0.05882244 -0.026902985 -0.05558385 0.10927097 -0.1112119 -0.17039128 -0.09461381
0.032805465 0.09497609 0.120900504 0.35925353 -0.07051024 0.11135274 -0.22764327 -0.099931285
0.02563838 0.012533072 0.074665904 0.02747723 -0.2704937 0.016238581 -0.004700286 -0.14374608
-0.045312602 0.0035387387 0.059707545 0.1019477 -0.020586953 -0.103860654 0.10773053 0.027233288

sequential_1/dense_5/MatMul f4 [64, 256]
00000000: 1ffe 15bd 3f00 a43d 1761 05be 6d8c abbd
00000010: ab5d 0c3e b875 e63d 01ec 35bd 2b64 a33c
00000020: 5f05 c9bd 5a43 663e 2288 cabd 89fe 9fbd
00000030: e224 d63d 4e33 7a3d 77f5 8cbe 9c9d 3dbc
00000040: 748e 813d 9e85 873d f847 da3d ced7 413d
00000050: 9c08 0d3d 1998 ac3d 67df abbd ad6e 8abc
00000060: fd8f 053e 6e6b 8438 da15 893c 0ef5 5fbd
00000070: 7ac6 3a3d 6a93 523c fae6 693d 3353 113e
00000080: 8b59 bd3d feef f83d 80dc 533c cd51 31bd
00000090: b37d b0bd 8bbc d13d 47c2 78be 8622 f33d
000000a0: 8fb0 9e3b c9b2 02be 1fcd 87bd 5077 c53e
000000b0: deb3 a53d 4abd 593c c3ad 833d cc28 f5bd
000000c0: 3e00 033e aff2 803d 85d9 e33d 8f29 6c3e
000000d0: d94c 043e 3972 9c3d 3581 253d 2b88 94bd
000000e0: 3a68 e43c 86f3 b7bd f209 7f3e 14a4 bbbd
000000f0: 88ae 11bd d574 f1bd 57c3 103b 2157 eabd
00000100: 8d76 a2bc 2bd6 0a3e 7038 9cbd d7c8 04be
00000110: e6f0 5e3d fc37 95bd 75c9 203e 2e21 d2bd
00000120: c183 ed3d ae03 283e d602 623d 3f3d 963d
00000130: b89e 383b 6de7 1f39 d572 8cbd 61a6 e1bd
00000140: 8be2 8d3d f1bb ecbd f1b1 013e a29d c53c
00000150: 9468 d83d 2c16 3fbc 673a 90bd f12f a03b
00000160: 9583 8f3c f0b9 8d3d 4257 7bbd de77 573e
00000170: 43db a7bd 9b2d 013e 19df 833d 5ea7 fb3d
00000180: a3f1 0f3d 1e7e c6bd 28ee cbbd e4ae f93d
00000190: b5c6 943c bbd4 77bd 022f 893d 91a8 1a3d
000001a0: 1ffc a23d 2776 9d3d 7e72 b73d 2551 3c3d
000001b0: e988 5a3e 69fa a33d de41 c4bd 49b1 a4bd
000001c0: 86bf a5bd 0276 91bd 27dd 333d 53c7 dfbd
000001d0: 1cfc c8bd 7cec f6bd e8a0 7f3d 5408 d13d
000001e0: 41ae babd 2a93 7ebc 2120 723d 59e3 99bc
000001f0: f47e bebd 3f6a f53d 8d8a 363d 6b4d f23d
00000200: 9471 e2bd 0285 523d 1827 c93d 6523 ae3c
00000210: 311b dc3d e4b1 cdbc d57f 0a3e 7746 103e
00000220: cece 893d e0df 81bc 21a5 cdbd 90ce 3a3c
00000230: 392f 223d 8294 e6bd 8310 833d 4a4b bfbd
00000240: 2876 f53d 2b79 343c 020e d93d 4ae6 063e
00000250: 9352 973e 52fb d3bd d42f 63bd 5ee0 38bd
00000260: 7677 153d 0e1d c2bd 88ae 91bd af18 a33d
00000270: 650a b33d bd0d 093e dc2e f73c 82e0 26bd
00000280: 5636 8d3d ddd1 8dbd 148f bbbd 4a7b 713c
00000290: 65b1 0a3e 93de a23c a6a4 ac3d 1a4d 7a3c
000002a0: d342 f8bd 4d29 e1bd 7a3f 903d 5653 e1bc
000002b0: 086d 06be 9463 58bd e2e2 ef3d 1c91 e83d
000002c0: f2cd ad3d 1892 9c3d 01a9 053e 22cc 82bd
000002d0: 8713 333e 0a57 bdbc 4702 cbbd 6ebd 6c3c
000002e0: 7804 113e f495 b6bd ea12 febc f348 58be
000002f0: fdaf cbbe 14d1 f73d 0afd ed3c 45c1 f7bc
00000300: 257f bbbd 404e 0f3d e3ec 6bbc 6bb8 083e
00000310: 3d5a 38bc 29b2 913d 8b4f 5b3e 9e9d e13d
00000320: b115 eebd 9b61 ccbd ec41 0d3e 64b3 993d
00000330: f251 a8bd c594 48bd 2b9f 85bd f91c 1dbe
00000340: 6a1d c53c 0928 013d 788b 833e 65c4 70bc
00000350: 7d81 9e3d 51c6 05bd 126c f93c d8b0 1fbb
00000360: fb46 88bd cfe8 13bd 5621 6b3b 764b d6bd
00000370: a7c9 bcbd 2f39 233c b5ed 97bd 3deb 9abc
00000380: eaf2 843d 1b58 aabd f3be 97bd 3dec 643d
00000390: 5371 96bd 7dbe ee3d caeb ce3d 35a0 333d
000003a0: c16f bebd 6c79 a0bd 8436 5cbd c1a2 03be
000003b0: 30f8 77bd ad03 82bd 1759 b9bd 9320 043e
000003c0: a959 b93d 7e28 da3d 5605 293d f811 cbbd
000003d0: f18b a33d 8987 1cbd 443a 473d ccdf 753c
000003e0: 8137 17bd c2e7 f13c 4b6e 993d d1f6 913d
000003f0: edae bf3d 5799 a83d d18c b0bd e256 51bd
-0.036619302 0.080078594 -0.13025318 -0.083763935 0.13707606 0.11252922 -0.044414524 0.019945225
-0.098154776 0.2248663 -0.098892465 -0.078122206 0.104562536 0.061084084 -0.27531025 -0.011573222
0.06325999 0.06617282 0.10658258 0.047324948 0.03443204 0.08427448 -0.0839222 -0.016898477
0.13043208 6.314261e-05 0.016734052 -0.05467706 0.04559944 0.012852529 0.057105042 0.14191894
0.092455946 0.1215515 0.012930989 -0.043290902 -0.08617725 0.1024104 -0.24292861 0.11871819
0.004842825 -0.12763514 -0.066309206 0.3856759 0.080909476 0.013289759 0.06429627 -0.11970672
0.12793061 0.06296288 0.11125473 0.23062728 0.1291994 0.07638974 0.040406425 -0.072525345
0.02788173 -0.08981995 0.24906138 -0.09162155 -0.035566837 -0.11789862 0.0022089088 -0.114424
-0.01983192 0.13558261 -0.07627952 -0.1296724 0.054428957 -0.07286069 0.1570185 -0.10260235
0.11597396 0.16407654 0.055178486 0.073359005 0.0028170776 0.00015249634 -0.0685784 -0.110180624
0.06927975 -0.115592845 0.12665536 0.024123017 0.10566822 -0.011663001 -0.07042389 0.0048885276
0.017518798 0.069202304 -0.061362512 0.2104182 -0.08196118 0.12615053 0.06439037 0.12287782
0.035142552 -0.09692024 -0.09957534 0.12191561 0.018161157 -0.06050561 0.06698419 0.037758414
0.079582445 0.076885514 0.089573845 0.045975823 0.2134129 0.08006746 -0.09582876 -0.08041627
-0.08093171 -0.07102586 0.04391208 -0.1092669 -0.09813711 -0.120568246 0.06240931 0.102066666
-0.091152675 -0.015538016 0.05911267 -0.018785166 -0.09301558 0.119831555 0.044565726 0.118311726
-0.110568196 0.051396377 0.0982191 0.021257112 0.10747374 -0.025109239 0.13525327 0.1408938
0.06728898 -0.015853822 -0.100412615 0.011401787 0.039595816 -0.11258794 0.06399634 -0.09340532
0.11985427 0.011015217 0.10598375 0.13173786 0.29555187 -0.1035067 -0.055465534 -0.04513585
0.03649088 -0.09478198 -0.07113367 0.079636924 0.08742217 0.13384147 0.030173711 -0.04074145
0.068951294 -0.06924794 -0.09158149 0.014738867 0.13544233 0.019881522 0.08429842 0.0152771715
-0.12122121 -0.109942056 0.07043357 -0.027505558 -0.1312753 -0.05282934 0.11713196 0.113558024
0.084865466 0.07645053 0.13052751 -0.063865915 0.17487918 -0.023112793 -0.09912544 0.01444946
0.14161861 -0.0891532 -0.031014878 -0.21121578 -0.39782706 0.12100425 0.029051322 -0.030243525
-0.0915511 0.034986734 -0.01439974 0.133516 -0.011251983 0.071140595 0.21417062 0.11016391
-0.11625231 -0.09979554 0.13794678 0.07504919 -0.08218755 -0.048970003 -0.065244995 -0.15343083
0.024061877 0.03153232 0.25692344 -0.014695262 0.07739542 -0.032659832 0.03044704 -0.0024366882
-0.066541635 -0.036110695 0.0035878024 -0.10463612 -0.0921815 0.009962364 -0.07418386 -0.018910998
0.06491645 -0.08317586 -0.074094675 0.055889357 -0.07345834 0.116574265 0.10103567 0.043853957
-0.09298659 -0.078356594 -0.053762928 -0.12855054 -0.060539424 -0.06348357 -0.09050196 0.12903051
0.090503044 0.106522545 0.041264854 -0.09915537 0.07985676 -0.038215194 0.04863955 0.015006971
-0.036918167 0.029529456 0.0749174 0.071271546 0.09359536 0.08232372 -0.086206086 -0.05110825

sequential_1/dense_6/MatMul f4 [256, 64]
00000000: 7cf9 2cbc 17e6 dbbc bc65 bb3d 01dd 09bc
00000010: e254 af3c 103c af3d 8864 d23d 1524 fa3d
00000020: 825c 8bb9 1637 6fbc ab1b fd3d ee94 223d
00000030: 21bc 9d3d 3853 a73d 8d85 9239 fe03 353d
00000040: fd96 dabd bc83 26bd 48fb b4bd 32dc 8c3d
00000050: c838 a63d 2383 b83d 14a4 853d 5edc 803d
00000060: 878c ee3c a299 a13d 0622 c1bc e360 32bd
00000070: 195c 86bd fc76 0b3e aea9 3cbd a02f f5bd
00000080: 0c38 863d 99f3 6a3e bc9c 963b 7b6e 39bd
00000090: 4ed9 d0bd 8eaa 4bbc 0587 05be 8509 b53d
000000a0: 3298 8cbd 9d99 fabd e4f7 9fbd c64d c5bd
000000b0: 0f93 ec3d c553 8cbd 9d30 fa3a 6476 0fbe
000000c0: fec6 c83d 15e4 07be 6150 943e 048e 86bc
000000d0: 0873 e1bc da0c ac3c 9ec3 a7bd 9627 15be
000000e0: f918 56bd c5c2 243c 4de3 05be 90d6 023e
000000f0: 3240 e6bd d477 c2bd e993 a43d 865f 2c3e
00000100: 190a 0d3e 7759 803d 5292 4e3e 8577 7d3d
00000110: 9780 99bc d316 5fbd 49d9 dabc 2f78 393d
00000120: 7ce9 ac3d 7f1b b83c 4de5 f93d 4766 07be
00000130: 0fd1 ecbd 30de 4abd 6f3e 56bb b464 e73d
00000140: 9e24 d03d 3032 b6bd 32e0 103d 21e7 d33a
00000150: 3fb2 83ba 9401 1dbd e3b0 013d 54be 5c3e
00000160: 9f38 003e 6365 243e c796 e6bd 1883 30be
00000170: 5483 9cbe 5fba 493e c052 f93c fd27 493d
00000180: 9e7d 0c3e dffb 0fbc 9a2a e43d ca37 cbbe
00000190: 7a15 86bd 1aac 563d aee6 af3d 4dc2 eabd
000001a0: dc15 a8bb 9f64 15bd fdbc 5f3d 5f83 b93c
000001b0: 93b3 84be a38f dd3d 274e 8fbc 5c4c 6b3d
000001c0: 5d7d b03d 6362 ac3d 59b4 70bd 0798 a6bb
000001d0: 7c0d c4bd 6f8c 023d efc1 8e3c ce84 c1bd
000001e0: b311 b83d c689 b5bd 42bd 903d 8907 05be
000001f0: bcd9 113e 3d27 8b3d 18e5 eb3d b8be 10be
00000200: 26a5 ea3c aeac 25bd 52a2 973c 4820 c0bc
00000210: 84db a9bd 58f8 a53d 7244 233e 1473 833b
00000220: 7e3e d8bd c965 9e3d 3ec9 803b 495f 8cbd
00000230: d3f4 ac3d 3a6d cbbb 2f3d c33d c7be 4bbd
00000240: d89e 8a3d 4b5e e73d 5943 e13c 2fb6 4dbd
00000250: 3f5b d8bd 663c 12be 32c4 993c b11c 423e
00000260: 53df 01be cab8 07bd 2230 833c 02e5 eabd
00000270: 3ac9 db3d 17d7 1bbe a15a e53c d34d 48bc
00000280: 6a2e b3bd ff43 0bbe 7a54 233d 0dd5 8e3d
00000290: 7fbe 8ebd 4b49 833c 1894 bc3d 23a4 963d
000002a0: da0c e1bc 6132 8dbd a732 093e 6a10 5cbd
000002b0: a5bd b5bd 116b d33c 6b35 cb3d 983a 353d
000002c0: afce da3d 1fd2 69bd 2bb3 b5be 5c86 ccbd
000002d0: 8c6c 0abe 4f4b de3d 2483 3cbd b9ab b93d
000002e0: 1b3c 61bd ccfe 953c 6a9e ed3d f86d 8b3d
000002f0: bb18 a3bd c07f ddbd 5106 cebd c22e 1fbe
00000300: b2b3 ad3c 7c65 f43d b487 463e 17a7 2c3e
00000310: fee3 e13d 5e53 c03c 9a4e a1bd 8e11 e63d
00000320: 084e 52ba 520e e7bd de17 673d 642c e3bd
00000330: 1971 f43c 16da c5bd 99f6 5e3e 320a a13c
00000340: d308 173c 6804 623d db24 0d3e 9590 673d
00000350: 7ba1 a73d ebbb 273d efbd 303c a7f3 9bbc
00000360: d151 d53d 3d9c 263e 696d 0abe bfd8 0b3d
00000370: c6d1 72be f630 d63d 2815 cb3d 5c4f f5bd
00000380: 6f32 c1bd 6b36 933d 4973 4abc 7332 8ebe
00000390: 50b3 f33d fa46 36bd dccf 973d 8833 38be
000003a0: 4e31 e7bc abb9 b1bd 9bc8 6b3c 0e1e 9d3d
000003b0: d678 0ebe 2eec 34bb c41e d6bd 6a66 47bd
000003c0: 7b8e 303d eb92 8cbc b7f3 97be 59d4 25be
000003d0: dc57 6f3d 1d60 23bd f358 b3bc d955 ac3d
000003e0: 2eec 54bd aa5b 293d c1ca e9bd 898a 853d
000003f0: ab43 7dbd 4111 ecbd c2ec 8a3d 6300 04be
-0.010557529 -0.026843114 0.09150264 -0.008414508 0.02140278 0.08556378 0.10273081 0.12213913
-0.0002658107 -0.014600536 0.12358793 0.03969281 0.07701898 0.081701696 0.00027946793 0.04419326
-0.1067333 -0.040652975 -0.088369906 0.068779364 0.08116299 0.09009387 0.06525436 0.06292032
0.029119743 0.07890631 -0.023575794 -0.04354943 -0.06560535 0.13619608 -0.046060257 -0.119719744
0.06553659 0.22944488 0.004596321 -0.045271378 -0.101976976 -0.0124308 -0.13039787 0.08839706
-0.068649665 -0.12236331 -0.07810953 -0.09633975 0.11551487 -0.06851915 0.0019087974 -0.14010006
0.0980358 -0.132706 0.28967574 -0.01642514 -0.027520671 0.021002222 -0.08191608 -0.14565882
-0.05226991 0.010056202 -0.1307499 0.12777162 -0.11242713 -0.09495512 0.08036024 0.16833314
0.13773383 0.06267064 0.20173004 0.06188156 -0.018738074 -0.054465126 -0.026714938 0.04528063
0.08442971 0.022474049 0.12201939 -0.1322261 -0.11563312 -0.0495283 -0.0032691022 0.112985045
0.10163234 -0.08896291 0.03537006 0.0016166904 -0.0010047628 -0.038331583 0.031662833 0.2155698
0.12521599 0.16054301 -0.11259227 -0.17237508 -0.30568945 0.19700001 0.030434966 0.0491104
0.13719794 -0.008788078 0.11140938 -0.39691 -0.06547065 0.052410223 0.085889205 -0.11462841
-0.005129559 -0.036472913 0.054623593 0.02264565 -0.25918254 0.10818412 -0.01749332 0.05744587
0.08617661 0.08417203 -0.058765743 -0.005084041 -0.095728844 0.03187221 0.01742646 -0.094491586
0.08987751 -0.08864169 0.07067348 -0.12991156 0.14243215 0.067945935 0.115183055 -0.14135253
0.028643202 -0.040447883 0.018510018 -0.023452893 -0.082938224 0.081040084 0.15944079 0.004011521
-0.105587944 0.07734258 0.00393024 -0.06854112 0.08445134 -0.006208089 0.09533154 -0.049742486
0.06768578 0.11297282 0.027497934 -0.050222572 -0.10564279 -0.14280853 0.018770311 0.18956257
-0.12682848 -0.033135213 0.016014162 -0.11469461 0.1073174 -0.15218769 0.027997317 -0.012225586
-0.08749087 -0.13600157 0.039875485 0.0697423 -0.06969928 0.01602616 0.09207934 0.07355525
-0.027471948 -0.06894375 0.13398229 -0.05372659 -0.088740624 0.02580789 0.09922298 0.044245332
0.10683953 -0.057085153 -0.35488257 -0.099865645 -0.1351797 0.10854208 -0.046023503 0.090659566
-0.05498896 0.018309973 0.11602481 0.06808084 -0.07963701 -0.10815382 -0.100597985 -0.1554518
0.02120385 0.11933419 0.19387704 0.16860615 0.11029814 0.023477253 -0.0787632 0.11233817
-0.0008022492 -0.11282028 0.056419246 -0.11092451 0.029839085 -0.09660737 0.21773757 0.019658182
0.009218412 0.055179983 0.1378359 0.05653437 0.08185097 0.040950697 0.010787471 -0.01903708
0.10415996 0.16270538 -0.13518299 0.034142252 -0.23712835 0.10458557 0.099161446 -0.11978027
-0.094334476 0.07188114 -0.012356588 -0.27772865 0.118994355 -0.044501282 0.07412693 -0.17988408
-0.028221752 -0.086779915 0.01439109 0.07671748 -0.13913283 -0.0027606594 -0.10455087 -0.048681654
0.04310463 -0.0171599 -0.29678127 -0.16194285 0.0584334 -0.039886583 -0.021893 0.08414812
-0.05198305 0.041347183 -0.11415625 0.06520564 -0.06183211 -0.115267284 0.06783439 -0.12890773

sequential_1/dense_7/MatMul f4 [3, 256]
00000000: 22e0 f0bd a605 4dbe 53f6 b63d d890 993d
00000010: 29ef 6b3f a6ff ff3d 7500 863b 20c7 59bd
00000020: 896e bcbd 1131 6dbd 1707 6d3d bbe1 6b3b
00000030: e550 e3bd 3944 66be 466c f6bd ead9 333c
00000040: 3e41 883e b0be 19bc 4e61 0f3d f488 a0bd
00000050: 2fe6 643d 1a9a 8c3d 2501 8c3d 70de bcbd
00000060: 793e bd3e c8f7 06be f264 eebd 4796 ffbd
00000070: 8145 21be 5a74 d63e 745c 2e3d cb51 0cbe
00000080: 23cb 1b3d 323a 333d 515a 0bbe dba4 e8bc
00000090: 72d7 e73d 7a57 20be d25d 0b3e bd3a b83d
000000a0: 9581 6c3c c162 f6bd 184a 02be 1668 513e
000000b0: 1ff9 0abe 7d0d 7ebd 22fc 96bd 4db7 003e
000000c0: f94d c4bd 575c 86bd 19c5 c33d cfa9 4dbe
000000d0: aa03 6ebd 466e 27be 5bc5 803d 3ff6 0bbe
000000e0: 19e0 ad3e 2c8e d8bc d878 12be 4e84 e93d
000000f0: 0bf8 113d e041 93bb da58 7c3e 1a86 163e
00000100: c3e5 833e 9d7b 16be 9374 923c 4f88 a13d
00000110: 904e bc3d 2ad9 11be 7dda 9f3d dd8d a3bd
00000120: 1f87 113d 9666 143e dc3d 1f3e baed a73b
00000130: 7fd3 5a3c 226d 44bc 135c 1b3d a4ee 663c
00000140: 0e7b cd3d 88b9 b3bd 33f4 5a3d 0192 8c3c
00000150: 6752 933d a3e4 d1bd 634c 9fbb 1b9e 08be
00000160: fdca 85bd 28d7 06be da6a b0bd 0eee e8bd
00000170: d87d 193e 5633 c63d a02f 7cbd 43f8 ef3d
00000180: 2b41 4cbe 588f 713e b96b 6a3d 5ccc d9bd
00000190: 64f3 08be cf5b fbbd 4c9b 32bd 2ff8 cc3d
000001a0: 78d9 333e a2bb 163f f248 abbd 90b9 abbd
000001b0: 9626 73bd 53e4 ed3d 9faf 943e 6be0 d53c
000001c0: 8155 593e 6837 353d 1cd7 8a3c 7b92 b8bc
000001d0: 3bb6 6a3e b638 b2bc 4185 fa3c 1bba 313e
000001e0: 3f4b d03d 7f33 00be a746 51be b386 a8bd
000001f0: 1762 51be 1bb6 e1bd 8f3c ca3d 4a36 0d3e
00000200: 06d0 bf3d a8ea f1bd 0d94 a9bd 504f 98bb
00000210: 342a d9bd 1a36 7d3c 051a b4bd 31bf 163d
00000220: dad6 f33d 95f6 b5bd 35a1 1cbd 7816 8d3b
00000230: 7454 d33d 9f89 14be c48f 183e 843c aa3d
00000240: 30cf 9c3d e2fa bf3d 45c3 0ebe 2237 a23e
00000250: 3220 5d3b fce6 793e d52b 8c3d 9774 fe3d
00000260: 1751 e0bd a017 05be bb2e 07be 27d6 0e3e
00000270: 65b4 bc3d 3125 f9bd 57ca 003d 7cad 133e
00000280: 673c 36bd 11a2 abbd 639f 69bc a621 eb3d
00000290: 6237 14be f4f8 0d3e 92ea b83e be0d e4bd
000002a0: 47e3 c93d 146a 9e3e 183b acbc 2488 023c
000002b0: 4f71 abbd 9ac4 65bd 3285 7d3d 2a88 783e
000002c0: 2d4b 133e c57f 683e ae44 173e 0f7b 07be
000002d0: 80e7 c23d 2e9a 9f3d f846 f7bd 13c7 d9ba
000002e0: caea ad3d db24 0dbe 67c3 91bc cf46 043e
000002f0: 5f45 ebbd f5f7 f0bd 4760 04be a7c8 773e
00000300: 8a79 913e cf7e c53b e652 053e 300e 9f3c
00000310: 8ceb 61bd 9886 ac3d ecaa 1b3e 00a4 053e
00000320: 848c b03d 16d0 4abd 9088 d03f 0512 5ebd
00000330: def1 0b3d 92cd 113e fa66 873d 4649 6d3e
00000340: 5932 9cbe 23e2 003d 34d6 9bbc 0673 113f
00000350: c69b f73c f405 7f3d 1e37 1d3e 606c 853d
00000360: acad b3bd 892e 633d 9b20 5abc 883b 0bbe
00000370: 5430 be3d 6452 16bd 0629 20be 1595 193d
00000380: e466 92bd f6ac 773e ddd2 96bc 26ea 04be
00000390: 0c21 0cbd aaa1 f5bd 528e 0f3e 158f 1bbd
000003a0: bdf9 bb3d f534 87bc eb7b 40bd 2b0b e23d
000003b0: b216 a8bd cf3b 95bd e1e0 0f40 fc6d 0dbe
000003c0: b122 cfbc 605e 5c3d 1688 ce3d 9407 4d3e
000003d0: 3c09 923d 7f2a 203d a818 05bc b6ac 1b3e
000003e0: b0f8 2abc c5d2 5b39 a773 01be 4dd0 f1bd
000003f0: eac2 54be 26be 013f 41f9 a43d 30bf 95bd
-0.117615 -0.20021686 0.08933701 0.0749833 0.92161804 0.12499933 0.00408941 -0.053168416
-0.092007704 -0.05790812 0.05786809 0.00359927 -0.11099414 -0.22486962 -0.1203237 0.010977248
0.26612276 -0.009383842 0.035004906 -0.07838622 0.055883583 0.0686533 0.06836156 -0.09222114
0.36961725 -0.13180459 -0.116403475 -0.12479835 -0.1574917 0.41885644 0.04256864 -0.13703077
0.038035523 0.04375667 -0.13608672 -0.028398922 0.1132039 -0.1565837 0.13610008 0.089955784
0.014435192 -0.120305546 -0.12723577 0.20449862 -0.13571595 -0.062024582 -0.07372309 0.12569924
-0.095851846 -0.06560581 0.09559078 -0.20084308 -0.058108963 -0.1635066 0.062876426 -0.13668154
0.33960035 -0.02643498 -0.1430391 0.11402188 0.035636943 -0.004493937 0.24643269 0.14699593
0.25761232 -0.14695592 0.017877853 0.07887327 0.09194672 -0.14242998 0.07805345 -0.07986043
0.035529252 0.14492258 0.15550941 0.0051247748 0.013356089 -0.01198891 0.037929606 0.014094982
0.100332364 -0.08775622 0.053455543 0.017159464 0.071934514 -0.10248687 -0.004861401 -0.13341562
-0.065328576 -0.13168013 -0.0861413 -0.1137353 0.14989412 0.0967776 -0.061568856 0.11717274
-0.19946735 0.23589838 0.05723164 -0.106346816 -0.13374096 -0.122733705 -0.043605134 0.10008275
0.17563426 0.58880055 -0.083635226 -0.083850026 -0.05936297 0.11615815 0.29040238 0.026107987
0.21224023 0.044242293 0.016948275 -0.022530785 0.22921078 -0.021755558 0.030581119 0.1735615
0.10170602 -0.12519644 -0.20437108 -0.08228817 -0.20447575 -0.11021062 0.09874832 0.13790241
0.09365849 -0.11812335 -0.082801916 -0.0046481267 -0.10603753 0.015454793 -0.08794025 0.036803428
0.11906214 -0.088849224 -0.038239677 0.004305657 0.103188425 -0.14505623 0.14898592 0.08312324
0.076567054 0.09374024 -0.13941677 0.31682688 0.0033741114 0.2440452 0.06844298 0.124245815
-0.10952967 -0.12997293 -0.1320142 0.1394888 0.09214095 -0.12165297 0.031442966 0.14421648
-0.044491198 -0.08380521 -0.014259192 0.11481027 -0.14474252 0.138645 0.36116463 -0.111354336
0.09857803 0.30940306 -0.021024272 0.007967029 -0.08371221 -0.056095697 0.061894603 0.24270692
0.14384146 0.2270499 0.14772293 -0.13230537 0.09516811 0.07793079 -0.12074083 -0.0016615115
0.08492048 -0.1378359 -0.01779337 0.12917636 -0.11487841 -0.11766044 -0.12927352 0.24197637
0.2841304 0.0060270797 0.13019904 0.019415945 -0.055156276 0.08424109 0.1520192 0.13050842
0.08620551 -0.049514852 1.6291676 -0.054216404 0.03416621 0.14238575 0.06611438 0.23172483
-0.30507162 0.03146566 -0.019023038 0.56816137 0.030225646 0.062261537 0.15353057 0.065148115
-0.0877336 0.0554643 -0.013313438 -0.13596928 0.092865616 -0.036699668 -0.15640649 0.03749569
-0.07148531 0.24187073 -0.018411094 -0.12979946 -0.034211203 -0.119937256 0.14019135 -0.03797825
0.09178493 -0.016504744 -0.046993177 0.11037286 -0.08207454 -0.07286798 2.2481005 -0.13811487
-0.025285097 0.05380094 0.1008455 0.20022422 0.071306676 0.039103027 -0.008123554 0.15202603
-0.010435268 0.00020963985 -0.12641774 -0.11807308 -0.20777479 0.5068077 0.08055354 -0.07311857
