models/fcModel_202105241323.tflite (tflite, 143508 bytes, 8 tensors)

sequential_2/dense_10/BiasAdd/ReadVariableOp/resource f4 [256]
0	0x3c1b52a8	0.009480156
1	0xbc585de5	-0.01320598
2	0x3d22cf5d	0.03974854
3	0x3d1b134f	0.03786021
4	0xbca1fff7	-0.019775374
5	0x3ce88c96	0.02838735
6	0xbc402095	-0.011726518
7	0x00000000	0.0
8	0xbb8ad54b	-0.0042368523
9	0xbc6b966b	-0.014379124
10	0x00000000	0.0
11	0x3c05165b	0.008123006
12	0x3bc86ea9	0.0061167073
13	0x3d025785	0.031821746
14	0x3c999e51	0.018752249
15	0x3d326ad2	0.043558903
16	0x3d068ab8	0.032847136
17	0xbd005464	-0.03133048
18	0xbce4b3ea	-0.027917821
19	0x3c76b45b	0.0150576485
20	0x3d12a8a6	0.035805367
21	0xbc160dbc	-0.009158548
22	0xbbaa9a2c	-0.005206367
23	0x3d0b76bd	0.034048785
24	0x3d19268f	0.037390288
25	0x3d07bb8c	0.033137843
26	0x00000000	0.0
27	0xbd16cb46	-0.03681495
28	0x3cc0e912	0.023548637
29	0xbbc175cd	-0.0059039355
30	0xbc920e5a	-0.017829109
31	0xbd32d771	-0.043662492
32	0xbc343bde	-0.011000602
33	0x3d339878	0.043846577
34	0xbc22c0c7	-0.009933657
35	0x3cdc9d88	0.026930586
36	0x00000000	0.0
37	0xbb73ee60	-0.003722094
38	0xbc90b59f	-0.017664729
39	0x00000000	0.0
40	0xbce3eb71	-0.027822228
41	0x3c99ddfb	0.018782606
42	0xbbb21e1e	-0.005435719
43	0x00000000	0.0
44	0xbc9387cd	-0.01800909
45	0x00000000	0.0
46	0xbcffd212	-0.031228099
47	0xbc45dd7a	-0.01207673
48	0x3d11ba1a	0.03557787
49	0x3c96bd32	0.018400762
50	0x3de92afe	0.11385153
51	0xbc12c7e1	-0.008958788
52	0xbbd0a01b	-0.0063667423
53	0xbc6c4289	-0.01442016
54	0x00000000	0.0
55	0xbd5bc94a	-0.05365876
56	0xbcc8a671	-0.024493428
57	0xbc837fcd	-0.016052151
58	0xbcdb5359	-0.026773142
59	0xbc956585	-0.018236885
60	0x3d443ea5	0.047911305
61	0x3c3b51eb	0.011433105
62	0x3d0b86be	0.034064047
63	0x3d0ac449	0.0338786
64	0x3d043b10	0.03228289
65	0xbd3a7a60	-0.045526862
66	0xbc8617e9	-0.016368823
67	0xbd63d432	-0.055622287
68	0xbc9b0dc0	-0.018927455
69	0x3d0f0a35	0.034921844
70	0x3cb18ff2	0.021675084
71	0x3c0b33a1	0.008496196
72	0x3ab065f8	0.0013458123
73	0x3d256b5e	0.040385596
74	0x00000000	0.0
75	0x00000000	0.0
76	0xbbe956a9	-0.0071209264
77	0x3d4fa066	0.050690077
78	0x3d038381	0.032107834
79	0x3cd40da8	0.025885418
80	0x3d010324	0.031497136
81	0x3d30fd04	0.043210045
82	0x3d258d95	0.040418226
83	0xbc17454e	-0.009232832
84	0x3c4b37ef	0.012403472
85	0x00000000	0.0
86	0x3cc706df	0.024295269
87	0xbc4b4567	-0.0124066835
88	0x00000000	0.0
89	0xbcba57c7	-0.022746934
90	0x3d12cad5	0.035837967
91	0xbc20c9ec	-0.009813767
92	0x3c89a1f2	0.016800854
93	0xbceac2dd	-0.028657371
94	0x3c37e447	0.011223859
95	0x3d012c2d	0.03153627
96	0xbb22f392	-0.0024864418
97	0x00000000	0.0
98	0x3cf5f6df	0.030024944
99	0xbd4c0674	-0.04981084
100	0x3d081209	0.033220325
101	0x3d12e81e	0.035865895
102	0x3c8f2941	0.017475726
103	0x3c8ef3b6	0.017450195
104	0x3d093f9f	0.03350794
105	0x3cd2bae8	0.02572389
106	0xbcdd8805	-0.027042398
107	0xbc802906	-0.015644561
108	0x3cf4344f	0.029810099
109	0xba8fad0a	-0.0010961604
110	0x00000000	0.0
111	0xbd199b00	-0.037501335
112	0x00000000	0.0
113	0x3d7684f4	0.060185388
114	0x3cea511a	0.028603125
115	0xbc5d8b15	-0.013521929
116	0x3c9a5f6f	0.018844334
117	0xbc7c442e	-0.015397115
118	0x00000000	0.0
119	0xbcd92539	-0.026507007
120	0x3c813b45	0.015775332
121	0x3d0badd0	0.034101307
122	0x3cdd329b	0.02700167
123	0xbc85aeb1	-0.01631865
124	0x3caf4c21	0.021398606
125	0x3d12273d	0.03568195
126	0x3b98cc26	0.0046630083
127	0x3d0b9035	0.034073073
128	0xbce80258	-0.02832143
129	0x3c9b86ce	0.018985178
130	0x3cc3183f	0.023815272
131	0x3c463abb	0.012098963
132	0x3d2bbad1	0.04192621
133	0x00000000	0.0
134	0xbd00432e	-0.031314068
135	0x3d071e9f	0.032988187
136	0x00000000	0.0
137	0x3d8ca023	0.06866481
138	0x3d228c31	0.03968448
139	0x00000000	0.0
140	0xbc6b8f40	-0.014377415
141	0x3d15c7af	0.036567386
142	0x3d8c9b4d	0.06865559
143	0xbba289af	-0.004960261
144	0x00000000	0.0
145	0xbc57d7ac	-0.013173979
146	0x3d0924dc	0.033482417
147	0xbbf9ec7c	-0.007627068
148	0xbcb83a4d	-0.022488737
149	0x3cf65382	0.030069117
150	0x3c047241	0.008083881
151	0xbb34128f	-0.0027476882
152	0xbc05e04e	-0.008171154
153	0xbce5e43f	-0.028062938
154	0xbc193b27	-0.009352482
155	0xbc1a975a	-0.009435499
156	0x3d037714	0.032095984
157	0x3c6922df	0.014229505
158	0x3a897bf5	0.0010489213
159	0xbc51352e	-0.012769027
160	0xbbda8c2b	-0.0066695414
161	0xbc99cebe	-0.01877534
162	0x3d02de93	0.031950545
163	0xbc99e9b7	-0.018788202
164	0x3d076ce5	0.033062834
165	0x00000000	0.0
166	0xbd73464b	-0.05939321
167	0x3d0323f4	0.03201671
168	0x3d0e4ed6	0.034743153
169	0x3c885568	0.016642287
170	0x00000000	0.0
171	0x3bdc63db	0.006725771
172	0x3baba83c	0.005238561
173	0x00000000	0.0
174	0x3d38958d	0.045064498
175	0x3c5a4c2a	0.013323823
176	0x3d1dae10	0.038496077
177	0xbd249413	-0.040180277
178	0xbd40893d	-0.04700588
179	0xbcafafae	-0.021446075
180	0xbca9bf37	-0.020721061
181	0xbd1331e7	-0.035936262
182	0xbc83f34e	-0.016107228
183	0x3d2f0c17	0.04273614
184	0xbd28b230	-0.041185558
185	0x00000000	0.0
186	0x3d053bb5	0.032527644
187	0xbc4e53c5	-0.012593214
188	0x3c9eacdc	0.019369535
189	0x3d03ef97	0.032210913
190	0xbc3f1e4f	-0.011664941
191	0xbc4f225e	-0.012642471
192	0xba0c3474	-0.00053483923
193	0x3badd492	0.0053048814
194	0xbca5b623	-0.020228451
195	0xbc561389	-0.013066181
196	0xbc2dc6c2	-0.01060647
197	0x3cf601b8	0.030030116
198	0x3d07be95	0.033140738
199	0x3c1ff506	0.009763008
200	0xbb4edd09	-0.0031564853
201	0x00000000	0.0
202	0x3ce338e9	0.027737098
203	0x3d0818aa	0.033226646
204	0xbc5586a5	-0.01303259
205	0xbcb24446	-0.021761071
206	0xbb17f6e1	-0.0023187923
207	0x3d1319aa	0.035913147
208	0x00000000	0.0
209	0x00000000	0.0
210	0x3d00ee57	0.0314773
211	0x3c192c27	0.009348906
212	0xbc0a7e42	-0.008452954
213	0x39150aae	0.00014213726
214	0x3d688a58	0.05677256
215	0x3d278e62	0.04090727
216	0x00000000	0.0
217	0x3d2215f9	0.039571736
218	0x00000000	0.0
219	0xbcdb3d5a	-0.026762653
220	0xbc548e11	-0.012973324
221	0xbbd709c5	-0.006562444
222	0x3ccad947	0.024761809
223	0x00000000	0.0
224	0x3d17b130	0.037034214
225	0x3cb675fe	0.02227306
226	0x3b44a804	0.0030007372
227	0xbc0c3525	-0.0085575925
228	0x3d4f3739	0.050589774
229	0xbce37b63	-0.027768796
230	0xbca1a2e9	-0.019731002
231	0x3d136e0a	0.035993613
232	0xbca3bcf6	-0.019987565
233	0xbc5918ba	-0.013250524
234	0xbd1acabb	-0.037790995
235	0xbc8dc3f3	-0.01730535
236	0xbc510693	-0.012757915
237	0xbc2b5b34	-0.010458756
238	0x3c1e8566	0.009675359
239	0xbb8f200f	-0.0043678354
240	0x00000000	0.0
241	0xbbc4aaf2	-0.0060018236
242	0x3d1ef7e6	0.038810633
243	0x00000000	0.0
244	0x3b33be42	0.0027426635
245	0x00000000	0.0
246	0x3bc1e94b	0.0059177033
247	0x3cb593fe	0.022165295
248	0x3cc68525	0.02423341
249	0xbbd1de26	-0.006404656
250	0x00000000	0.0
251	0xbd119cb3	-0.03554983
252	0xba873f8a	-0.0010318619
253	0xbbf0478b	-0.0073327473
254	0xbcabf667	-0.020991517
255	0x3cfe471c	0.031039767

sequential_2/dense_11/BiasAdd/ReadVariableOp/resource f4 [3]
0	0x3cd4ce42	0.025977258
1	0x3d026874	0.031837896
2	0x3d2cd48d	0.04219489

sequential_2/dense_8/BiasAdd/ReadVariableOp/resource f4 [256]
0	0xbbbcaf3e	-0.005758195
1	0x00000000	0.0
2	0x00000000	0.0
3	0xbc923199	-0.017845916
4	0x3ca9f61f	0.020747242
5	0x3ca01369	0.019540505
6	0xbd3ee5ef	-0.046606
7	0x00000000	0.0
8	0xbc98bcf0	-0.01864478
9	0x3b443a4d	0.0029941977
10	0x00000000	0.0
11	0xbc1d9759	-0.009618604
12	0x3c41d5be	0.011830745
13	0x00000000	0.0
14	0xbc2f70b5	-0.010708024
15	0xbc62d2f2	-0.013844239
16	0xba0899d1	-0.0005210909
17	0x3c29c8b6	0.010362795
18	0x00000000	0.0
19	0x3b9e2714	0.004826436
20	0x3cd23d0e	0.025663879
21	0x00000000	0.0
22	0xbb98fb2e	-0.004668615
23	0xbd2a6230	-0.041597545
24	0x3d8373b7	0.06418555
25	0xbb2a7570	-0.002600994
26	0x3cfa3f20	0.030547678
27	0xbb93b3fc	-0.00450754
28	0x3dee5789	0.1163779
29	0x00000000	0.0
30	0x00000000	0.0
31	0x3c10f36e	0.008847101
32	0xbc7333a4	-0.014843855
33	0x00000000	0.0
34	0x3b5a9367	0.0033352019
35	0x3d12a8f9	0.035805676
36	0x00000000	0.0
37	0xbd2feb28	-0.04294887
38	0x3cd0d627	0.02549274
39	0x3c95a311	0.018266233
40	0x3d0a4bc0	0.033763647
41	0xbb7c5bc4	-0.0038506845
42	0x3cef7c36	0.029234033
43	0xbc7e3696	-0.015515944
44	0xbc434075	-0.011917223
45	0x3ccd7490	0.025079995
46	0xbd5927b0	-0.053016365
47	0x3d87ae71	0.06625069
48	0x00000000	0.0
49	0x00000000	0.0
50	0x3c3d7eaa	0.011565844
51	0x3bcd2317	0.0062602866
52	0xbdc0a2da	-0.094060615
53	0x3ca20e4a	0.019782204
54	0xbb819bdf	-0.003955349
55	0x00000000	0.0
56	0xbc26004d	-0.010131908
57	0xbc8e5c29	-0.01737793
58	0x00000000	0.0
59	0x00000000	0.0
60	0x3cf8246f	0.03029081
61	0x00000000	0.0
62	0xbca826ef	-0.020526377
63	0xbc72f37a	-0.014828557
64	0xbd32ed1b	-0.043683153
65	0xbbb7340e	-0.005590922
66	0x3cc57447	0.024103297
67	0x00000000	0.0
68	0x3bdc4973	0.006722623
69	0xbcd6b280	-0.026208162
70	0x3ce79941	0.02827132
71	0x3b34aef3	0.0027570098
72	0xbb335bfb	-0.0027368057
73	0xbcaaa182	-0.020828966
74	0x00000000	0.0
75	0xbd4c77bf	-0.049918886
76	0x00000000	0.0
77	0x3d2073a6	0.03917279
78	0x3c9859e0	0.018597543
79	0xbd088899	-0.033333395
80	0x3d0104bf	0.031498667
81	0xbd63da20	-0.055627942
82	0x00000000	0.0
83	0x3d351c8c	0.044216678
84	0xb9a4bdd4	-0.0003142195
85	0x3ce37d59	0.027769731
86	0x00000000	0.0
87	0x3c5ce011	0.013481156
88	0x3d11d064	0.035599127
89	0x3bacb30d	0.005270368
90	0x3d2f88c8	0.042855054
91	0x3ae6e319	0.0017615288
92	0x3cecf495	0.02892522
93	0xbbef9072	-0.0073109204
94	0x3cd1f6c1	0.025630357
95	0x3bb1f5d4	0.0054309163
96	0xbd07d09f	-0.03315794
97	0xbc3cc6e0	-0.011522025
98	0xba30ddee	-0.0006746937
99	0xbbd9ede4	-0.006650673
100	0x00000000	0.0
101	0x00000000	0.0
102	0x00000000	0.0
103	0x00000000	0.0
104	0x00000000	0.0
105	0xbb9e59b0	-0.004832469
106	0x00000000	0.0
107	0x00000000	0.0
108	0x00000000	0.0
109	0x00000000	0.0
110	0x00000000	0.0
111	0x3c78513c	0.0151560865
112	0xbc31412e	-0.010818763
113	0xbc12bee9	-0.008956649
114	0x3c835521	0.016031804
115	0x00000000	0.0
116	0x00000000	0.0
117	0xbc9ff72d	-0.019527042
118	0x3cc0624a	0.023484368
119	0xbbb9a4a4	-0.0056653786
120	0xbd959cfc	-0.07305333
121	0x00000000	0.0
122	0x00000000	0.0
123	0x00000000	0.0
124	0xbbb8c011	-0.0056381305
125	0xbb24b25f	-0.0025130732
126	0xbc418b17	-0.011812947
127	0x3d07f37d	0.033191193
128	0xbd1b8e53	-0.037977528
129	0x3cf86420	0.03032118
130	0x3bae3c34	0.0053172354
131	0x00000000	0.0
132	0x3c30630c	0.010765802
133	0x3d08c75b	0.033393245
134	0x3ca176c6	0.019709956
135	0x00000000	0.0
136	0x3c6de5d3	0.014520126
137	0x00000000	0.0
138	0xbd0487f9	-0.032356236
139	0x3b8bafe8	0.004262913
140	0x00000000	0.0
141	0x00000000	0.0
142	0x3c426579	0.011865013
143	0x3d367b94	0.044551447
144	0x3d13f841	0.036125425
145	0x3cf5eafb	0.030019274
146	0xb76a1fac	-1.3954861e-05
147	0x00000000	0.0
148	0xba78d263	-0.0009491799
149	0xbc8ed484	-0.01743532
150	0x3c190dd8	0.0093416795
151	0xbba92882	-0.0051622996
152	0x00000000	0.0
153	0x3ca34e55	0.019934813
154	0x3c8daa50	0.017293125
155	0x3ca7a00a	0.020462055
156	0x3bc29b87	0.0059389505
157	0xbba7bc8e	-0.005118913
158	0x00000000	0.0
159	0x00000000	0.0
160	0x00000000	0.0
161	0xbc46c6fb	-0.012132402
162	0xbd2fd3c3	-0.04292656
163	0x00000000	0.0
164	0x00000000	0.0
165	0x3d1a743a	0.0377085
166	0x00000000	0.0
167	0x00000000	0.0
168	0xbbee7da8	-0.007278163
169	0x00000000	0.0
170	0x00000000	0.0
171	0x00000000	0.0
172	0xbca3e7b3	-0.020007944
173	0x00000000	0.0
174	0x3d1e5c64	0.03866233
175	0x3ca7225f	0.020402132
176	0xbbb447ed	-0.0055017383
177	0xbd05efa5	-0.032699246
178	0x3cad231b	0.021134904
179	0x3c34fad3	0.011046129
180	0x3d139c87	0.036037948
181	0x3cfae480	0.030626535
182	0xbcb40fd9	-0.021980213
183	0x00000000	0.0
184	0xbca52d12	-0.020163093
185	0x3c9430e8	0.018089727
186	0xbba5751e	-0.005049362
187	0xbcb1b000	-0.021690369
188	0xba5d1ed5	-0.0008435075
189	0xbba2c4f9	-0.0049673286
190	0x3d97544b	0.073891245
191	0x3bb9289d	0.0056505934
192	0x00000000	0.0
193	0x3d0e19b8	0.034692496
194	0x3ce66f79	0.028129326
195	0x00000000	0.0
196	0x3c242a4b	0.010019849
197	0x3d9b65ba	0.07587762
198	0xbd07ac3a	-0.033123232
199	0xbbe6dff3	-0.00704574
200	0x3cae1f24	0.021255083
201	0x3c88a54f	0.016680388
202	0x00000000	0.0
203	0xbc970e77	-0.018439515
204	0x00000000	0.0
205	0x3baa4936	0.0051967157
206	0xbd35c77c	-0.044379696
207	0x00000000	0.0
208	0xbb5a880c	-0.003334525
209	0x3bf9180a	0.0076017426
210	0xbc480261	-0.012207598
211	0x00000000	0.0
212	0x3b9a70a7	0.0047131362
213	0x00000000	0.0
214	0x3c8fab6f	0.0175378
215	0xbd1613ba	-0.036639906
216	0xbc2c5cc8	-0.010520168
217	0x00000000	0.0
218	0x3cdc91fd	0.026925081
219	0x00000000	0.0
220	0x3c0596b6	0.008153608
221	0xbc979293	-0.01850251
222	0x3d84c988	0.064837515
223	0x3ca4190e	0.020031478
224	0x3b1835ad	0.0023225353
225	0x3c97fcdf	0.018553196
226	0x3c33d3c9	0.0109757865
227	0x3c45cd14	0.01207282
228	0x3cf3e04c	0.029770039
229	0xbcd307df	-0.02576059
230	0x3cd89e38	0.026442632
231	0xbc74f266	-0.01495037
232	0xba26c372	-0.0006361521
233	0x3b19cbb7	0.002346737
234	0x3bc604dd	0.00604306
235	0x3bcecaeb	0.006310811
236	0x00000000	0.0
237	0xbcd583a1	-0.026063742
238	0x00000000	0.0
239	0x3d175dd2	0.03695471
240	0x00000000	0.0
241	0x00000000	0.0
242	0x3d8d1950	0.068895936
243	0x3c3e0a11	0.01159908
244	0x3b4f0421	0.0031588154
245	0x00000000	0.0
246	0x00000000	0.0
247	0x3b3800bd	0.0028076612
248	0x00000000	0.0
249	0xbc95ea1c	-0.018300109
250	0x3b9fcff3	0.0048770844
251	0xbb84c0a0	-0.004051283
252	0xbca82cd2	-0.020529184
253	0x3cf10c70	0.029424876
254	0xbc899b17	-0.016797585
255	0x3d21da57	0.039514866

sequential_2/dense_9/BiasAdd/ReadVariableOp/resource f4 [64]
0	0xbc8ea89a	-0.01741438
1	0xbc329253	-0.010899144
2	0xbc028a0c	-0.007967483
3	0xbc285cf5	-0.010276069
4	0x3cefdac9	0.02927913
5	0x00000000	0.0
6	0xbc26cd91	-0.010180847
7	0x3caaeec6	0.02086581
8	0x3cf0a047	0.029373301
9	0x3d1191c9	0.035539422
10	0x3d00fe68	0.03149262
11	0x3d305770	0.043052137
12	0x00000000	0.0
13	0xbbfbdb02	-0.00768602
14	0x3d041445	0.032245893
15	0x3ccc8ea7	0.024970366
16	0x3cfdd5c1	0.030985715
17	0x3d11731d	0.03551017
18	0xbcb18590	-0.021670133
19	0x3d3c9756	0.046042763
20	0x00000000	0.0
21	0xbc3c7393	-0.011502164
22	0xbc37b816	-0.011213323
23	0x3d7f288f	0.06229454
24	0x00000000	0.0
25	0x3d03e97c	0.03220509
26	0x3d6a6821	0.05722821
27	0xbc5140dc	-0.012771811
28	0xbc1eec3f	-0.00969988
29	0x3d8f47b0	0.06996095
30	0xbcc3bc4c	-0.023893498
31	0x3c1c22c7	0.009529776
32	0x3cb0a0c2	0.02156103
33	0x00000000	0.0
34	0x3cac9906	0.021069061
35	0x00000000	0.0
36	0xbceea10d	-0.02912953
37	0xbb98fbd7	-0.0046686935
38	0x3d005263	0.03132857
39	0x3c9450b3	0.018104887
40	0xbc8019d8	-0.015637323
41	0x3d8e0f97	0.06936567
42	0xbc17d6e2	-0.009267541
43	0xbc18f873	-0.009336579
44	0x3ccf3f16	0.025298636
45	0x3d3fb455	0.046802837
46	0xbcdf9ae6	-0.027295541
47	0x00000000	0.0
48	0x00000000	0.0
49	0x3cf5a52d	0.029985989
50	0x3d8448b2	0.06459178
51	0xbcafda69	-0.02146645
52	0xbba04d99	-0.004892063
53	0xbc0554c3	-0.008137885
54	0x3d2633e4	0.04057683
55	0xbc3294a1	-0.010899694
56	0xbcc974a8	-0.024591759
57	0x3d00a665	0.031408686
58	0x3cd9dda0	0.026594937
59	0x00000000	0.0
60	0xbc10b86a	-0.00883303
61	0xbc8e7f66	-0.017394733
62	0xbc306930	-0.010767266
63	0x3db21f43	0.08697369

sequential_2/dense_10/MatMul f4 [256, 64]
0	0x3defdb06	0.11711697
1	0xbe0b7d71	-0.13622071
2	0x3d63d399	0.055621717
3	0xbde1db52	-0.1102816
4	0xbc890500	-0.016726017
5	0xbdd57701	-0.10423089
6	0xbd0493b6	-0.03236743
7	0xbcbdf371	-0.023187371
8	0x3d611d47	0.05495956
9	0x3c23f234	0.010006476
10	0x3e061405	0.13093574
11	0xbdda8962	-0.10670735
12	0xbdfbbce3	-0.12291887
13	0xbdaf2ab2	-0.08553065
14	0xbd0dfa86	-0.034662746
15	0x3d8e9023	0.06961086
16	0xbdb0e205	-0.0863686
17	0x3d9e742f	0.07737004
18	0x3daa547e	0.08316897
19	0x3e1dfe7d	0.15429111
20	0xbd38a2ce	-0.045077138
21	0x3d90b9be	0.070666775
22	0xbc8c82f1	-0.017152281
23	0x3d8c18a0	0.06840634
24	0xbbe146ad	-0.0068748803
25	0xbe1cf0ba	-0.15326205
26	0x3c9974c7	0.018732442
27	0xbdb00272	-0.085942164
28	0xbdf0927d	-0.117466904
29	0xbe2463b7	-0.16053663
30	0x3e37f1cb	0.1796333
31	0xbe2f223d	-0.17102905
32	0x3d0c244f	0.034214314
33	0x3d3e62ce	0.046480946
34	0x3d9d046f	0.07666861
35	0x3d0debb2	0.034648605
36	0x3d12c289	0.035830054
37	0x3e12c910	0.14334512
38	0x3d436579	0.047704194
39	0x3dd3f082	0.103486076
40	0x3dd24198	0.10266417
41	0xbdd2b20e	-0.102878675
42	0xbd908dd2	-0.070583
43	0xbcc1b648	-0.023646489
44	0xbd0b7eca	-0.034056462
45	0x3e1bdf77	0.15221964
46	0x3deda3d1	0.11603511
47	0xbd87d318	-0.0663206
48	0xbb4f651e	-0.0031645964
49	0xbd37528e	-0.044756465
50	0x3d3c7ee7	0.04601946
51	0xbd3cd221	-0.046098832
52	0x3e1cc81f	0.15310715
53	0x3dec65a7	0.11542826
54	0xbe13d816	-0.14437899
55	0x3d03faec	0.03222172
56	0xbd708ac7	-0.0587261
57	0xbdf63404	-0.1202164
58	0x3e1f5850	0.15561032
59	0xbde959f7	-0.113941126
60	0x3d159f24	0.03652872
61	0xbe0ba546	-0.13637266
62	0x3dd21248	0.10257393
63	0xbd7099b2	-0.058740325
64	0x3d230024	0.039795056
65	0xbd1ae4fe	-0.03781604
66	0xbddde8cd	-0.10835419
67	0x3d8c51c1	0.06851531
68	0xbd4d3449	-0.05009869
69	0xbdd02147	-0.10162597
70	0xbdff7f5c	-0.12475464
71	0xbd90648c	-0.07050428
72	0x3d2ff1ca	0.042955197
73	0x3dc8b141	0.097994335
74	0xbcec782c	-0.028865896
75	0x3d713311	0.05888659
76	0xbd8bddc7	-0.0682941
77	0xbdb64b02	-0.08901025
78	0x3deb0eef	0.11477458
79	0xbcc6b066	-0.024254035
80	0xbdf118d0	-0.11772311
81	0x3ca8c135	0.02059994
82	0xbdb1416b	-0.086550556
83	0x3cca455e	0.02469128
84	0x3dd48042	0.10376026
85	0x3ceda735	0.029010395
86	0xbde3a6d5	-0.11115805
87	0xbdeb2262	-0.114811674
88	0xbd4bd63c	-0.049764857
89	0xbdc62e05	-0.09676746
90	0xbdc151a0	-0.09439397
91	0x3d06b1ae	0.032884292
92	0xbc982ad4	-0.01857511
93	0xbe116af0	-0.1420095
94	0xbd9ce7a7	-0.07661372
95	0xbd8b3179	-0.067965455
96	0x3df59bf7	0.119926386
97	0x3dc71c26	0.09722166
98	0xbdb39eed	-0.08770547
99	0xbd389f50	-0.045073807
100	0x3cb5f599	0.022211837
101	0xbe04408c	-0.12915248
102	0xbd82eba0	-0.06392598
103	0xbdf8e143	-0.1215234
104	0x3d98add0	0.07455027
105	0x3d805a1c	0.06267187
106	0x3a8006ae	0.0009767616
107	0x3d6ea017	0.058258142
108	0xbd5b32d6	-0.053515278
109	0xbdbeea89	-0.09322078
110	0xbca707e4	-0.020389505
111	0xbd04a416	-0.032383047
112	0xbc95154e	-0.018198635
113	0x3dc96f15	0.0983564
114	0xbe30f24a	-0.17279926
115	0xbd1b526c	-0.0379204
116	0xbcfc2cf7	-0.03078316
117	0xbd6db647	-0.05803516
118	0xbe0c2cab	-0.13688914
119	0xbcbda650	-0.023150593
120	0x3dddebbc	0.108359784
121	0x3ce6bdcb	0.028166672
122	0x3d4ea251	0.050447766
123	0x3c06321e	0.00819066
124	0x3d41f619	0.047353838
125	0x3d7adf71	0.061248247
126	0xbce63902	-0.028103355
127	0x3db2383e	0.087021336
128	0x3dc7f336	0.09763186
129	0x3e0cb40c	0.13740557
130	0x3e0e2be3	0.13883929
131	0x3c89f34d	0.016839648
132	0x3e011758	0.12606561
133	0x3d4be6aa	0.049780525
134	0xbbcb26bf	-0.0061996873
135	0x3dbdb3ba	0.09262796
136	0xbc77d2db	-0.015125955
137	0x3e736682	0.23769572
138	0xbe8125de	-0.25224203
139	0x3e2eef4d	0.17083474
140	0xbd2b22c4	-0.041781202
141	0x3d767869	0.060173426
142	0x3cf90a97	0.030400557
143	0x3da8afca	0.08236654
144	0x3d5a36ae	0.053274803
145	0x3c9e0832	0.019291017
146	0x3da13989	0.07872302
147	0xbdb03f47	-0.08605819
148	0x3cc2369e	0.023707684
149	0xbdb670aa	-0.08908208
150	0x3d4d18a2	0.05007232
151	0xbe303e15	-0.17211182
152	0xbdcaddf3	-0.09905615
153	0xbd9413c8	-0.072303355
154	0xbd0f65a9	-0.03500906
155	0x3dc4d94d	0.09611759
156	0xbdcbd19f	-0.099520914
157	0x3e92ca30	0.28669882
158	0xbea2a388	-0.3176539
159	0xbd76b3dc	-0.06023012
160	0xbcf8198c	-0.03028562
161	0xbd527ada	-0.05138669
162	0x3da2dad4	0.079518944
163	0xbdf0e170	-0.11761749
164	0x3d5c0ee6	0.053725146
165	0x3c521091	0.012821333
166	0xbce76979	-0.028248535
167	0x3dc86832	0.09785499
168	0x3d1a9d89	0.037747893
169	0x3b07a3b0	0.002069693
170	0xbcaa61a1	-0.020798506
171	0xbdbdc7bd	-0.09266613
172	0xbd8159e4	-0.063159734
173	0xbe3480b1	-0.17627217
174	0xbccf5c0c	-0.025312446
175	0x3db81ee4	0.08990267
176	0xbd938505	-0.07203106
177	0xbd2523b5	-0.040317256
178	0xbdaacc30	-0.08339727
179	0x3e01e618	0.1268543
180	0x3de92c70	0.11385429
181	0x3d8dc594	0.06922451
182	0x3d7c334e	0.061572365
183	0xbd04d4c2	-0.032429464
184	0xbf56882f	-0.8380155
185	0x3ce41c53	0.027845537
186	0x3b2e8600	0.0026630163
187	0xbd05e364	-0.03268756
188	0x3ddc0b8a	0.107443884
189	0xbcd40cd6	-0.025885027
190	0x3d5ba770	0.053626478
191	0xbe7ddc32	-0.24791029
192	0xbdeb85b9	-0.11500115
193	0xbd759f9e	-0.059966676
194	0xbdb11a63	-0.08647611
195	0xbd73b1b9	-0.05949566
196	0x3de13c6d	0.109978534
197	0x3da2e8d6	0.07954566
198	0xbd1c7ed9	-0.03820691
199	0x3ddd615a	0.10809584
200	0x3d85e9ab	0.06538709
201	0x3e321b27	0.1739317
202	0xbdeec445	-0.11658529
203	0xbd55c16e	-0.052186422
204	0xbe06449a	-0.13112107
205	0xbd9359c2	-0.07194854
206	0x3ddb2a0b	0.107013784
207	0x3e170308	0.1474725
208	0xbda509b1	-0.08058489
209	0x3dcf6b5e	0.101279005
210	0xbdf5c7dd	-0.120010115
211	0x3d21df0e	0.039519362
212	0xbc50f906	-0.012754684
213	0x3d162d1a	0.036664106
214	0xbdd59edc	-0.10430691
215	0x3cd84c3b	0.026403537
216	0xbdd29f46	-0.10284285
217	0x3c232186	0.009956723
218	0x3d3dbe57	0.0463241
219	0x3da8d9de	0.0824468
220	0xbd542f40	-0.051802874
221	0x3dc13ebe	0.09435795
222	0xbdb1bf09	-0.08679015
223	0xbd9bcdb7	-0.07607596
224	0x3d584741	0.052802328
225	0xbdcabf6e	-0.098997936
226	0x381416b2	3.5307086e-05
227	0x3d21ff8e	0.039550357
228	0xbbc1a1ed	-0.0059091956
229	0xbd03382d	-0.032035995
230	0x3c2e639b	0.010643865
231	0xbdeed42b	-0.116615616
232	0xbdde235d	-0.10846589
233	0x3c1f8147	0.009735412
234	0x3d69c200	0.05706978
235	0xbd8cb84d	-0.0687109
236	0xbd54b810	-0.05193335
237	0xbbe0b166	-0.006857085
238	0xbd24a5f7	-0.04019734
239	0xbd5ec2bd	-0.054384936
240	0xbda2c2f5	-0.07947341
241	0xbd9888a7	-0.07447939
242	0x3e26dcb3	0.16295128
243	0xbd03abcb	-0.032146256
244	0x3d89855a	0.06714888
245	0xbdc64693	-0.0968143
246	0x3e38f797	0.18063198
247	0x3d7f196a	0.062280096
248	0xbc9eb3c6	-0.019372832
249	0x3d853baf	0.06505524
250	0x3dd870f0	0.10568416
251	0xbd700159	-0.058595035
252	0xbd1ef0b7	-0.038803782
253	0x3dc587cd	0.096450426
254	0xbd00d5c9	-0.03145388
255	0xbcb23653	-0.02175442

sequential_2/dense_11/MatMul f4 [3, 256]
0	0xbdee687a	-0.11641021
1	0xbe043588	-0.12911046
2	0xbe1fb292	-0.15595463
3	0xbdfe6600	-0.12421799
4	0x3d8e00ad	0.06933723
5	0x3d882839	0.06648297
6	0x3d3bcec4	0.045851484
7	0xbdfd9600	-0.12382126
8	0xbdf21cac	-0.11821875
9	0xbd782def	-0.06059068
10	0xbdd989d8	-0.10621995
11	0x3ca251fa	0.01981448
12	0xbdc9bf83	-0.09850981
13	0xbd9a2ec9	-0.07528455
14	0x3e634b36	0.2219666
15	0xbd292a32	-0.041300006
16	0x3dc191ac	0.09451613
17	0xbd55f94d	-0.052239705
18	0xbeace490	-0.3376813
19	0x3e2cbc40	0.16868687
20	0x3d659f51	0.05606014
21	0xbc82da86	-0.01597334
22	0x3f1d587e	0.61463153
23	0x3cd3daac	0.025861107
24	0x3d81c0a0	0.063355684
25	0x3e1569f1	0.14591195
26	0xbd4b84b0	-0.049687088
27	0xbe146c02	-0.14494327
28	0xbde21c4c	-0.110405535
29	0x3e404395	0.1877578
30	0xbdc1fe9c	-0.09472391
31	0x3ee86478	0.45389152
32	0x3cf7bc61	0.030241193
33	0xbd020470	-0.031742513
34	0x3e93fdc5	0.28904548
35	0x3dd734c8	0.10508114
36	0xbe13d2e1	-0.14435913
37	0x3d21f0aa	0.039536156
38	0xbe9cd557	-0.30631515
39	0x3ccfdfe0	0.025375307
40	0x3e42b4f7	0.19014345
41	0xbd572fb7	-0.05253574
42	0x3d59cbf4	0.05317302
43	0xbc0d6b30	-0.0086315125
44	0xbd8315f6	-0.06400673
45	0xbce9cafc	-0.028539173
46	0x3d0ed13f	0.03486752
47	0xbcf19539	-0.0294901
48	0x3dd057fa	0.1017303
49	0xbda0151b	-0.078165255
50	0x402c44fb	2.6917102
51	0xbdd6a748	-0.10481125
52	0x3db77d82	0.089594856
53	0xbd577c0e	-0.052608542
54	0x3dd8110c	0.105501264
55	0xbf2a94af	-0.66633123
56	0xbdf0e950	-0.11763251
57	0xbd4fc1ab	-0.050721806
58	0xbecca3a3	-0.39968595
59	0x3dbc2375	0.091864504
60	0xbe22688f	-0.15860198
61	0x3ea6d673	0.32585487
62	0x3e00b22e	0.1256797
63	0x3d37b5ab	0.044850986
64	0xbd1d490a	-0.038399734
65	0x3f6e56e4	0.93101335
66	0x3d9c6355	0.076361336
67	0xbe3a39b6	-0.18186077
68	0x3dce1a60	0.100636244
69	0x3d2c04a9	0.04199663
70	0xbd059484	-0.03261234
71	0x3df04166	0.11731224
72	0xbe02a095	-0.1275657
73	0x3e92aac9	0.28645924
74	0xbdbe193c	-0.09282157
75	0xbd9429e0	-0.072345495
76	0x3de8b3ce	0.1136242
77	0xbe6e64af	-0.23280595
78	0xbc7d1449	-0.015446731
79	0xbf235682	-0.63803875
80	0xbcac10b1	-0.021004053
81	0x3b5e9cee	0.003396805
82	0xbc8e7823	-0.01739127
83	0x3dfd4b02	0.12367822
84	0x3e15ba87	0.14621936
85	0x3deab068	0.11459428
86	0xbe08272b	-0.13296191
87	0x3e164328	0.14674056
88	0xbdb025a8	-0.08600932
89	0x3dbb9a68	0.0916031
90	0xbcc82678	-0.024432406
91	0xbdf87bca	-0.12132986
92	0x3f7e64a2	0.99372303
93	0xbc9b1c6e	-0.018934455
94	0x3da78950	0.08180487
95	0x3ddff882	0.10936071
96	0x3e22b4ea	0.15889326
97	0x3dee39ec	0.116321415
98	0x3dcb3b4f	0.099234216
99	0x3e8b198b	0.27167925
100	0x3c32646c	0.0108882
101	0x3ace2874	0.0015728609
102	0x3d6e5518	0.05818662
103	0x3d99300f	0.074798696
104	0xbca6679e	-0.02031308
105	0x3dfb5671	0.12272347
106	0xbde0762c	-0.109600395
107	0x3e519073	0.20465259
108	0x3d4ab211	0.049486224
109	0x3ea34faa	0.31896716
110	0xbe02b84c	-0.12765616
111	0x3e8a3864	0.26996148
112	0xbdb258d9	-0.087083526
113	0xbd221716	-0.039572798
114	0xbd194cac	-0.037426636
115	0x3cfa2701	0.030536177
116	0xbd59372e	-0.05303114
117	0x3de98d25	0.11403874
118	0xbd13c1a2	-0.036073335
119	0xbddfceaf	-0.10928094
120	0x3d374497	0.044743147
121	0x3df5ba9e	0.11998485
122	0x3e19d7b0	0.15023685
123	0x3a47bf6f	0.00076197734
124	0x3dbd3370	0.092383265
125	0x3dc5fc7f	0.096673004
126	0xbde6bc2b	-0.11266359
127	0x3df91e83	0.12164023
128	0x3c836101	0.016037466
129	0xbc8876c0	-0.016658187
130	0xbdf10b68	-0.11769754
131	0xbd622a4e	-0.055216126
132	0x3da245a1	0.07923437
133	0xbe06f4db	-0.13179342
134	0x3e031d75	0.12804206
135	0xba893db3	-0.0010470658
136	0x3e0bdc5c	0.13658279
137	0xbe10a233	-0.14124374
138	0xbd792644	-0.06082751
139	0xbde739e2	-0.11290337
140	0xbdd8b3a9	-0.105811425
141	0xbdc422bd	-0.09576938
142	0x3f5bb8b1	0.8582869
143	0x3fe22b74	1.7669511
144	0x3d7393d8	0.059467167
145	0xbe0b9c8f	-0.13633941
146	0xbdad71bb	-0.08468958
147	0xbd4406ab	-0.04785792
148	0xbd62af4b	-0.055342954
149	0x3d9ad373	0.07559862
150	0x3d6108df	0.0549401
151	0x3cf2f2bb	0.029656759
152	0x3d76728f	0.060167845
153	0xbe147c7a	-0.14500609
154	0x3d0aa409	0.033847842
155	0xbdfe6429	-0.12421448
156	0xbe078cac	-0.13237256
157	0xbc676bdc	-0.014124837
158	0xbd67c569	-0.05658475
159	0x3cf394a2	0.02973396
160	0x3c2a377e	0.010389207
161	0x3e31cd8f	0.1736357
162	0x3e0f05af	0.13967012
163	0xbb97cb19	-0.0046323654
164	0x3d63523b	0.055498343
165	0x3d0c0f04	0.034194008
166	0xbf834d2c	-1.0257926
167	0xbd43e2f4	-0.04782386
168	0x3d5acc2b	0.053417366
169	0xbd452cd5	-0.04813846
170	0x3d61f404	0.055164352
171	0xbda3dd13	-0.08001151
172	0xbbd51c4a	-0.0065036165
173	0xbe140e01	-0.14458467
174	0xbe2a817f	-0.16650961
175	0x3e5c1880	0.21493721
176	0xbc33019d	-0.010925678
177	0xbd8ec4c4	-0.06971124
178	0xbe48569e	-0.19564292
179	0x3dc18809	0.09449775
180	0x3c224ffc	0.009906765
181	0xbd8f4cf9	-0.06997103
182	0xbd2f1739	-0.042746756
183	0xbdb0eb76	-0.086386606
184	0x3ec17caa	0.37790424
185	0x3de7e514	0.1132299
186	0xbcb12f8e	-0.021629121
187	0xbdf5b621	-0.11997629
188	0xbddc717f	-0.10763835
189	0xbce8c6ba	-0.028415073
190	0x3d272fd9	0.040817115
191	0x3e8278cd	0.2548279
192	0x3db28f54	0.08718744
193	0x3e91d628	0.284837
194	0x3d3fb9bf	0.046808
195	0xbfc79b79	-1.5594321
196	0xbcc7d393	-0.024392879
197	0x3bd0cab8	0.006371822
198	0xbd70c575	-0.05878206
199	0x3dcb21c7	0.09918552
200	0x3cabb21b	0.02095895
201	0x3dca1f20	0.09869218
202	0x3df8ba8b	0.12144955
203	0xbe1d6c37	-0.15373312
204	0xbe11e8ae	-0.14248917
205	0x3cc5ceb4	0.024146415
206	0xbe0b6ce2	-0.13615754
207	0xbec1a54d	-0.37821427
208	0xbcb84b78	-0.022496924
209	0xbdebea02	-0.11519243
210	0xbd68df6d	-0.0568537
211	0xbe29d0a7	-0.16583501
212	0x3dc4f94a	0.096178606
213	0x3e142f3b	0.14471142
214	0xbe3b0e2c	-0.18267125
215	0x3e0b51fa	0.1360549
216	0x3daba374	0.083807856
217	0x3d86568d	0.06559477
218	0x3de7b508	0.11313826
219	0x3ed23556	0.41056317
220	0xbd2a3f60	-0.041564345
221	0x3e100a06	0.14066324
222	0xbe1127fe	-0.14175412
223	0xbbc37240	-0.0059645474
224	0x3e2873ef	0.16450475
225	0x3e80d18d	0.25159875
226	0x3e9eab9f	0.30990312
227	0x3cc03d26	0.023466658
228	0xbdcb12c8	-0.099156916
229	0x3da9b9aa	0.08287366
230	0xbc5c482b	-0.013444941
231	0x3e0b511e	0.13605163
232	0xbd453270	-0.048143804
233	0xbd7cfc3c	-0.061763987
234	0xbe076d97	-0.13225399
235	0xbd05a0e2	-0.032624133
236	0xbd0a3fe3	-0.033752333
237	0xbd641828	-0.0556871
238	0x3d12c7b3	0.03583498
239	0x3dca86ff	0.0988903
240	0xbd2cb03a	-0.04216025
241	0xbe029b5f	-0.12754582
242	0xbd18ab91	-0.037272993
243	0xbcc44b18	-0.023961589
244	0x3d842ce1	0.064538725
245	0xbe003416	-0.12519869
246	0x3e613e23	0.2199636
247	0x3e030c46	0.1279765
248	0xbe92fb14	-0.28707182
249	0x3f49f3b6	0.788875
250	0xbdd2a766	-0.10285835
251	0xbc815707	-0.015788568
252	0x3e2f3497	0.17109905
253	0xbe26dbe9	-0.16294827
254	0xbdf22412	-0.11823286
255	0x3e98020c	0.29689062

sequential_2/dense_8/MatMul f4 [256, 5]
0	0x3d4c7c69	0.049923334
1	0xbca53a17	-0.020169301
2	0x3dae7da2	0.08520056
3	0x3e28bee3	0.16479068
4	0xbc98b037	-0.018638713
5	0x3cf1c600	0.02951336
6	0xbddbe7b1	-0.10737551
7	0xbe09e259	-0.13465251
8	0xbe0a7498	-0.1352104
9	0x3d130ba7	0.035899784
10	0xbc71c0e2	-0.0147554595
11	0xbd152080	-0.036407948
12	0x3b486b4a	0.0030581527
13	0xbd2ee8d1	-0.0427025
14	0x3c68c95c	0.014208164
15	0x3e3a2117	0.18176685
16	0x3e4775ca	0.19478527
17	0x3d136ff8	0.035995454
18	0x3d5ba23c	0.053621516
19	0x3d230635	0.03980084
20	0x3e0c3409	0.13691725
21	0xbea06dbf	-0.3133373
22	0x3df068d5	0.11738745
23	0xbbec982d	-0.007220289
24	0x3cab23d6	0.020891111
25	0x3e28a2e8	0.16468394
26	0xbe0ecb5a	-0.1394476
27	0x3d8a5ed3	0.067563675
28	0xbd901b53	-0.07036462
29	0x3d3ce0f9	0.04611299
30	0x3e42490f	0.18973182
31	0x3e823e3b	0.25438103
32	0x3d62bcf4	0.05535598
33	0xbdca0ef0	-0.0986613
34	0xbe43e8ee	-0.19131824
35	0xbd04d0e1	-0.032425765
36	0x3de2287b	0.11042877
37	0xbd2f8e3b	-0.04286025
38	0x3d232172	0.039826818
39	0xbdfebee6	-0.12438755
40	0x3dbeccca	0.09316404
41	0x3ca3e378	0.020005926
42	0x3e0b2b2e	0.1359069
43	0xbdc26304	-0.09491542
44	0x3e0385c4	0.12843996
45	0x3dcc07e5	0.09962443
46	0x3dc2c78f	0.09510719
47	0x3dcca980	0.09993267
48	0x3db5a345	0.08869032
49	0x3c60bafa	0.013716454
50	0xbd92adb1	-0.07162035
51	0xbce8bce9	-0.028410392
52	0xbd29c72c	-0.04144971
53	0x3d4c58ee	0.049889497
54	0xbde4ada8	-0.11165935
55	0xbcea8ff7	-0.0286331
56	0xbe371d72	-0.17882326
57	0x3e0fd3d2	0.14045647
58	0xbc06d330	-0.008229062
59	0x3e11da53	0.1424344
60	0x3c29c9eb	0.010363082
61	0x3d8390da	0.064241126
62	0x3daedd55	0.085383095
63	0xbdd909db	-0.10597583
64	0x3e32003f	0.17382906
65	0xbe035b37	-0.12827764
66	0x3d906bea	0.07051833
67	0xbd790111	-0.060792033
68	0xbc9bac11	-0.019002946
69	0xbc16e1d3	-0.009209114
70	0xbddef30e	-0.10886203
71	0xbdf68259	-0.120365806
72	0x3df01598	0.11722869
73	0xbcd282ae	-0.025697079
74	0x3de2aabe	0.11067723
75	0x3e3236a5	0.17403658
76	0x3dfa0337	0.122076444
77	0xbdaf27f0	-0.08552539
78	0xbd46524b	-0.048418324
79	0x3e05ee0f	0.13079093
80	0xbdf5a0db	-0.11993571
81	0xbc522f74	-0.0128286965
82	0x3dd0fd4b	0.10204562
83	0x3e34c177	0.17651926
84	0xbe6695af	-0.22518037
85	0x3db7113e	0.089388356
86	0xbe0d3a28	-0.13791716
87	0x3dcd523a	0.10025449
88	0xbd99bb2d	-0.07506404
89	0x3d8b02eb	0.06787666
90	0x3cd34d01	0.025793554
91	0xbc9dfa03	-0.019284254
92	0xbde77eb3	-0.11303463
93	0xbe15c498	-0.14625776
94	0x3e067960	0.13132238
95	0xbe330b09	-0.17484678
96	0x3e31faaa	0.17380777
97	0x3c10f66c	0.008847814
98	0xbce08d45	-0.027411113
99	0x3de1f79b	0.11033555
100	0xbe201031	-0.15631177
101	0xbe669013	-0.22515897
102	0x3e0d70da	0.1381258
103	0xbdc98d58	-0.09841412
104	0x3e37d4d3	0.1795228
105	0xbdbc2675	-0.091870226
106	0x3dc0f3ff	0.094215386
107	0x3c1fb8aa	0.009748617
108	0xbde166ec	-0.11005959
109	0xbdc11ab7	-0.094289236
110	0xbd3f74a1	-0.046742085
111	0x3d960c05	0.07326511
112	0xbe1536b0	-0.14571643
113	0x3d1ec9ad	0.03876655
114	0x3bff5976	0.007792647
115	0x3e56530e	0.2093012
116	0x3c56e7f2	0.0131168235
117	0x3b812463	0.003941105
118	0x3d97ad5f	0.07406115
119	0x3e122e69	0.14275517
120	0x3d5a739e	0.053332917
121	0xbe4de402	-0.2010651
122	0x3da23042	0.07919361
123	0xbd912ed4	-0.0708901
124	0xbc5f5735	-0.013631632
125	0x3ea25978	0.31708884
126	0xbd325461	-0.0435375
127	0xbe9237a1	-0.28558066
128	0xbc46dc74	-0.012137521
129	0x3e57203b	0.21008389
130	0xbd9adffc	-0.07562253
131	0xbd9d9b0c	-0.076955885
132	0xbc67fae3	-0.014158937
133	0x3e095bc6	0.13413915
134	0x3d7cd45a	0.06172595
135	0x3d8c3c46	0.06847434
136	0x3c17b9dc	0.009260621
137	0x3d1af88a	0.03783468
138	0xbe0bddba	-0.136588
139	0xbd9ae25e	-0.07562707
140	0x3cd2e15c	0.025742225
141	0xbe5cfb63	-0.21580271
142	0x3d8d6d05	0.069055595
143	0xbeb6e6db	-0.35723004
144	0xbecf5d10	-0.4050069
145	0xbe15ae47	-0.14617263
146	0xbda088dc	-0.07838604
147	0xbdd2f5c3	-0.103007816
148	0x3d1992d7	0.037493553
149	0xbcf7ddd3	-0.030257141
150	0xbe048558	-0.12941492
151	0x3d6bd596	0.05757674
152	0xbe168447	-0.14698897
153	0x3ccaa6f2	0.024737809
154	0xbdf2c60d	-0.118541814
155	0xbda9cf82	-0.08291532
156	0x3d70fd8d	0.058835555
157	0xbe2b6516	-0.1673778
158	0x3dc6061f	0.09669136
159	0x3dabf237	0.08395808
160	0xbdaf43dd	-0.08557866
161	0xbe81da6c	-0.25361955
162	0x3dcee2ba	0.101018384
163	0x3e16916b	0.1470391
164	0x3ca25360	0.019815147
165	0x3dd53011	0.104095586
166	0xbe166dc8	-0.14690316
167	0xbd5208af	-0.051277813
168	0xbdbcab3a	-0.092123464
169	0x3d8c8694	0.06861606
170	0xbe39f439	-0.1815957
171	0xbdfa578d	-0.1222373
172	0x3e0e9217	0.13922916
173	0xbe2b6f33	-0.16741638
174	0x3e8b2aab	0.2718099
175	0x3ce80906	0.028324615
176	0x3e0e3a69	0.13889469
177	0xbe1e1612	-0.15438107
178	0x3dbe7258	0.09299153
179	0x3d7e5bf5	0.062099416
180	0x3dae2003	0.085021995
181	0xbde9795b	-0.114001
182	0xbccf5a4a	-0.025311608
183	0xbdbef7e8	-0.09324628
184	0xbdfafe54	-0.122555405
185	0x3e0ce3c9	0.13758768
186	0x3c12cdca	0.008960197
187	0x3e32f03d	0.17474456
188	0x3dcd3a2d	0.10020862
189	0x3c7a276d	0.015268189
190	0xbdc05ea9	-0.09393055
191	0x3df9b597	0.12192839
192	0x3d9ead9f	0.07747959
193	0xba97b945	-0.00115756
194	0x3c4f1c59	0.012641036
195	0xbe781758	-0.24227655
196	0xbe51829b	-0.20459978
197	0xbe24bfd8	-0.16088808
198	0x3dbb7829	0.09153778
199	0x3e5e191e	0.21689269
200	0x3e61bc45	0.22044475
201	0xbd64bc6b	-0.055843752
202	0xbe1db8e0	-0.15402555
203	0x3e11ce0f	0.14238761
204	0xbddd0eb1	-0.10793818
205	0x3dac90a5	0.08426026
206	0x3e111489	0.1416799
207	0xbe04510c	-0.12921542
208	0xbdf599a6	-0.11992197
209	0x3d08b3eb	0.03337471
210	0xbe03bafb	-0.12864296
211	0x3daf4548	0.08558136
212	0x3e039a99	0.12851943
213	0xbe00d151	-0.12579848
214	0x3e305514	0.17219955
215	0x3c07da41	0.008291782
216	0xbd1cc494	-0.03827341
217	0xbd726646	-0.059179567
218	0x3de0787f	0.10960483
219	0xbd93e7e4	-0.07221964
220	0xbe9b0e18	-0.3028419
221	0x3df2bc7e	0.11852358
222	0xbb967ec8	-0.00459275
223	0x3df40a6a	0.11916049
224	0x3dd77012	0.105194226
225	0x3dd506f4	0.10401717
226	0xbe7ba95d	-0.24576326
227	0x3e06a9ca	0.13150707
228	0x3c6a90a9	0.014316716
229	0xbd95d6a1	-0.07316328
230	0xbe056bf2	-0.13029459
231	0x3d88de04	0.06682971
232	0x3e7227dd	0.23648019
233	0x3db86b02	0.09004785
234	0xbe4a7129	-0.1976973
235	0xbd02baa1	-0.031916264
236	0xbe35423e	-0.1770105
237	0x3d8752e2	0.066076055
238	0xbda98fa9	-0.08279354
239	0x3d42277e	0.047400944
240	0xbd49245a	-0.049106933
241	0xbe0d8767	-0.13821183
242	0xbd54124b	-0.051775258
243	0x3df3fca8	0.11913425
244	0xbde060ea	-0.10955985
245	0xbb1d6afc	-0.0024020066
246	0xbd74181b	-0.0595933
247	0xbe0c8688	-0.13723195
248	0xbdf4db7c	-0.11955926
249	0x3e109b9c	0.1412186
250	0x3d8f32bf	0.06992101
251	0xbe0371f3	-0.12836437
252	0x3a8b1ece	0.0010614039
253	0x3dbd58bf	0.092454426
254	0xbd723b9c	-0.05913888
255	0xbe209edc	-0.156856

sequential_2/dense_9/MatMul f4 [64, 256]
0	0xbe09239b	-0.13392489
1	0x3ccffcc6	0.025389086
2	0xbd423380	-0.047412395
3	0xbb8bd74d	-0.004267609
4	0x3d69940a	0.057025947
5	0x3dfd72c3	0.12375405
6	0x3dbbe113	0.09173789
7	0x3cd9cb9e	0.02658635
8	0x3d7c1d05	0.061551113
9	0xbcec6baf	-0.028859941
10	0xbd967f50	-0.07348502
11	0x3cd1d8a3	0.025615996
12	0xbdf05a26	-0.117359444
13	0xbd00443d	-0.031315077
14	0x3da915b0	0.0825609
15	0x3dce2ef4	0.10067549
16	0xbdc33b96	-0.095328495
17	0x3c0946e0	0.008378714
18	0xbb05f08f	-0.0020437574
19	0x3d3169c9	0.043313775
20	0x3e03f21b	0.12885325
21	0x3dff3956	0.12462108
22	0x3d299913	0.04140575
23	0x3ddb285b	0.107010566
24	0x3c0ebdf9	0.008712285
25	0x3d3d8ce5	0.046276946
26	0xbd50ec58	-0.051006645
27	0x3db04351	0.086065896
28	0x3c97c6ed	0.018527472
29	0xbc88a88b	-0.01668193
30	0xbd8a9d3f	-0.067682736
31	0x3da0a271	0.07843483
32	0x3d786859	0.06064639
33	0x3dbd9b8b	0.09258183
34	0xbb0680a9	-0.0020523465
35	0x3d811179	0.06302161
36	0x3cc1c54e	0.023653653
37	0x3cbdb9b9	0.023159849
38	0xbd24730f	-0.04014879
39	0xbda9e203	-0.082950614
40	0xbc3bd558	-0.011464439
41	0x3e071597	0.1319183
42	0xbd0c96fa	-0.03432367
43	0x3c254ceb	0.010089139
44	0xbdd48db5	-0.10378591
45	0xbdbd193f	-0.09233331
46	0xbddbdf40	-0.10735941
47	0xbd473b68	-0.04864064
48	0x3d053b27	0.032527115
49	0x3d570772	0.052497335
50	0xbdccf87e	-0.100083336
51	0x3d41f915	0.047356684
52	0x3d43d365	0.047809023
53	0xbd5889d1	-0.052865807
54	0xbdc41d1b	-0.09575864
55	0x3ddf5ad2	0.109059945
56	0xbdbc49b0	-0.09193742
57	0x3dfe77aa	0.12425168
58	0xbb880cef	-0.0041519324
59	0x3c0e8f5f	0.0087011745
60	0xbdab013e	-0.08349846
61	0xbd4f604e	-0.050628953
62	0x3db95fbd	0.09051464
63	0xbca7b709	-0.02047302
64	0xbdcc1c08	-0.09966284
65	0x3d84bb6f	0.064810626
66	0xbde35a81	-0.111012466
67	0xbe084472	-0.1330736
68	0xbde185ef	-0.11011874
69	0xbe058d58	-0.130422
70	0x3ddb7a91	0.10716737
71	0x3dba6d82	0.09102918
72	0xbdbc5862	-0.09196545
73	0x3de5f9f8	0.112293184
74	0x3d3a2d3f	0.045453306
75	0xbdd2d58d	-0.10294638
76	0xbdca36a8	-0.09873706
77	0x3da9c23a	0.08288999
78	0x3d95390b	0.07286271
79	0x3ddc672a	0.107618645
80	0x3decbe14	0.11559692
81	0x3da4ef87	0.08053499
82	0x3e0331fb	0.12812035
83	0x3d877b36	0.066152975
84	0xbe089e71	-0.1334169
85	0x3dac0703	0.08399775
86	0xbcf142b2	-0.029450748
87	0xbdc197bf	-0.094527714
88	0x3ba588ad	0.0050516934
89	0x3b05f00a	0.0020437264
90	0xba9e7a76	-0.001209094
91	0xbc22e345	-0.009941881
92	0x3c054aa7	0.008135474
93	0x3dc1c156	0.09460704
94	0xbde42a9a	-0.11140938
95	0xbdf23d6b	-0.11828121
96	0xbdfef1f7	-0.12448495
97	0xbe0868bd	-0.13321204
98	0xbd3d47ac	-0.04621093
99	0x3d94755e	0.072489485
100	0x3dc77e46	0.097408816
101	0xbd7fbf16	-0.062438093
102	0x3daad8cb	0.08342131
103	0x3dc9facc	0.09862289
104	0x3cbe2dcf	0.023215203
105	0xbd1b678a	-0.03794054
106	0xbdcf7f34	-0.10131684
107	0x3cc63dc6	0.024199378
108	0xbdee2e8a	-0.1162997
109	0xbc8979d7	-0.01678173
110	0x3ce536ae	0.027980175
111	0x3db25fb3	0.087096594
112	0x3d920b5c	0.07131073
113	0xbd285ae3	-0.0411023
114	0x3d3e16fa	0.04640863
115	0xbdc37522	-0.09543826
116	0xbdd416b4	-0.10355893
117	0xbb6e9571	-0.0036404992
118	0x3d722c16	0.059124075
119	0xbdabc55d	-0.083872534
120	0xbc3ad49b	-0.011403228
121	0xbde2892e	-0.11061321
122	0xbdff92f1	-0.12479199
123	0x3dd61bde	0.10454534
124	0xbcaaf606	-0.020869266
125	0x3e007c3a	0.12547389
126	0x3c435e0a	0.011924276
127	0xbdd3c5ac	-0.10340437
128	0x3db286ca	0.08717115
129	0x3cd93b26	0.026517462
130	0xbd6c2733	-0.05765457
131	0x3d99ef49	0.07516343
132	0x3d9d3ce9	0.07677633
133	0xbda05851	-0.07829345
134	0xbd3d95ad	-0.04628532
135	0xbe08a508	-0.13344204
136	0x3d88ba68	0.06676179
137	0xbddd858b	-0.10816487
138	0xbcf2491f	-0.029575882
139	0xbcbabc1b	-0.022794774
140	0xbcec28da	-0.028828073
141	0xbe02a744	-0.1275912
142	0x3d78160c	0.0605679
143	0x3cba184c	0.022716664
144	0x3e048ee9	0.12945141
145	0x3db24500	0.08704567
146	0xbd6fd984	-0.05855705
147	0xbd39a3ef	-0.045322355
148	0x3d767b23	0.060176026
149	0xbd6815cf	-0.056661423
150	0xbda70b43	-0.08156445
151	0x3c6d2a63	0.014475438
152	0x3d7db146	0.06193664
153	0x3de2bfa8	0.11071712
154	0x3dd62f25	0.10458211
155	0x3e051318	0.12995565
156	0xbd54d35f	-0.05195939
157	0xbdc8386a	-0.09776385
158	0xbde78144	-0.11303952
159	0xbdd0bb95	-0.101920284
160	0xbdf9a265	-0.121891774
161	0xbdce5a9a	-0.100758746
162	0x3c0588d0	0.008150294
163	0xbb59aa1e	-0.003321297
164	0xbc991f67	-0.018691732
165	0x3d81d864	0.06340101
166	0x3d3efbbb	0.046626788
167	0x3dd1e4bc	0.10248706
168	0x3cb056ba	0.02152573
169	0xbcebc1be	-0.028778907
170	0x3d2719ab	0.040795963
171	0x3d802765	0.06257514
172	0x3e09593d	0.13412948
173	0xbd45b89c	-0.04827176
174	0x3cfa7a80	0.03057599
175	0xbdb5dd0e	-0.088800535
176	0xbdd20adf	-0.1025598
177	0x3de80738	0.11329502
178	0x3dc4075b	0.095717154
179	0xbd487d3a	-0.04894755
180	0x3df06247	0.11737495
181	0xbd90ac53	-0.07064118
182	0xbdecac4f	-0.11556303
183	0x3cfba7ae	0.030719604
184	0x3db259c6	0.08708529
185	0xbd2ec362	-0.0426668
186	0x3d75b80a	0.059989966
187	0x3deed649	0.116619654
188	0xbd2f837b	-0.04285
189	0xbca97fdf	-0.020690857
190	0xbd5a7905	-0.05333807
191	0xbd268ac5	-0.040659685
192	0x3e038a6d	0.12845774
193	0xbd88eb7c	-0.0668554
194	0xbcbeda68	-0.023297504
195	0x3d9328bb	0.07185503
196	0x3db689eb	0.089130245
197	0xbd98d1d9	-0.074619
198	0xbc53abf3	-0.012919414
199	0xbcb7c561	-0.022432985
200	0x3da616f4	0.08109847
201	0x3d0c2bd8	0.0342215
202	0xbd980804	-0.07423404
203	0xbc3eb17f	-0.011638998
204	0x3b0a634f	0.0021116321
205	0xbcb97d5b	-0.022642782
206	0x3d7b7934	0.061394885
207	0x3e046a2b	0.12931125
208	0x3d57fcc2	0.052731283
209	0xbd6ff6e1	-0.05858505
210	0x3da7aa92	0.081868306
211	0x3d30bfef	0.043151792
212	0xbddc379b	-0.107527934
213	0x3c1fed1f	0.009761124
214	0xbd73de51	-0.05953819
215	0xbd24efef	-0.04026788
216	0xbe01f607	-0.12691508
217	0x3c81a7d7	0.015827103
218	0x3dc69fdf	0.09698462
219	0xbd94f8f6	-0.07274048
220	0x3d71d3c9	0.059039865
221	0x3bf9709e	0.007612302
222	0xbdf75286	-0.12076287
223	0x3de0d219	0.10977573
224	0x3dc56250	0.09637892
225	0x3a068189	0.00051309966
226	0x3d4f81d3	0.05066092
227	0x3cc7f5c1	0.024409177
228	0x3b032626	0.0020011752
229	0xbd931f14	-0.07183662
230	0xbc3b8e3a	-0.011447484
231	0xbdb52338	-0.08844608
232	0xbd1ed6df	-0.038779136
233	0xbdd7918c	-0.10525808
234	0xbc8144c5	-0.015779862
235	0xbe0284ba	-0.12745944
236	0x3c324d7f	0.010882734
237	0xbd50acbd	-0.050945986
238	0x3de45180	0.111483574
239	0xbdd3f85f	-0.103501074
240	0xbd6ab214	-0.057298735
241	0x3cdd5f56	0.027022999
242	0x3dfc02c3	0.12305214
243	0x3d07e71c	0.033179387
244	0xbcc7feb3	-0.024413442
245	0x3df3cac6	0.1190391
246	0xbdc9ee9c	-0.09859964
247	0x3de23bec	0.110465854
248	0xbdad8f45	-0.08474592
249	0xbdf322ef	-0.118718974
250	0xbcf5c7aa	-0.030002434
251	0xbdfcbac3	-0.123403095
252	0xbddd3de2	-0.10802819
253	0xbdde451e	-0.10853027
254	0xbe0db507	-0.13838588
255	0x3dfd8815	0.12379471
